Project/Software/project_Mobilenet_q/Mobilenet_ckpt/Mobilenet_BN_folded.ckpt (torch, 271906 bytes, 60 tensors)

conv1.weight f4 [8, 1, 3, 3]
000000 0b 09 90 3e 91 d0 6d 3e af 78 39 bc b2 68 ff 3d
       0.281319 0.23224093 -0.011320277 0.12471141
000010 19 fd 77 3d 1f 75 05 bd 56 9b 0f 3d 2b d2 d4 bd
       0.060544107 -0.0325824 0.03506025 -0.10391649
000020 d5 21 3a 3d 11 75 2c 3e 36 f0 8c be e8 65 32 be
       0.04544242 0.16841532 -0.27527016 -0.17421687
000030 9f eb 9f 3e cc d5 80 3e 21 81 b0 3d cd d7 6b 3e
       0.31234452 0.25163114 0.086183794 0.2303154
000040 55 42 6c 3e fd 29 90 3e 05 e3 04 bd 6c 78 98 be
       0.23072179 0.28157035 -0.032443065 -0.29779375
000050 da 51 48 3e 91 5a 8b 3d 90 c2 c1 bd 03 98 50 be
       0.19562474 0.068043835 -0.09460938 -0.20370488
000060 bb 22 99 be af 69 7f bd f6 34 0f bc e6 83 9c be
       -0.2990931 -0.062356647 -0.008740654 -0.3056938
000070 db 70 93 3e a8 09 b6 bd 51 76 69 be 2b 2d 05 be
       0.2879704 -0.088885605 -0.2279904 -0.13005511
000080 b4 f3 48 be 8f 27 54 be 16 96 85 bd f5 67 9c be
       -0.19624215 -0.20718215 -0.06522767 -0.30548063
000090 80 11 c0 bd 8b 3f 22 3d 2e 8c 9c 3e 4e 9e 14 3d
       -0.09378338 0.03961138 0.305757 0.036283784
0000a0 64 f5 76 3e 95 c8 81 3e db a1 53 3e d5 82 95 3b
       0.24117047 0.25348344 0.20667212 0.0045627155
0000b0 c0 bd a7 3e 36 2f 0c be cc 19 48 be 90 86 8e be
       0.32761955 -0.13689885 -0.1954109 -0.27837038
0000c0 36 f1 1a bd 27 e1 84 be 08 96 2b 3d e7 f7 52 be
       -0.037827693 -0.25953028 0.041891128 -0.2060238
0000d0 3c 51 64 be 3c e9 9a 3e 53 65 c7 3b d4 a3 6d bc
       -0.22296613 0.3025607 0.006085077 -0.014504392
0000e0 50 5b 7e 3e 1c dc 06 bd c8 c6 dc 3d 96 ea b0 3e
       0.2483952 -0.032924756 0.10780102 0.34553975
0000f0 6d 26 9b 3e 27 71 39 be 3d ea 84 be 81 93 8e 3e
       0.30302754 -0.1810957 -0.2595996 0.27846912
000100 eb 16 35 be 20 f1 e4 bc 4f 19 4a 3e 3d f1 27 be
       -0.17684524 -0.027947009 0.19736217 -0.16400619
000110 4e 3f 96 3d b3 86 82 bd cd 2b 2e be 58 f0 88 3e
       0.07336293 -0.06373348 -0.17008896 0.26745868

conv1.bias f4 [8]
000000 3b e2 9a bd c5 9f 5a be 75 82 ed bd 1b 4b d1 bb
       -0.07562681 -0.2135001 -0.11597148 -0.006387127
000010 c3 e1 6b bd e6 a2 38 bd 4d 88 04 be 43 1f 5a 3e
       -0.05758835 -0.045077227 -0.1294262 0.21300988

block1.pw1.weight f4 [8, 8, 1, 1]
000000 f5 dc 5a 3e 32 19 3c bf b8 d9 8f 3e 6e d2 71 3f
       0.21373351 -0.73475945 0.28095794 0.94461715
000010 a9 f1 55 3f 30 86 8f 3f 68 46 80 be 6f 6e 65 3f
       0.8357187 1.1212826 -0.25053716 0.89621633
000020 f2 34 57 be f3 d2 dd bf 01 7e 6c 40 af 3b 29 c0
       -0.21016291 -1.7330002 3.6951907 -2.6442678
000030 1e b6 40 c0 1e 62 54 bf d1 84 62 40 d0 17 49 c0
       -3.0111156 -0.82962215 3.5393565 -3.1420784
000040 ce 2b 0d 3f a5 af 79 bf 22 12 82 3f 98 c4 13 3f
       0.55144966 -0.9753364 1.0161784 0.57721853
000050 6b e9 c0 be b0 06 ab be b6 6f 9b bf 9e a5 4f bf
       -0.37678084 -0.3340354 -1.2143466 -0.81112087
000060 34 60 d4 3f 80 24 77 3f 18 35 f1 bf 98 7f 21 40
       1.6591859 0.9654007 -1.8844328 2.5234127
000070 75 e2 1c c0 93 40 2b c0 49 54 47 40 e6 12 07 3f
       -2.4513218 -2.6758163 3.1145194 0.5276321
000080 d2 7d 17 bf ae 83 0d 3f bd 9e 98 bf ec 09 6a 3f
       -0.5917636 0.5527905 -1.1923443 0.9142139
000090 7c 2e 93 3f f2 9a 34 bf f4 0d 5e 3f 51 71 3e 3f
       1.1498561 -0.7054893 0.8674004 0.7439166
0000a0 15 24 2e c0 16 3b 1e be 62 98 20 40 95 de e4 bf
       -2.7209523 -0.15452227 2.5093007 -1.7880427
0000b0 ca 54 39 40 82 f2 e8 3f 87 57 44 40 81 0f 80 c0
       2.8958 1.8199008 3.0678422 -4.0018926
0000c0 8d 14 90 3f 4d c8 9c 3f fa e0 3b be 83 c8 1d 3e
       1.1256272 1.2248627 -0.1834754 0.1540852
0000d0 18 ec 18 3e 60 9a ae bf 85 08 70 bf 58 ec a5 3e
       0.14933813 -1.3640862 -0.93763 0.32406878
0000e0 85 3c 05 be 6f fe 20 bd 1a f9 13 40 f7 39 2b 3f
       -0.13011368 -0.039305147 2.312079 0.6688532
0000f0 54 7b 45 bf ed 50 e7 bf 37 d7 2a c0 9e 05 3b 3f
       -0.7714131 -1.8071572 -2.6693857 0.73055446

block1.pw1.bias f4 [8]
000000 1a 5e e0 3e 78 f7 f6 3f be 92 4f 3f fc 82 59 be
       0.43821794 1.9294271 0.81083286 -0.21241373
000010 9a d2 58 bf 0b 74 ad 3f c9 16 52 bf 94 22 00 3f
       -0.8469635 1.3551039 -0.8206602 0.5005276

block1.dw1.weight f4 [8, 1, 3, 3]
000000 3e c6 1e c0 68 f2 2f bf 50 b3 a3 3f a7 6c 2b bf
       -2.4808497 -0.6872926 1.2789097 -0.66962665
000010 62 7b f9 bf 7f 5c 51 40 8c 38 2b 40 88 94 61 c0
       -1.9490778 3.2712705 2.6753263 -3.5246906
000020 2e ea f7 3f 12 a5 c5 3f bb e5 46 3f 68 de 57 3e
       1.9368341 1.5441 0.7769429 0.21080935
000030 0d 17 c1 3f 29 c6 07 3f e0 77 9c bf e6 13 df bf
       1.508516 0.53036743 -1.2224083 -1.7427948
000040 a6 5d f7 bf 4c 19 61 3e 53 b9 ce 3e 3a 55 38 3f
       -1.9325454 0.21982306 0.40375766 0.72005045
000050 c4 b6 47 3e 34 9f ee be ca 65 9e 3e 49 73 ed 3e
       0.19503313 -0.46605837 0.30937034 0.46377018
000060 4d 03 e1 3e 5f a4 58 3e d4 03 df 3e b6 05 ac 3e
       0.4394783 0.21156453 0.43557608 0.33598107
000070 25 c7 a7 3f b5 3f 4d bf f5 b3 75 3e 3b 84 5d 3f
       1.3107649 -0.80175334 0.2399443 0.8652989
000080 c6 0b 97 bf d7 4d af 3e 19 d8 9e bf 33 20 63 3e
       -1.1800468 0.34239075 -1.2409698 0.22180252
000090 38 5f 4f 3f 5d f0 61 bd 8b bb 33 3f 2f 9d ba 3e
       0.8100467 -0.05516087 0.7020804 0.36448047
0000a0 c8 3e 82 3f 35 5a 24 3f 48 fd 3a bf d4 75 0a c0
       1.0175409 0.64200145 -0.73042727 -2.1634417
0000b0 2d f9 ca bf cd e5 86 bd 40 6a ae bd d4 18 f0 be
       -1.5857292 -0.065868 -0.08516359 -0.46893942
0000c0 79 ce c7 bc d3 9c fe be a2 5a 17 bf a6 a6 7a 3e
       -0.024390446 -0.49729022 -0.5912267 0.24477634
0000d0 f3 f0 0a 3e 1d 5b fa be 77 39 a2 3f 9c c2 b2 be
       0.13568477 -0.4889764 1.2673787 -0.349141
0000e0 d2 65 e9 3e f4 1b cb 3e e0 f4 ac 3f cc 72 bd bf
       0.45585495 0.39669764 1.351223 -1.4800658
0000f0 61 38 88 bf dc 8a cf 3f 0c 2b b2 bf ad 2f bb bf
       -1.0642205 1.6214252 -1.3919387 -1.4623924
000100 3b 7a 8c 3f eb 73 1c 3f 3d c5 4a 3f c0 fb d8 be
       1.0974802 0.61114377 0.7920721 -0.4237957
000110 37 d8 03 be 34 80 e5 3e bc 3a 07 c0 d9 09 a3 bf
       -0.12875448 0.44824374 -2.1129599 -1.273738

block1.dw1.bias f4 [8]
000000 a0 96 bd bd f1 24 94 3e ec ab bb be bf ce 2c 3c
       -0.09257245 0.28934434 -0.36654603 0.010547339
000010 27 7a 00 3e 24 df e9 3e 76 6c 45 be a3 17 e9 3e
       0.12546597 0.45678055 -0.19279656 0.45525846

block1.se1.fc.0.weight f4 [8, 8]
000000 32 5b eb 3d be 02 da 3d dc 9a fe bc 2a 17 06 3e
       0.114920035 0.10645054 -0.031079702 0.13094774
000010 a0 0a 04 3e e0 96 31 3e 0d d4 d6 bd 1c 6d 4d 3d
       0.12894678 0.1734271 -0.10489664 0.050152883
000020 94 58 6f be 93 3e 10 3e 04 b8 b9 3e 0d 63 8c 3e
       -0.23373634 0.1408637 0.36273205 0.2741932
000030 e2 78 01 3d ae 60 a4 3e de 07 90 3d d5 c3 b6 be
       0.031609423 0.3210501 0.070327505 -0.35696283
000040 41 af 22 be 10 3b a2 3e ac d9 74 3e c3 ed 57 3e
       -0.15887167 0.31685686 0.2391116 0.21086793
000050 17 75 d7 3c 44 41 38 3e e0 25 22 bd 06 97 93 3e
       0.02630095 0.17993647 -0.0395869 0.2882616
000060 11 d0 9b 3e a5 b3 af 3d 57 5d 0d 3e 5e 5b 7a 3e
       0.3043218 0.08579186 0.13805138 0.24448916
000070 ef 21 8b 3a e0 e9 75 bd 64 2a a4 be 23 5d 01 be
       0.0010614971 -0.060037494 -0.3206359 -0.12633185
000080 a6 67 85 3c d1 c4 56 be 5e 74 16 3e 00 9b 8d 3e
       0.016284775 -0.20973517 0.14692828 0.27657318
000090 83 a5 39 be c7 c1 b5 3d 99 cb b8 3d d7 68 09 be
       -0.18129544 0.08874851 0.09023208 -0.134189
0000a0 1d b2 8b be 15 93 95 3e cd 2c d8 bd 4d 16 c1 bd
       -0.27284327 0.29213777 -0.1055542 -0.09428082
0000b0 0a 61 a2 3e 7c fc 3a bd f9 03 4a be eb 0e b8 3d
       0.3171466 -0.045650944 -0.19728078 0.089872204
0000c0 85 49 7a be 55 23 53 bb 19 0c 24 be 82 52 a5 be
       -0.24442108 -0.0032217104 -0.1602024 -0.3228951
0000d0 39 12 f0 3d 16 18 6d be 76 72 28 3e bb 0a 66 be
       0.11722226 -0.2315372 0.16449913 -0.22465031
0000e0 04 01 b9 3e b8 03 eb 3d 42 e8 9e be 18 f1 96 be
       0.36133587 0.11475319 -0.31036574 -0.29480815
0000f0 8e ad a1 3e fd 11 6d be d0 34 7c be d7 d4 96 be
       0.31577724 -0.23151393 -0.24629521 -0.2945926

block1.se1.fc.2.weight f4 [8, 8]
000000 8d be 8d 3e a0 e9 b6 bd 37 13 4b bd 80 41 fb 3d
       0.2768444 -0.08931279 -0.04957887 0.122683525
000010 fe 76 ee bd 29 c3 5b bd 5c e6 90 be 1f 95 76 3e
       -0.1164379 -0.053652916 -0.2830075 0.24080323
000020 00 68 07 bb 90 82 9a bc 41 e0 26 be f0 84 30 bd
       -0.0020661354 -0.018861085 -0.16296484 -0.04309553
000030 e2 50 9b be 80 6d 04 bc 29 b5 29 be df ee 2e be
       -0.30335146 -0.008082747 -0.16573013 -0.1708331
000040 b6 d5 66 bd b9 70 18 3e 85 88 c6 3e fc 5b cd 3d
       -0.056356154 0.1488675 0.3877603 0.1002731
000050 76 99 8d be 37 57 4f 3d e6 fa b3 3e ef ec 8b 3e
       -0.27656144 0.050620284 0.35152358 0.27329203
000060 ca ed 3f 3e c4 58 8c be ea dc cc bd ce 55 2a 3e
       0.18743053 -0.27411473 -0.100030735 0.16634294
000070 db 2f 3d be 37 38 89 3c ba 6c 26 3e 5b 8e 8e 3e
       -0.18475287 0.016750438 0.16252413 0.27842984
000080 f9 88 02 3e 63 6a 9c be 6e 66 e2 3d ba e3 7f be
       0.12747563 -0.30549917 0.11054693 -0.24989215
000090 eb c3 8b bc 64 c2 92 3e 9d 6b 81 ba 10 4a 93 be
       -0.017061194 0.28663933 -0.000987399 -0.28767443
0000a0 60 76 42 bd a7 cb df 3c 38 29 b2 3e 2a 9f da 3d
       -0.047476172 0.027318789 0.34797072 0.106748894
0000b0 cc 24 0f 3e 64 1d 73 be 28 4f 22 bd f0 c0 64 3d
       0.1397888 -0.2374168 -0.03962627 0.055848062
0000c0 10 a7 e7 bc f1 8c df bd 93 f9 4c bd 8b cb 78 3e
       -0.028277904 -0.10915554 -0.0500427 0.24296395
0000d0 9a cc 23 bc 2c e3 a9 3d c8 68 cf bc f9 15 47 be
       -0.009997511 0.08295283 -0.025318518 -0.19441976
0000e0 99 08 46 3e 86 7f 40 be 7d 9a 6c be 67 33 e0 bd
       0.19339217 -0.18798646 -0.23105808 -0.10947304
0000f0 fe 9b 87 3e 7b 9e 80 be 07 ec 6f be fb d4 34 3e
       0.264862 -0.2512091 -0.23429881 0.1765937

block1.pw2.weight f4 [16, 8, 1, 1]
000000 89 ae 49 c2 58 3d 67 c1 44 b6 a5 40 76 51 80 c1
       -50.420444 -14.4524765 5.178499 -16.039776
000010 5e c1 46 41 32 f3 b1 41 a5 1d 6a 42 32 a0 a6 41
       12.422209 22.243748 58.52895 20.82822
000020 6f f2 67 41 32 ea 20 c1 c0 54 35 41 a2 e5 02 3f
       14.496688 -10.057177 11.333191 0.5113164
000030 5a 4e 52 3f b5 11 c6 41 49 e5 9b 41 ca 43 43 41
       0.82150805 24.758646 19.486956 12.20405
000040 67 b4 92 c1 36 f1 aa 41 a8 ff 99 41 6e b7 f8 41
       -18.338087 21.367779 19.249832 31.089565
000050 cb c8 a8 41 10 64 92 c1 ed 17 93 c1 f3 25 cd 41
       21.098043 -18.298859 -18.386683 25.64353
000060 71 bd 82 c1 f1 2b 49 c1 70 f5 ab c1 86 27 be 3e
       -16.3425 -12.573228 -21.494843 0.3713953
000070 39 fe eb bf 51 73 88 40 30 b6 14 c1 28 76 49 41
       -1.8436958 4.2640767 -9.294479 12.591347
000080 23 01 43 41 4a 52 1d 41 bd 17 69 41 10 52 76 41
       12.1877775 9.83259 14.5682955 15.395035
000090 32 b9 69 c1 e5 0a 3b 41 43 8c 38 41 c9 41 63 c1
       -14.607714 11.69016 11.534244 -14.203561
0000a0 5c 10 4e c1 68 ce 4e c2 ec 0c 5d c1 8f e2 63 c0
       -12.878994 -51.70157 -13.815655 -3.560703
0000b0 74 67 e7 c1 14 05 22 40 14 cc 2a 42 55 ca 1d c2
       -28.925514 2.53156 42.699295 -39.44759
0000c0 6a 73 06 c1 14 10 67 41 86 8d 9e c1 fb b1 0a c2
       -8.403177 14.441425 -19.819103 -34.67381
0000d0 a4 59 31 c1 5e a4 10 42 c4 42 9f 41 99 da c1 40
       -11.084385 36.160515 19.9076 6.0579343
0000e0 d2 5f 0c 41 af 88 ff 40 7b a6 98 41 45 92 98 c1
       8.773394 7.985435 19.08129 -19.07142
0000f0 5a 9a 57 40 3f a4 24 bf 69 42 1d c1 89 77 e9 c0
       3.3687959 -0.6431312 -9.828713 -7.2958417
000100 46 80 6f c1 9c 53 95 40 54 d5 29 c1 4b 41 86 41
       -14.968817 4.666456 -10.614582 16.781881
000110 79 f9 4d 42 90 05 80 41 00 7d 1e c1 31 7d 9a 41
       51.493626 16.002716 -9.905518 19.311129
000120 d7 c4 07 41 fb 6d 48 41 82 55 33 41 96 12 78 c1
       8.485557 12.526851 11.208376 -15.504538
000130 25 58 86 c1 63 31 a9 41 8b cd fe c0 67 03 e8 3f
       -16.79304 21.149115 -7.9625907 1.8126038
000140 47 63 10 40 87 94 44 c1 c9 51 67 41 48 bd 5a c1
       2.2560594 -12.286262 14.457467 -13.671211
000150 be b8 ad 41 b5 95 09 41 d1 80 af c1 14 73 95 41
       21.715206 8.59905 -21.937899 18.68119
000160 4b 28 b4 41 89 e4 e3 41 99 c2 85 c1 63 a2 4d 41
       22.519674 28.48659 -16.720018 12.852145
000170 80 99 d8 c1 39 87 74 41 85 49 ab 41 60 4b d5 c1
       -27.074951 15.283013 21.410898 -26.661804
000180 46 47 dc c1 01 8f 9f c2 ca 65 3f 41 ca 2f b9 c1
       -27.534801 -79.779305 11.962351 -23.148335
000190 5f 9b ac c0 f1 72 b0 bf d6 c9 0b 42 d0 80 b2 c1
       -5.393966 -1.3785077 34.947105 -22.312897
0001a0 06 f6 c9 c0 7a 09 59 40 a4 f0 a4 41 0a 93 af c1
       -6.311282 3.3912034 20.6175 -21.946796
0001b0 09 6c 37 41 12 e9 1f c1 e4 53 70 3f 38 91 f6 40
       11.463876 -9.994402 0.93878007 7.705227
0001c0 e7 6a 64 41 07 6e 28 c1 e7 d5 73 c1 76 a6 58 41
       14.276099 -10.526862 -15.239722 13.54064
0001d0 7e 05 9a 40 80 55 43 c1 87 7a 4b c1 38 10 4a 41
       4.8131704 -12.208374 -12.717414 12.62896
0001e0 4b 63 be c1 cc c6 95 41 d3 21 9b 41 74 12 1a c1
       -23.798483 18.722069 19.391516 -9.629505
0001f0 7e ff 70 c1 eb 76 ae c1 93 ce c2 c1 e8 f4 f4 40
       -15.062376 -21.808065 -24.350866 7.654896

block1.pw2.bias f4 [16]
000000 44 63 bc be d3 12 fe be f3 17 3a be 77 93 df 3e
       -0.36794484 -0.49623737 -0.18173198 0.43667194
000010 56 8f c6 be a9 29 9c 3e c0 8c 10 3d 04 14 c5 be
       -0.38781232 0.30500534 0.03529048 -0.38491833
000020 ea 91 0d bd b1 20 bf be 16 a7 d2 be da 47 3d 3e
       -0.034562983 -0.3732963 -0.411431 0.1848444
000030 51 24 39 be 9a 4f 9a be 71 5a e7 3e 60 dd 28 bb
       -0.1808026 -0.30138856 0.4518619 -0.0025766715

block2.pw1.weight f4 [48, 16, 1, 1]
000000 09 20 07 bf 15 b7 f8 be 9a fd 4d 3d 6c 64 47 3f
       -0.52783257 -0.4857718 0.05029068 0.77887607
000010 c0 8a 09 bd 4c d6 64 3e bc bd 1a bc 18 a2 9c be
       -0.033579588 0.22347373 -0.00944465 -0.30592418
000020 cf fa c8 3e 1f c6 64 3e 72 42 43 3d cf 71 6c be
       0.39253852 0.22341202 0.04767079 -0.2309029
000030 e9 ce cb 3e 76 4a 0b bf 32 06 81 3d 6b 72 24 be
       0.39806297 -0.54410493 0.0630001 -0.16059272
000040 a4 3c 57 3e 5e 0f dd 3e 37 dc af be e4 62 88 be
       0.21019226 0.43175787 -0.34347698 -0.26637948
000050 2c 8d 1c 3f 5d 6d 97 3e d7 80 da 3e 18 2c ee 3d
       0.6115291 0.29575625 0.42676422 0.11629504
000060 4c 9a fc be e5 35 9e 3e e4 48 a5 3d 40 5d ba 3e
       -0.4933647 0.30900493 0.080705434 0.3639927
000070 2a 33 c9 3d 4b 0f 9e bc e8 f2 b3 bd 43 cb dd 3e
       0.09824212 -0.019294402 -0.08786565 0.4331914
000080 64 77 23 bf 64 2b c2 3e 5b ec 15 bf f2 7c 1e 3e
       -0.6385405 0.3792373 -0.58563775 0.1547735
000090 69 25 e6 3b 8e ea 0b 3f 25 dd 79 be 3a 75 dc be
       0.0070235026 0.5465478 -0.24400766 -0.43058187
0000a0 e7 be 1e 3f 29 9a 2e bf 0f fd b0 3e 61 ee 58 bf
       0.62010044 -0.6820398 0.34568068 -0.8473874
0000b0 eb 50 49 bf 5b 73 22 3e db 81 2c 3e e4 52 e6 3d
       -0.78639096 0.15864317 0.16846411 0.11246279
0000c0 47 d7 38 3e 7f 55 8a be 78 4d 86 3e 20 b2 a4 be
       0.18050872 -0.27018353 0.2623098 -0.3216715
0000d0 54 34 a0 be f3 45 c1 be 41 63 35 be 80 9c 49 be
       -0.31289923 -0.3774868 -0.17713644 -0.19688606
0000e0 9c 68 74 be ce fc 16 3e 87 c5 ab bd be 3c 02 bf
       -0.2386803 0.14744875 -0.08387285 -0.50873935
0000f0 0c ab 0b 3e 68 c7 64 3e 5c cc f6 be a3 8d 39 3e
       0.13639468 0.22341692 -0.4820279 0.18120436
000100 08 0d a7 3d 26 7d e5 be a3 5d 51 3f 30 83 71 bd
       0.081567824 -0.44822043 0.81783503 -0.058963
000110 64 de dd 3e 12 a0 70 be 5d f5 76 3f bb 16 c3 be
       0.43333733 -0.23498562 0.96468145 -0.3810328
000120 8e 0a c9 3e 69 a3 48 3f 4b b9 56 3f e5 64 2e 3f
       0.39265865 0.78374344 0.83876485 0.681227
000130 e9 3d 12 be 19 20 8b bd c5 62 36 3f 76 fd af be
       -0.1428143 -0.067932315 0.7124446 -0.34373063
000140 9b 9f cd 3e 1e f7 a2 3e 61 8c ee be db cd 4b be
       0.40160832 0.3182916 -0.46591476 -0.19902746
000150 7f 2a 03 3f b8 83 1b 3e b2 f8 7c be bf ae 80 3e
       0.5123672 0.15186965 -0.24704245 0.2513332
000160 b0 a6 a8 be 57 00 a5 3c 24 d8 03 3e da 70 26 bd
       -0.32939672 0.020141764 0.1287542 -0.040634967
000170 b4 57 90 bd a4 1b 3f 3c ad 4f f4 bd bf 59 87 3e
       -0.07047978 0.011664305 -0.119292594 0.26435658
000180 fb f7 ce 3e 24 b2 af 3e d6 77 35 be e9 41 82 be
       0.4042357 0.34315598 -0.17721495 -0.2544091
000190 d9 5c bb 3e 05 97 9b 3e 60 20 52 be 67 96 e3 3e
       0.36594275 0.30388656 -0.20520163 0.44450685
0001a0 94 0a 10 be 65 ee 2d bd 44 c2 9a be ec da d9 3c
       -0.14066535 -0.04246368 -0.30226338 0.026593648
0001b0 1d b4 3a 3e 37 22 81 3e 1d a8 e0 be 0b 2d 64 3e
       0.1823277 0.25221416 -0.4387826 0.22282808
0001c0 7d f2 48 be e1 3e 60 3e 28 d7 ef bb 44 41 b7 3c
       -0.19623752 0.21898986 -0.00731935 0.022369988
0001d0 2d 45 14 be 25 4f c5 be 5c 8c 6b be 77 eb 64 3e
       -0.14479513 -0.38536945 -0.23002762 0.22355448
0001e0 9d 69 16 bd 68 87 37 3e a5 d4 b5 3d f4 12 03 bd
       -0.036721814 0.17922747 0.08878449 -0.032000497
0001f0 d3 04 49 3d 2b 4c 11 3f a2 68 0a bf 55 9c 7f 3e
       0.049076866 0.5675685 -0.54065907 0.2496198
000200 24 9c 2a be bd 6f 64 3f aa 4f 43 be a9 7d b4 3e
       -0.16661125 0.89233 -0.19073358 0.3525212
000210 5e 0b 8f bd d2 49 15 3f f2 0d 16 3f 3c 78 4c 3e
       -0.0698459 0.58315766 0.5861503 0.19967741
000220 33 ff e9 bd 1b 87 80 bf 00 11 81 bf 27 a9 45 bf
       -0.114256285 -1.0041231 -1.0083313 -0.7721123
000230 27 2e e1 be 18 c8 c0 3e e1 72 45 3f 10 42 54 3e
       -0.43980524 0.3765266 0.77128416 0.20728326
000240 bb de bc 3e bf e8 82 3e 09 7c 6e 3e d2 c9 20 be
       0.3688868 0.25568196 0.23289503 -0.15701988
000250 64 d7 df 3e 63 93 e9 3d 3a d1 ea 3d 8a 57 c8 3d
       0.43719018 0.11405065 0.11465688 0.09782322
000260 ca 56 7d be 9d 93 1c be b7 ea ad 3e 42 3f df bd
       -0.24740139 -0.15290685 0.33968136 -0.10900737
000270 cc 32 d6 3e ae 6f 7f 3e d9 36 a5 be 4e 16 c1 be
       0.4183563 0.24944946 -0.32268408 -0.3771233
000280 98 f6 16 3f ac a9 05 bf ea f2 06 bf 90 00 58 be
       0.5897002 -0.52212024 -0.5271441 -0.21093965
000290 fe 4a ed be 97 69 a2 3e 94 62 41 3f 90 22 e3 be
       -0.46346277 0.31721184 0.75541043 -0.44362307
0002a0 d6 9c 01 3f cb 62 57 be 43 ba 1c 3f 50 f6 eb be
       0.5062994 -0.2103378 0.6122171 -0.4608636
0002b0 34 1b 33 bf b7 3e 9e 3e 2b f6 85 3e c4 a9 5c 3e
       -0.69963384 0.30907223 0.26164374 0.21549135
0002c0 d5 b7 c4 be 0e 3e d6 3e a5 53 3a 3f e4 c3 2c bf
       -0.38421503 0.4184422 0.7278388 -0.67486405
0002d0 71 e4 7c be 76 8d 71 3e 3a e5 f1 3e 96 52 72 be
       -0.24696518 0.2358912 0.47245198 -0.23664317
0002e0 7e 21 51 3e b8 a3 7b 3f 80 12 eb 3e 93 50 da be
       0.20422933 0.9829669 0.45912552 -0.42639598
0002f0 12 a2 09 3e c0 28 ea be 3f 7d 3e 3e 1a f4 f0 3e
       0.13440731 -0.45734215 0.18602465 0.47061235
000300 f2 46 0e 3d 71 bb 07 3f 56 22 6d 3f 11 95 2e bf
       0.034735627 0.5302039 0.9263052 -0.6819621
000310 8f 3e 6e bf 2c 4e c3 be b1 fc a5 bf e9 c2 87 3e
       -0.93064207 -0.38145578 -1.296774 0.26515892
000320 54 33 b5 be d9 7b 90 be ec b8 5d be 96 6b b2 be
       -0.35390723 -0.28219488 -0.21652573 -0.34847707
000330 3c 1c 73 bf 2f 89 29 bc 98 f5 04 3f 3a 09 1f bf
       -0.9496496 -0.0103476485 0.51937246 -0.62123454
000340 84 41 5f 3e 8f f3 2a bf f4 c3 c1 be d1 53 09 3f
       0.21802336 -0.6677789 -0.37844813 0.5364352
000350 cd 9d 00 3f 9b a8 1d 3f 77 69 85 bd c4 df d8 be
       0.50240785 0.61585397 -0.065142564 -0.4235822
000360 fe ee 80 be cb 7f de be 03 13 0a bf 00 59 b5 3e
       -0.25182337 -0.43456873 -0.5393526 0.35419464
000370 8a 08 88 3e 6c 95 e3 3d 36 11 d5 be 71 b1 00 3f
       0.26569015 0.11112484 -0.41614693 0.50270754
000380 1a cf 22 3f 12 14 4b bf 90 cf 13 3f 8a 51 4e bf
       0.6359726 -0.793275 0.5773859 -0.8059317
000390 86 f3 ac 3e e1 fb 10 3f 0f 01 73 3f f4 b2 d3 bc
       0.33779544 0.56634337 0.9492349 -0.025842167
0003a0 69 78 1d 3f 6c 22 8d be 11 8c c2 be ea 6f f7 3e
       0.61511856 -0.27565324 -0.37997487 0.4832757
0003b0 e4 b4 98 bf ee 0e 53 bf ae 2b 02 bf b7 48 84 3f
       -1.1930203 -0.82444656 -0.508479 1.0334691
0003c0 ad ea 18 bf c0 b5 08 3f ed ad ab 3d a5 58 09 3f
       -0.59733087 0.5340233 0.08382783 0.53650886
0003d0 1a 9f 3e bf ef a4 c1 3e 3d cd ae be 2f 3d f6 3d
       -0.7446152 0.37821147 -0.3414096 0.120233886
0003e0 6a 02 51 3f ec 1c 2f bf 87 2e 41 bf 35 c1 54 bf
       0.8164431 -0.68403506 -0.7546162 -0.8310731
0003f0 a0 04 75 3d 94 9c a6 3e 02 07 f3 be fc a2 de be
       0.059818864 0.32541335 -0.47466284 -0.43483722

block2.pw1.bias f4 [48]
000000 91 59 f0 3c f6 bc ad be 73 12 54 3e 50 76 d9 3e
       0.029339584 -0.33933228 0.20710163 0.42473078
000010 01 1b 24 bf cf 6e ee 3d ec d6 94 3c 00 99 39 bd
       -0.64103705 0.11642229 0.018168889 -0.045311928
000020 17 fd fe bd f4 18 22 be 27 0d 08 3d 28 5f ad be
       -0.12450617 -0.15829831 0.033215668 -0.3386166
000030 e5 f8 00 3f 65 4f 91 3d b2 85 72 3d f7 f2 a0 3e
       0.5037978 0.070952214 0.059209533 0.31435367
000040 fe 3e ed 3e e8 e1 54 be 44 2b 98 be 00 06 39 ba
       0.46337122 -0.20789301 -0.2972051 -0.0007058084
000050 c0 36 02 3e 0c 6c 6d 3c 33 db 80 3e d2 e4 35 3f
       0.12716198 0.014491092 0.25167236 0.7105228
000060 fa 8c cb bd ce 8e 9f 3d 17 b5 cd 3e d1 2c 8c 3e
       -0.099389985 0.0779091 0.40177223 0.27377942
000070 83 1a 22 be 9d a3 1f bf 4c 4a 1d 3e 88 db 11 3e
       -0.15830426 -0.6235903 0.15360373 0.14243901
000080 cd d1 9b bd 91 f8 19 3e f4 90 3b 3e 26 d6 0e 3f
       -0.07608376 0.15036227 0.18317014 0.55795515
000090 1a b2 bc be 0f 5f a2 be 1e db df 3d 60 f0 a3 3c
       -0.3685463 -0.3171315 0.10930465 0.02001208
0000a0 4c 7b 3b 3d 25 3f 90 be 5a 1a 87 3e b6 81 2d bf
       0.045771882 -0.28173175 0.26387292 -0.6777605
0000b0 2c 0d 59 be 21 37 11 bf 64 af 7d 3e 13 3c 47 3e
       -0.21196431 -0.56724745 0.24773937 0.1945651

block2.dw1.weight f4 [48, 1, 3, 3]
000000 51 2f 9a 3f f1 75 dd 3e d3 d8 33 bf 62 46 83 bf
       1.204569 0.43254045 -0.7025272 -1.0255854
000010 1e 9f d7 bf e7 a5 9a be df 3b f2 3f a7 07 d9 be
       -1.6845434 -0.30204698 1.8924521 -0.4238865
000020 90 29 cf 3e dc ac 34 bf c5 6c 0f bf 02 58 6d be
       0.40461397 -0.7057626 -0.56025344 -0.23178104
000030 da ad da bc 37 49 1a bf cb e2 03 bf 9a 4b 3c 3d
       -0.026694227 -0.60267967 -0.51517934 0.045970537
000040 16 71 98 be 2a 1b 9c 3f 93 49 8b 3f 31 6d f3 be
       -0.29773778 1.219579 1.0881828 -0.47544244
000050 2c b6 8f 3d 78 df 46 bf 1f 19 49 bf 32 ca 6f 3f
       0.070171684 -0.77684736 -0.78553957 0.936679
000060 b2 f3 80 3f 07 ac 51 bf 58 9b 8f 3f f0 c6 b0 3f
       1.007437 -0.8190312 1.1219282 1.3810711
000070 ba 34 18 c0 8d 44 dc bf 76 89 bf 3f 2f 0c 1b 40
       -2.3782182 -1.720842 1.4963825 2.4226186
000080 28 1c aa 3f b3 52 09 bf 97 a7 76 bf b5 92 06 3f
       1.3289843 -0.53641814 -0.9634947 0.5256761
000090 23 64 00 3f 83 1b f5 3e d3 98 fe 3e 44 fa 08 3f
       0.50152797 0.47872552 0.4972597 0.53506875
0000a0 32 87 a7 bd 32 fd 00 be a3 59 01 3e 9b 79 24 3e
       -0.08180083 -0.12596586 0.1263185 0.16062014
0000b0 00 14 14 3e 34 67 48 bf 2b 7d 13 bf 7e 29 8f bf
       0.14460754 -0.78282475 -0.57612866 -1.1184537
0000c0 cf 17 1a 3e 7e 03 40 3f 6d 74 b3 be 80 a0 c0 3e
       0.15048145 0.7500533 -0.35049763 0.37622452
0000d0 a5 cd b3 3e bc 15 3b 3f 97 2e 84 3f 5d 98 6b bf
       0.35117832 0.7308004 1.0326718 -0.9202936
0000e0 55 55 85 3d e9 a2 83 3f ec df 83 bf ab 38 8d bf
       0.065104164 1.0284091 -1.030271 -1.1032919
0000f0 c1 3e 20 3f ad 36 80 be 28 60 6e 3f d9 cb 29 bf
       0.62595755 -0.25041714 0.9311547 -0.6632667
000100 01 d9 65 3d 97 a0 a8 3e 37 53 6b be 80 75 c1 3d
       0.056115154 0.3293502 -0.22980963 0.094462395
000110 69 28 99 bd bf d2 67 3e 96 60 40 3f 8e 17 07 3f
       -0.07478411 0.22638987 0.7514738 0.52770317
000120 76 e1 37 bf dc b6 4f bf c2 bb 6f 3e 05 0b 87 bf
       -0.718284 -0.81138396 0.23411468 -1.0550238
000130 04 c6 82 3e 25 d4 2c 3e a4 b3 f0 be 4f 33 e0 3c
       0.255417 0.16877802 -0.47012055 0.027368216
000140 70 95 e5 3e b6 66 73 be 73 02 2b 3f f8 3b 93 bc
       0.44840574 -0.2376965 0.6680061 -0.017972931
000150 59 e2 fe 3e 76 d8 37 3f b4 60 69 3e d5 61 15 3e
       0.49782065 0.7181467 0.22790796 0.14588101
000160 ea fa d2 bc d7 4b 91 be d1 69 a1 3e 25 0c 34 3e
       -0.02575441 -0.28378174 0.31526044 0.17582758
000170 f7 ba 2a 3f 94 dd c5 be 3c 28 61 3d 5e 91 00 bf
       0.66691536 -0.38645613 0.05497001 -0.5022181
000180 70 63 e8 3e 55 18 28 3d c1 67 52 3f bc ef 05 bf
       0.45388365 0.04103883 0.82189566 -0.5231893
000190 29 df 89 bf 71 42 63 3f 2f 41 f8 be 88 84 9c 3e
       -1.0771228 0.88773257 -0.4848723 0.30569863
0001a0 9a 6e 82 3e 65 ad 74 bf 91 73 7d 3f f3 c0 40 3f
       0.25475007 -0.9557708 0.99004465 0.7529442
0001b0 e1 4f 27 3e cb 9f 98 3e 40 73 d7 3f 52 6f a8 bf
       0.16339065 0.29809412 1.6832047 -1.3158972
0001c0 09 e1 98 3f 54 c5 19 bd 35 49 29 3f 2c 51 03 40
       1.1943675 -0.037541702 0.6612733 2.0518293
0001d0 08 96 22 c0 56 ff 1b 3f 44 bb 5e 3f 51 9c d8 3d
       -2.5404072 0.60936487 0.87004495 0.1057669
0001e0 d9 34 4a be 34 fd 80 bd da d1 2f 3e e1 60 20 3d
       -0.19746722 -0.06298295 0.17169896 0.03915489
0001f0 64 f5 4e 3f b3 af 73 3e 95 c5 8a 3e f0 73 d7 3e
       0.80843186 0.23797493 0.27103868 0.4208064
000200 2c ac a8 3e da ce a5 be 91 c2 20 3d 63 1d 65 3d
       0.32943857 -0.32384378 0.039248053 0.05593623
000210 59 3c 0f 3f 0d 4e 43 3f 48 00 9e bd c2 8f a2 3e
       0.5595146 0.7629097 -0.077148974 0.31750304
000220 89 5a 15 3f 7b 08 18 be 27 29 36 3f 8a 4d d0 3e
       0.5834127 -0.14846985 0.71156543 0.40684158
000230 ed 5e 8e 3e f9 9b 90 bc d8 b6 c3 3d bb c4 ab 3e
       0.27806798 -0.017652499 0.09556359 0.3354853
000240 39 ad 3c bf 40 ed c8 3e df b0 8b 3f e5 a7 cf bf
       -0.73701817 0.39243507 1.0913352 -1.6223112
000250 85 d2 92 3e de e7 dc 3e 8b d5 d1 bd 43 57 09 40
       0.2867624 0.4314565 -0.10245808 2.145951
000260 c4 0a 66 bd 36 1e fd bf a6 96 25 bf 4a aa 96 3f
       -0.05616261 -1.9774845 -0.64682996 1.1770718
000270 06 20 2e bf e5 60 ca bd 7a 95 e4 be 41 ca 07 3f
       -0.68017614 -0.098817624 -0.44645292 0.5304299
000280 b9 7c 49 bf 68 e5 01 bf 5e 7d 8e bf c2 ea 53 3e
       -0.78705937 -0.5074067 -1.1132009 0.20695022
000290 f4 c3 56 3f ef 67 01 3f c1 c6 29 be 7f 89 21 3f
       0.8389275 0.50549215 -0.16579725 0.6310043
0002a0 b2 63 7c bf 36 f3 95 3e fd d4 70 bf 00 16 34 bf
       -0.9858962 0.29287118 -0.94074994 -0.7034607
0002b0 7c 5e 33 3f 02 79 6b 3f 32 06 82 3f f6 dd 15 3c
       0.70066047 0.9198152 1.0158141 0.009147158
0002c0 d7 ad a9 be e5 ea a5 3e f2 de 33 3f a2 90 fd be
       -0.33140442 0.32405773 0.7026206 -0.4952441
0002d0 d0 d8 3b 3f 38 3d fa ba 6b 09 56 3c 36 4e 82 be
       0.73377705 -0.0019091731 0.013063769 -0.25450295
0002e0 51 93 8e 3f 78 19 23 bf d4 86 48 3f f7 0e 5a bf
       1.1138707 -0.6371074 0.7833073 -0.85179085
0002f0 aa c7 26 bf a0 98 88 bf 69 e1 07 be 45 19 bb 3f
       -0.65148413 -1.0671577 -0.13269581 1.4617087
000300 9a 44 89 bf 68 21 f5 3e f8 4b 3a 3f af 45 dd be
       -1.072406 0.4787705 0.7277217 -0.43217227
000310 45 2f c0 3e b3 2e f2 bd a7 ba ca be 63 e5 05 bf
       0.37536064 -0.118253134 -0.3959553 -0.5230314
000320 a5 90 47 be 47 a7 ce be f6 fa 95 be e6 52 d5 be
       -0.19488771 -0.40361997 -0.2929303 -0.4166481
000330 49 e6 5d 3f d0 46 6f bd 67 97 0b bf 42 ef 6d 3f
       0.8667951 -0.05841714 -0.54527897 0.92943203
000340 93 be f9 3e e1 78 dc 3f 12 8c 4e be 59 6e e6 bf
       0.4877821 1.7224389 -0.2017062 -1.8002425
000350 b7 8a 80 3f 36 e9 57 bf fa f5 ab bf 5e 77 f8 3f
       1.0042332 -0.84340227 -1.3434441 1.9411428
000360 ef 95 d1 bf f9 8c bc 3f c8 fe 93 bf ff 3a 07 3e
       -1.6373881 1.4730521 -1.1562128 0.13206099
000370 cc 7c 34 3f db 79 33 bf 1e 08 a5 3e 00 0b 70 bf
       0.70502925 -0.7010781 0.32232755 -0.93766785
000380 c7 cd 7b be 60 68 3c 3e 86 b3 fd 3e 57 95 b8 3e
       -0.24590217 0.18399191 0.49551028 0.36051437
000390 9b 71 7c be e1 c7 e7 3e d9 53 09 3f ae eb b0 3e
       -0.24652712 0.45269683 0.53643566 0.3455481
0003a0 f3 09 05 3f 9a c6 e4 be 0e fe 6f bf 28 80 8e 3f
       0.51968306 -0.4468277 -0.9374703 1.113286
0003b0 34 45 65 be 60 48 d4 3e 77 9c a4 bf f3 c5 29 3e
       -0.2238968 0.41461468 -1.2860249 0.16579418
0003c0 ed d3 a1 3f 97 6f 65 3f 76 13 c5 3e 35 33 ee 3e
       1.26428 0.896234 0.3849141 0.46523443
0003d0 98 fa 29 3f 57 20 8a be 70 0f fd 3e 94 ea 63 3d
       0.66398 -0.26977798 0.4942584 0.055643633
0003e0 50 d5 16 3f 7d f6 28 bf 6a bc b5 3e 46 24 70 be
       0.5891924 -0.6600111 0.3549531 -0.23451337
0003f0 eb f1 57 3f 2f 44 1b 3f 3c a8 29 3f dd 0a cd 3d
       0.8435351 0.60650915 0.6627233 0.10011838

block2.dw1.bias f4 [48]
000000 ad 0b 00 3e dd 5b f4 3d ff 3f 48 be 26 bb cc 3d
       0.12504454 0.11931584 -0.19555663 0.09996633
000010 de 6e 5e be a5 93 04 3d ec e2 91 bc 2f 52 bc be
       -0.2172198 0.032367367 -0.0178084 -0.3678145
000020 59 03 ff 3e b0 c8 76 be 0f 37 a0 be 66 ff 9f be
       0.49807242 -0.24099994 -0.31292006 -0.3124954
000030 b1 89 83 be 48 d3 a7 be 3c 42 71 be b4 7a c6 be
       -0.25690988 -0.32778382 -0.23560423 -0.3876549
000040 dd ab 5b be 7e b0 1b 3f c0 e0 c8 3e 0c 9f c0 be
       -0.2145228 0.6081618 0.3923397 -0.37621343
000050 a9 6e 25 3e 09 b9 b9 bd 9a 2f 5e 3f 37 db df be
       0.16155495 -0.09068496 0.86791384 -0.43721935
000060 29 25 f1 3e b7 6d 05 bf 63 30 5f be 52 a7 1a bd
       0.47098663 -0.52120537 -0.21795802 -0.037757225
000070 05 c2 01 be d1 a8 34 3e 7d 7d a1 3d db ec 90 3e
       -0.12671669 0.17642523 0.07885263 0.28305706
000080 db 23 d4 bd 34 ae 15 be b8 1c 0c bd de 51 61 3f
       -0.103584014 -0.14617234 -0.034207076 0.88015544
000090 e8 cb b3 3e 09 11 8a 3d f3 d7 13 3e 73 1e e1 be
       0.35116506 0.067415304 0.14437847 -0.43968543
0000a0 ac c6 90 3e 98 3d 6b bb 8b c4 f4 3e c8 78 93 3e
       0.28276575 -0.0035894867 0.478062 0.28803086
0000b0 ce d9 97 be 63 7b a3 be 17 3f 22 3f 1e a8 3c 3d
       -0.2965836 -0.31930074 0.6337752 0.046058767

block2.se1.fc.0.weight f4 [16, 48]
000000 4b dd f8 3d 15 b1 b0 bc fb 98 fe 3d b5 3a 11 3e
       0.12151583 -0.021568814 0.124315225 0.14182551
000010 51 e0 9a 3b 89 19 43 3e 0d 24 bb bd 6a 4d 4d bd
       0.0047264476 0.1905271 -0.091377355 -0.050122656
000020 c1 01 bc 3d 78 14 96 3b 03 bb 87 bd 77 ad aa bd
       0.09180022 0.004580077 -0.066274665 -0.08333867
000030 db 28 de 3d 22 ca 64 3e 34 df 9e 3d 24 bd 6d 3d
       0.10847636 0.22342733 0.07757416 0.058041707
000040 55 fe 23 3e bb 4e 9f 3c 94 dc 1d 3e f6 2d 85 3e
       0.16014989 0.019446721 0.15416175 0.26011628
000050 53 3b 1f 3e 49 cc 0e be da fa 96 3d 5e 7b 20 bc
       0.15549974 -0.13945116 0.07372065 -0.009795038
000060 a0 86 fa 3d f6 96 f3 3d f0 1a c8 3c bd d4 83 bc
       0.12232709 0.11894028 0.024426907 -0.016092652
000070 28 a9 c5 bd 16 78 d3 3c 35 7f bd bd 62 09 4f 3c
       -0.096514046 0.025814097 -0.092527784 0.012636514
000080 2e b2 e7 bb bd 1c c5 bd 8c 24 48 3c 1b 38 d6 bd
       -0.007070801 -0.09624622 0.012215745 -0.1045992
000090 ac 36 11 bd ad d7 06 3e 7b 22 9e bd ad eb e7 bd
       -0.03545253 0.13168211 -0.077214204 -0.113242485
0000a0 15 e1 a7 bd 1b 7d 30 3d 7c cd 1f 3e fb 19 5c ba
       -0.08197228 0.04308806 0.1560573 -0.00083962054
0000b0 41 2e ab 3d 5d 8f 54 bd e7 dd 75 3e ec 91 9f 39
       0.083584316 -0.051894534 0.2401043 0.00030435564
0000c0 ef 92 99 3c 8f c1 63 be 55 96 6a be 15 cb 53 bd
       0.018746821 -0.22241805 -0.2290891 -0.051707346
0000d0 ff 3f 08 3c f2 77 b4 be e1 12 48 be ea b8 3f be
       0.008316039 -0.3524776 -0.19538452 -0.18722883
0000e0 51 eb 3d bd 9a f9 e9 bd b5 a3 72 bd 02 f9 99 3d
       -0.046366993 -0.11424561 -0.059238154 0.075181976
0000f0 5d 61 ad bd 8e 90 63 be 97 23 05 3d 10 54 d6 bd
       -0.08465836 -0.22223112 0.032504644 -0.104652524
000100 3e 9d ba bc f0 31 92 3e 52 cf 3e 3e 04 53 bd bc
       -0.022780057 0.28553724 0.18633774 -0.023110874
000110 63 21 88 be 49 39 c9 3e 17 58 73 3e 7b b3 bf 3d
       -0.26587972 0.39301518 0.23764072 0.09360405
000120 f9 45 cd bc 1c a5 67 be ca ae 2b bd 45 bc 74 3d
       -0.02505778 -0.22621578 -0.04191474 0.05974986
000130 97 6d 38 be d0 c7 93 bd 78 3a b0 bd 0e 65 65 3d
       -0.18010555 -0.072158456 -0.08604902 0.056004576
000140 16 48 7b 3e 90 98 00 3e 2d d6 29 bd df fb 1c 3d
       0.24539217 0.12558198 -0.04146402 0.03832614
000150 ae f9 e4 bd f1 59 3b bc d3 1a b1 3e b4 a6 00 be
       -0.11180435 -0.011435018 0.34590778 -0.12563592
000160 7d d0 69 3d f8 f4 46 3d db da eb 3d 88 ac 14 3e
       0.057083596 0.048573464 0.11516353 0.1451894
000170 27 8c 1f bd 24 c8 60 3d bf 43 20 be ca ae dc bd
       -0.03895202 0.05487837 -0.15650843 -0.10775526
000180 29 a8 10 3d 8e 81 00 be c3 bf 44 3e ba 91 2d bc
       0.03531662 -0.12549421 0.19213776 -0.010593826
000190 41 9c 7c 3b fc 6e d6 bd 10 76 8d 3d 5e 0c 37 3d
       0.0038545283 -0.10470387 0.06907284 0.04468953
0001a0 82 c3 37 3d c8 77 f9 bd f9 b3 64 3d 1e 3c 05 3e
       0.044864185 -0.121810496 0.055835698 0.13011214
0001b0 63 22 69 be 4c 02 1a be 59 e5 43 3c e0 c1 35 3e
       -0.22767024 -0.15039939 0.011956536 0.17749739
0001c0 0e d3 d6 3d 08 62 82 3e dd a7 bb bd f6 1c 46 3d
       0.10489474 0.25465417 -0.09162877 0.048367463
0001d0 d1 3b a0 bd 6a 36 23 bd 8d bd a6 bc e0 39 ea 3d
       -0.07823909 -0.039846815 -0.020354057 0.1143682
0001e0 98 01 9c 3e 7a 65 2d 3c 88 80 09 3d 62 39 d8 bd
       0.30469966 0.010583276 0.033569843 -0.1055782
0001f0 07 be da bd 94 ae 2d 3e bd 4c 8a bb 75 31 22 be
       -0.10680776 0.16961128 -0.0042205737 -0.15839179
000200 c9 fa eb bb 83 3d 29 3e f0 3e 0f 3e ad e1 80 3e
       -0.007201527 0.16527371 0.13988853 0.25172177
000210 a8 4a e7 ba 45 ec 10 3e e0 37 3d 3e 5e 73 d6 3d
       -0.0017646151 0.1415263 0.18478346 0.10471223
000220 17 d6 ce 3d 44 7e fe bb 4d 6c 10 3e 7f ab c7 bc
       0.10099428 -0.007766517 0.14103813 -0.024373768
000230 f5 8d 85 3d f1 28 34 bd 53 b1 08 be 96 a4 30 3e
       0.06521217 -0.043984357 -0.13348894 0.17250285
000240 a5 87 0c 3e 5a 9b e3 bc 99 8c e0 bd 3d 4b ac 3d
       0.1372362 -0.027784038 -0.10964317 0.08412788
000250 bf d3 b6 bd 2e a6 d5 3d 4e aa 90 bd f3 07 8c 3c
       -0.08927106 0.10432087 -0.07063733 0.017093634
000260 d3 6c 83 bd d8 6b 27 bd 28 12 83 bd bc 64 f0 3d
       -0.06417241 -0.040874332 -0.063999474 0.117379636
000270 ce 28 4e bd cf e9 52 bd b3 61 4c bb 4a 22 2d 3e
       -0.050331883 -0.05149251 -0.0031186163 0.16907611
000280 de 38 1f 3e 53 de db 3d dc b9 e4 3d 15 80 cb 3d
       0.15549037 0.10735764 0.11168262 0.09936539
000290 ab 82 52 bc df 26 9a 3d 3c 66 c7 bc 5c 8d 09 be
       -0.0128485365 0.07526945 -0.024340741 -0.1343283
0002a0 4f 24 10 bd cb 77 31 bd 7a 13 5d bd e5 b8 fe 3d
       -0.035190877 -0.043327134 -0.053973652 0.124376096
0002b0 1d 12 e8 3d 03 d9 ec 3d 2f 51 28 bc bf e7 75 3d
       0.1133158 0.11564829 -0.010273262 0.060035463
0002c0 56 68 ad 3d e3 58 80 bd ee a0 16 be 0d a2 6b 3d
       0.08467166 -0.06266954 -0.14709827 0.05752759
0002d0 96 77 be bd 28 61 f2 bc ef 7f 2a bc d8 5b dd bd
       -0.09300153 -0.029587343 -0.010406478 -0.108085334
0002e0 88 de c4 bd 2f 83 0f bd 0e d7 96 3b d6 3d 25 3d
       -0.09612757 -0.035037216 0.0046032732 0.040342174
0002f0 b6 97 47 bc 61 82 06 be be 38 16 be 93 71 01 3e
       -0.012182167 -0.13135673 -0.14670083 0.12640981
000300 e3 02 a9 3d 74 bb 9a bd f7 d5 4b bd ae 81 b9 3d
       0.08252504 -0.07555285 -0.0497646 0.090579376
000310 e0 56 64 3c b5 16 a7 bd c7 da b2 bd 7a 0e b7 3c
       0.013936728 -0.08158628 -0.08733135 0.02234577
000320 1f 6c ec 3c ee 44 5f bd bd 79 dd 3c f4 5e 29 bd
       0.02886015 -0.054509096 0.027035588 -0.04135032
000330 d3 84 04 be 39 9e b6 3d 0b 5e 12 bd 75 00 20 3e
       -0.12941293 0.08916897 -0.035734218 0.15625174
000340 f6 a7 4b bd a9 bc fc 3d 6a c4 c7 3d b0 31 f8 bd
       -0.049720727 0.123406716 0.0975426 -0.12118852
000350 e2 48 0a 3e c1 eb fd 3c 49 34 83 bc 45 a8 08 3d
       0.13504365 0.030996205 -0.016016142 0.0333636
000360 3c e9 fa bc 1d be 30 bd 2d 5c 4a 3d ac 6a fd 3c
       -0.030628793 -0.043150056 0.049404312 0.030934654
000370 8a 15 0f bd d2 e2 d6 bd 66 2b 0f bd e2 d5 11 bd
       -0.03493265 -0.10492481 -0.034953497 -0.035604365
000380 12 65 52 be 34 f9 f5 3d 2f e0 11 3e 9d 21 67 3e
       -0.20546368 0.12010422 0.14245676 0.22571416
000390 88 54 f8 3d f1 cb 21 bd 63 8c 52 be d0 a1 5f bd
       0.12125498 -0.039501134 -0.20561366 -0.054597676
0003a0 75 41 0a 3d 20 14 30 3d 02 be 19 be 34 89 85 bc
       0.03375383 0.042987943 -0.15013888 -0.016300775
0003b0 b0 fc 2f be d9 54 22 be 15 a5 a5 3d f5 6a b8 bd
       -0.17186236 -0.1585268 0.080881275 -0.090047754
0003c0 ce de 68 3c 1a dc 0e 3d 97 a3 09 bd 42 78 d4 bc
       0.014213277 0.034877874 -0.033603277 -0.02593625
0003d0 f4 2f 75 3c ea 6d 94 3d 7b ac 55 bd 85 3f 6a 3c
       0.014965046 0.07247527 -0.052166443 0.014297371
0003e0 b5 67 b5 3d d2 93 88 3d c3 c5 a3 3d db 44 e0 3d
       0.08857671 0.066688195 0.079967044 0.10950633
0003f0 5c ab c7 3d 6e a0 a2 bd 49 68 0f be 25 f4 e4 3d
       0.09749481 -0.07940756 -0.14004625 0.111793794

block2.se1.fc.2.weight f4 [48, 16]
000000 0e 4e 27 be 21 cf dc 3e ce 95 48 3e 44 50 83 be
       -0.16338369 0.43126777 0.19588396 -0.25647175
000010 2d 1c d3 3d 35 d0 9e be 39 0d 8c be c0 19 e0 be
       0.103081085 -0.31018224 -0.27353838 -0.43769646
000020 d6 8b 8e 3d 9b 7b 9e 3d 27 13 ce 3d db 1b 9e 3d
       0.06960265 0.077384196 0.10062247 0.07720157
000030 8a 34 3a 3e 38 2d 83 be 45 fa c3 3d bf 27 40 bd
       0.18184105 -0.25620437 0.095692195 -0.046912905
000040 bf d7 44 3e 8d 0d 98 be 91 fb 1e be 53 88 4d 3e
       0.19222926 -0.29697838 -0.15525652 0.20071535
000050 14 7c 0f be 4b a1 5a 3e c1 dc 28 3e 75 6b 47 be
       -0.14012176 0.21350591 0.16490461 -0.19474585
000060 e9 bd 1b 3e 7c 57 27 bd 7a e7 8e 3c fe 3f 62 3e
       0.15209164 -0.040854916 0.017444361 0.22094724
000070 94 0b 24 be 7a fc 03 bd 4f 1e bc bd 8e 1b 1d be
       -0.16020042 -0.032223202 -0.091854684 -0.15342543
000080 b6 21 88 3d 72 4b 2e be b9 57 2b be bd 49 80 3d
       0.06647055 -0.17020968 -0.16732682 0.062640645
000090 45 4b 50 3e ce d2 55 3e c1 b1 72 be 05 c7 94 bd
       0.20341213 0.20881197 -0.2370062 -0.072645225
0000a0 55 e9 1e be ef 34 87 bb 3e 3b 07 be 16 20 3a be
       -0.15518697 -0.004126183 -0.13206193 -0.18176302
0000b0 7f 74 4d 3e 66 e9 55 be 1f fc ea bd 0d 78 09 3d
       0.20063971 -0.20889816 -0.114738695 0.033561755
0000c0 33 1f a4 3d 72 79 91 be bb e9 ef 3c 4d 01 43 3e
       0.08013763 -0.28412968 0.029286256 0.19043465
0000d0 89 09 5f 3e ba a6 69 be 0e cd 42 bc 9d cb a8 bd
       0.21780981 -0.22817507 -0.011889709 -0.08241961
0000e0 9e 7d 12 be 51 b0 80 3e 12 73 4a be bf 32 86 3e
       -0.14305732 0.2513452 -0.19770458 0.2621059
0000f0 ad 4d 6f 3e 07 d4 e2 3c 7a 51 a0 3e fd 82 8b 3c
       0.23369475 0.027688993 0.31312162 0.017030234
000100 2c a2 82 3e 9f f7 af bd aa dd 8b be 55 ee 43 3e
       0.25514352 -0.08592152 -0.27317554 0.19133885
000110 cb c1 83 bd 4c a0 e9 3c 93 e4 fc bd 5a 29 d0 bd
       -0.064334475 0.028518818 -0.123482846 -0.10164137
000120 0d 44 5d be 17 5c 39 3e 49 63 36 bd bd a8 9b be
       -0.2160799 0.18101536 -0.04452828 -0.30402175
000130 07 88 25 3e 85 d9 bc bd 2b a2 52 be 23 7d 15 3c
       0.16165172 -0.09221176 -0.20569675 0.009124073
000140 7d 9f de bd f5 0f 2e 3d f5 c4 96 3e 11 6e 91 3d
       -0.10870264 0.042495687 0.2944714 0.071010716
000150 0d 5a ab 3e 15 98 96 be 62 b7 f9 bc 7e ab 45 be
       0.3346714 -0.29412904 -0.030482952 -0.193037
000160 99 c8 70 3e b1 0c b0 3e 1e 71 c3 bd 15 3f ff bd
       0.23514022 0.34384683 -0.0954306 -0.12463204
000170 8e 0e be 3e ec 8b 49 3e f5 13 ac 3d 24 94 e8 3e
       0.3712048 0.19682282 0.08402244 0.45425522
000180 bd 70 39 bc 93 fc c1 be 37 a4 2c bd c3 ee 42 be
       -0.011318383 -0.3788801 -0.042148795 -0.19036393
000190 af 2e 66 bc b4 54 2c 3d 12 d4 41 3e d5 e5 19 bd
       -0.014049216 0.042072967 0.18928555 -0.0375727
0001a0 8f 8e d6 3d 80 8e 9f 3e 99 6f 4a 3d 7f 6d 2a 3e
       0.1047641 0.31163406 0.049422834 0.16643332
0001b0 79 a6 58 bc 2c a2 ac 3e 9c 2f bc 3d 48 d4 49 3f
       -0.013223284 0.33717477 0.09188768 0.7883954
0001c0 b2 4b 4a 3e a3 07 5d 3e 26 97 33 3d f3 cc 04 bc
       0.19755438 0.21584944 0.04384532 -0.008105504
0001d0 6b 2f 09 3d 59 c1 25 be 35 06 c1 bc 85 c8 a8 bd
       0.033492487 -0.16187038 -0.02356253 -0.08241371
0001e0 5a 4e 32 3e cb 7e d3 3e 2d a0 17 be 39 f8 43 3e
       0.17412701 0.41307673 -0.14807196 0.19137658
0001f0 00 27 bd bd 28 3f 52 3e 13 6a ca 3e f9 b4 f0 3c
       -0.09235954 0.20531905 0.39534053 0.02938317
000200 0e 22 86 bc 73 31 86 3e ca 0f ff 3c db 10 0a be
       -0.01637366 0.26209602 0.031135458 -0.13482992
000210 0e 38 de bd 8e c9 62 3e da dd a0 bc 5a 72 61 3e
       -0.10850535 0.221472 -0.019637037 0.22016278
000220 da 7f 58 bd cf 5c 03 be 6b b8 06 bd 89 e7 2d bd
       -0.052856304 -0.12828372 -0.03289072 -0.042457137
000230 19 7d 68 be 66 af 28 be 40 72 0b 3d ab 5d 4a be
       -0.22703971 -0.16473159 0.034044504 -0.19762294
000240 e3 36 97 3d 11 71 18 3e 2f e6 8e be 8a 82 33 be
       0.07383516 0.14886881 -0.2790999 -0.17530265
000250 b3 da bd bd 08 ca 0e bc a1 92 8e 3d cd a3 83 3e
       -0.09270229 -0.00871516 0.06961561 0.25710908
000260 68 1d 8b 3e 3c 7b 87 bc 39 16 c0 bd 12 f1 bb 3c
       0.27170873 -0.016538255 -0.09379239 0.0229421
000270 d6 6f 35 3e 88 56 46 3e 30 07 5d 3e 1c f5 73 3c
       0.17718443 0.19368947 0.21584773 0.014889982
000280 d9 cb 0a bd b8 16 ae 3d c0 47 b8 bd 88 c4 26 3e
       -0.03388581 0.08500427 -0.0899806 0.16285908
000290 6c f4 84 3d 78 34 15 3e 64 31 22 3e c9 cf 92 bd
       0.06491932 0.14570796 0.15839154 -0.07168538
0002a0 7d 61 93 be 66 2d 26 bd ea b6 60 3e bc 1f 77 be
       -0.28785315 -0.04057064 0.21944776 -0.241332
0002b0 73 fc 23 3e a2 8d cb 3d ac c3 ae 3d 5b f0 44 be
       0.1601427 0.09939124 0.08533415 -0.19232313
0002c0 de 77 bb bd fa f6 1e be ef 71 92 bd 29 10 3c 3d
       -0.09153722 -0.15523902 -0.07150637 0.04591385
0002d0 f8 26 78 be 9d 65 af ba 1a 69 82 bc ba 99 a0 3c
       -0.24233615 -0.0013381724 -0.015919257 0.019604553
0002e0 8f e0 05 be fe 2f 7c be ef ed 43 3e a8 48 1a be
       -0.13073944 -0.24627683 0.19133733 -0.15066779
0002f0 b5 32 54 3d 46 28 1e 3e 3b 13 3b 3d f9 20 55 be
       0.05180617 0.1544505 0.045672636 -0.2081336
000300 06 b7 f9 bd 63 9a a4 bd 7b 66 45 be ec 25 71 3e
       -0.12193112 -0.080372594 -0.19277374 0.23549622
000310 83 ea e4 3d 96 f9 5f 3e 0a ac 57 bd 85 e9 2b 3d
       0.11177542 0.21872553 -0.052654304 0.04197075
000320 53 9f 2e 3e f7 5d 12 3e 4c 42 b4 3d 66 ce 19 bd
       0.17052965 0.14293657 0.088017076 -0.037550353
000330 dc 94 4b be e0 ca c2 3d f8 54 5b 3e a1 e7 73 3e
       -0.19881004 0.095113516 0.21419132 0.23818828
000340 40 41 7b 3e a5 67 06 be 64 f6 b3 bd 07 8a 26 3e
       0.2453661 -0.13125475 -0.0878723 0.16263591
000350 2f cf a8 3e 70 19 b1 3a cc 25 0e 3e 81 af fd 3d
       0.3297057 0.0013511609 0.13881606 0.1238699
000360 92 2c 3b bc 0e 5e 94 bc 25 6b 4b 3e 74 ca 1c 3e
       -0.011424201 -0.018111255 0.19865091 0.15311605
000370 4d 8d a3 3d b0 bf 3c be 46 f2 a8 3e 5b 54 d6 3d
       0.07985935 -0.18432498 0.3299734 0.10465308
000380 bd 92 03 be 47 8f d5 3c 0c e2 94 bd 96 c3 97 bd
       -0.12848945 0.026069297 -0.072696775 -0.07410352
000390 71 97 0d bd 84 bd d3 3d 47 2a ab 3d 8f 6b a1 3c
       -0.034568254 0.103388816 0.08357673 0.019704608
0003a0 7e 40 06 3e 8b 94 a0 bd 2a 82 cf bd ed 4f 62 3e
       0.1311054 -0.07840832 -0.10132249 0.22100802
0003b0 e1 85 94 bd 3b c1 26 3e b7 bb bd 3d 21 d9 65 3c
       -0.07252098 0.16284649 0.092643194 0.014028818
0003c0 41 fa e5 bd a0 5c 90 be e7 44 16 be 2f 6c 9d be
       -0.11229373 -0.28195667 -0.14674722 -0.307466
0003d0 dd 0e bb bd 93 d1 24 be 51 43 2e 3e 78 5b 81 3e
       -0.09133694 -0.16095571 0.17017867 0.25265098
0003e0 04 ac 4f be 4b 3f 8b 3e 91 53 b5 3d 98 ec 12 3e
       -0.20280463 0.27196726 0.0885383 0.14348066
0003f0 2e bc 0e be a7 f3 6a 3e ac db 01 be 25 7b 29 3e
       -0.13938972 0.22944508 -0.12681454 0.16550882
