Project/Software/project_Mobilenet_q/Mobilenet_ckpt/Mobilenet_origin_trained.ckpt (torch, 349140 bytes, 237 tensors)

total_ops f8 [1]
0.0
00000000: 0000 0000 0000 0000

total_params f8 [1]
0.0
00000000: 0000 0000 0000 0000

conv1.weight f4 [8, 1, 3, 3]
0.281319 0.23224093 -0.011320277 0.12471141 0.060544107 -0.0325824 0.03506025 -0.10391649
0.04544242 0.16841532 -0.27527016 -0.17421687 0.31234452 0.25163114 0.086183794 0.2303154
0.23072179 0.28157035 -0.032443065 -0.29779375 0.19562474 0.068043835 -0.09460938 -0.20370488
-0.2990931 -0.062356647 -0.008740654 -0.3056938 0.2879704 -0.088885605 -0.2279904 -0.13005511
-0.19624215 -0.20718215 -0.06522767 -0.30548063 -0.09378338 0.03961138 0.305757 0.036283784
0.24117047 0.25348344 0.20667212 0.0045627155 0.32761955 -0.13689885 -0.1954109 -0.27837038
-0.037827693 -0.25953028 0.041891128 -0.2060238 -0.22296613 0.3025607 0.006085077 -0.014504392
0.2483952 -0.032924756 0.10780102 0.34553975 0.30302754 -0.1810957 -0.2595996 0.27846912
-0.17684524 -0.027947009 0.19736217 -0.16400619 0.07336293 -0.06373348 -0.17008896 0.26745868
00000000: 0b09 903e 91d0 6d3e af78 39bc b268 ff3d
00000010: 19fd 773d 1f75 05bd 569b 0f3d 2bd2 d4bd
00000020: d521 3a3d 1175 2c3e 36f0 8cbe e865 32be
00000030: 9feb 9f3e ccd5 803e 2181 b03d cdd7 6b3e
00000040: 5542 6c3e fd29 903e 05e3 04bd 6c78 98be
00000050: da51 483e 915a 8b3d 90c2 c1bd 0398 50be
00000060: bb22 99be af69 7fbd f634 0fbc e683 9cbe
00000070: db70 933e a809 b6bd 5176 69be 2b2d 05be
00000080: b4f3 48be 8f27 54be 1696 85bd f567 9cbe
00000090: 8011 c0bd 8b3f 223d 2e8c 9c3e 4e9e 143d
000000a0: 64f5 763e 95c8 813e dba1 533e d582 953b
000000b0: c0bd a73e 362f 0cbe cc19 48be 9086 8ebe
000000c0: 36f1 1abd 27e1 84be 0896 2b3d e7f7 52be
000000d0: 3c51 64be 3ce9 9a3e 5365 c73b d4a3 6dbc
000000e0: 505b 7e3e 1cdc 06bd c8c6 dc3d 96ea b03e
000000f0: 6d26 9b3e 2771 39be 3dea 84be 8193 8e3e
00000100: eb16 35be 20f1 e4bc 4f19 4a3e 3df1 27be
00000110: 4e3f 963d b386 82bd cd2b 2ebe 58f0 883e

conv1.bias f4 [8]
-0.07562681 -0.2135001 -0.11597148 -0.006387127 -0.05758835 -0.045077227 -0.1294262 0.21300988
00000000: 3be2 9abd c59f 5abe 7582 edbd 1b4b d1bb
00000010: c3e1 6bbd e6a2 38bd 4d88 04be 431f 5a3e

block1.total_ops f8 [1]
0.0
00000000: 0000 0000 0000 0000

block1.total_params f8 [1]
0.0
00000000: 0000 0000 0000 0000

block1.pw1.weight f4 [8, 8, 1, 1]
0.060430445 -0.20774394 0.0794373 0.26707855 0.23628889 0.31702846 -0.07083621 0.25339383
-0.020012248 -0.1650207 0.3518655 -0.25179392 -0.28672612 -0.07899874 0.33702657 -0.29919672
0.11097407 -0.1962773 0.20449637 0.11615982 -0.07582361 -0.06722149 -0.2443759 -0.16323048
0.15058278 0.0876169 -0.17102551 0.22901742 -0.22247468 -0.24284913 0.2826645 0.047886323
-0.14569142 0.1360963 -0.29355362 0.22507827 0.28309307 -0.17369054 0.21355285 0.18315129
-0.28196585 -0.016012777 0.2600329 -0.18529063 0.30008492 0.188592 0.31791323 -0.41470665
0.25969145 0.2825859 -0.042329285 0.035548724 0.034453534 -0.31470588 -0.21631895 0.07476533
-0.01626668 -0.0049138893 0.28905374 0.08361935 -0.09644128 -0.22592895 -0.33372387 0.09133317
00000000: ea85 773d d4ba 54be 06b0 a23d 85be 883e
00000010: b7f5 713e 8e51 a23e 9312 91bd d6bc 813e
00000020: baf0 a3bc 30fb 28be b727 b43e 22eb 80be
00000030: c4cd 92be 17ca a1bd bf8e ac3e 5030 99be
00000040: 6046 e33d ebfc 48be 7f67 513e 33e5 ed3d
00000050: 6949 9bbd 6cab 89bd ad3d 7abe e425 27be
00000060: 5f32 1a3e 7d70 b33d 5021 2fbe 8b83 6a3e
00000070: 67d0 63be 71ad 78be 67b9 903e 7324 443d
00000080: 2230 15be d45c 0b3e a94c 96be eb7a 663e
00000090: 93f1 903e efdb 31be 99ad 5a3e 038c 3b3e
000000a0: d45d 90be 3a2d 83bc 0823 853e d4bc 3dbe
000000b0: bba4 993e 431e 413e 86c5 a23e 6e54 d4be
000000c0: 47f6 843e 19af 903e 7961 2dbd 8a9b 113d
000000d0: 261f 0d3d 2121 a1be b782 5dbe 911e 993d
000000e0: b341 85bc b104 a1bb dafe 933e 9f40 ab3d
000000f0: 0183 c5bd eb59 67be dbdd aabe e30c bb3d

block1.bn1.weight f4 [8]
0.6773966 1.1869448 1.0160267 0.87952256 0.90082014 0.8636302 1.0232072 1.0150464
00000000: dd69 2d3f cfed 973f 2a0d 823f 6428 613f
00000010: 269c 663f de16 5d3f 74f8 823f 0aed 813f

block1.bn1.bias f4 [8]
0.09440109 -0.0002878623 -0.025219347 0.06358546 0.02400411 0.17792867 -0.011522132 -0.014835616
00000000: 5c55 c13d 39ec 96b9 ce98 cebc 1839 823d
00000010: 44a4 c43c ef32 363e 53c7 3cbc 1511 73bc

block1.bn1.running_mean f4 [8]
-0.09720986 -0.18375239 -0.16824767 0.025048867 0.21443108 -0.12198788 0.1866748 -0.06443018
00000000: f715 c7bd 9629 3cbe 1e49 2cbe 4833 cd3c
00000010: d293 5b3e c8d4 f9bd ae27 3f3e f8f3 83bd

block1.bn1.running_var f4 [8]
0.036671944 0.012764407 0.04179629 0.0063616885 0.049176693 0.007999525 0.055715412 0.016093625
00000000: 5235 163d ce21 513c 9632 2b3d b675 d03b
00000010: 806d 493d 7110 033c d835 643d c7d6 833c

block1.hs1.total_ops f8 [1]
0.0
00000000: 0000 0000 0000 0000

block1.hs1.total_params f8 [1]
0.0
00000000: 0000 0000 0000 0000

block1.hs1.sigmoid.total_ops f8 [1]
0.0
00000000: 0000 0000 0000 0000

block1.hs1.sigmoid.total_params f8 [1]
0.0
00000000: 0000 0000 0000 0000

block1.dw1.weight f4 [8, 1, 3, 3]
-0.23817436 -0.06598363 0.122781925 -0.06428761 -0.18712153 0.31405884 0.25684512 -0.33838847
0.18594606 0.26779926 0.13474822 0.03656148 0.26162776 0.09198368 -0.212007 -0.30225965
-0.33516884 0.038124766 0.18599711 0.3317022 0.08984499 -0.21469688 0.14251617 0.2136428
0.20245238 0.09746042 0.20065476 0.0737259 0.28762728 -0.1759325 0.052652102 0.1898766
-0.2589432 0.07513241 -0.2723118 0.048671167 0.118262865 -0.008053218 0.10250032 0.05321237
0.14855602 0.093729086 -0.10663882 -0.31585196 -0.23150875 -0.035391245 -0.04575888 -0.2519638
-0.013105124 -0.26719683 -0.31766945 0.1315197 0.07290419 -0.26272976 0.21270771 -0.05859731
0.07650741 0.06657887 0.22677954 -0.24840358 -0.1786111 0.2721283 -0.23361295 -0.21807273
0.16365682 0.09113408 0.11811421 -0.06319664 -0.019199936 0.06684234 -0.31508568 -0.18994048
00000000: fbe3 73be 6d22 87bd 1775 fb3d 39a9 83bd
00000010: c99c 3fbe 52cc a03e 3481 833e 4141 adbe
00000020: a568 3e3e fc1c 893e 70fb 093e 7ec1 153d
00000030: 13f4 853e f161 bc3d 5d18 59be c7c1 9abe
00000040: 409b abbe b728 1c3d 0776 3e3e dfd4 a93e
00000050: a600 b83d 80d9 5bbe c2ef 113e 2ec5 5a3e
00000060: ad4f 4f3e 5499 c73d 7178 4d3e 9bfd 963d
00000070: e243 933e a627 34be bba9 573d 036f 423e
00000080: 3494 84be 05df 993d 746c 8bbe 6b5b 473d
00000090: cd33 f23d a5f1 03bc b0eb d13d 37f5 593d
000000a0: 121f 183e 09f5 bf3d 7465 dabd 59b7 a1be
000000b0: a110 6dbe 69f6 10bd aa6d 3bbd 6601 81be
000000c0: e0b6 56bc 06ce 88be 92a5 a2be 1aad 063e
000000d0: cb4e 953d 8484 86be 0dd0 593e bc03 70bd
000000e0: ebaf 9c3d 815a 883d e538 683e 825d 7ebe
000000f0: d4e5 36be 6754 8b3e 3c38 6fbe 754e 5fbe
00000100: a795 273e 81a4 ba3d dde5 f13d 3d6d 81bd
00000110: 2f49 9dbc a3e4 883d e952 a1be c27f 42be

block1.bn2.weight f4 [8]
0.94195575 1.0559999 0.99180645 1.0107464 1.0088001 0.96956426 0.9652018 1.0271249
00000000: 0324 713f 012b 873f 07e7 7d3f 2360 813f
00000010: 5d20 813f 5d35 783f 7717 773f d478 833f

block1.bn2.bias f4 [8]
-0.07415206 0.07516705 0.015235699 0.0170909 0.0065116836 0.05606477 -0.028248433 0.044118825
00000000: 09dd 97bd 2ff1 993d 279f 793c 3702 8c3c
00000010: f65f d53b 2ca4 653d 4269 e7bc f1b5 343d

block1.bn2.running_mean f4 [8]
0.0017684527 -0.037145596 0.17587356 0.0014358843 -0.017366746 -0.21530685 0.027616572 -0.061309356
00000000: 6dcb e73a fb25 18bd 3318 343e 4834 bc3a
00000010: b544 8ebc 6679 5cbe 263c e23c 851f 7bbd

block1.bn2.running_var f4 [8]
0.008168056 0.033532508 0.20873916 0.049182057 0.021681368 0.27138132 0.026231574 0.02344964
00000000: 4fd3 053c 6259 093d b8bf 553e 2073 493d
00000010: 209d b13c 7ef2 8a3e 99e3 d63c 7619 c03c

block1.hs2.total_ops f8 [1]
0.0
00000000: 0000 0000 0000 0000

block1.hs2.total_params f8 [1]
0.0
00000000: 0000 0000 0000 0000

block1.hs2.sigmoid.total_ops f8 [1]
0.0
00000000: 0000 0000 0000 0000

block1.hs2.sigmoid.total_params f8 [1]
0.0
00000000: 0000 0000 0000 0000

block1.se1.total_ops f8 [1]
0.0
00000000: 0000 0000 0000 0000

block1.se1.total_params f8 [1]
0.0
00000000: 0000 0000 0000 0000

block1.se1.fc.0.weight f4 [8, 8]
0.114920035 0.10645054 -0.031079702 0.13094774 0.12894678 0.1734271 -0.10489664 0.050152883
-0.23373634 0.1408637 0.36273205 0.2741932 0.031609423 0.3210501 0.070327505 -0.35696283
-0.15887167 0.31685686 0.2391116 0.21086793 0.02630095 0.17993647 -0.0395869 0.2882616
0.3043218 0.08579186 0.13805138 0.24448916 0.0010614971 -0.060037494 -0.3206359 -0.12633185
0.016284775 -0.20973517 0.14692828 0.27657318 -0.18129544 0.08874851 0.09023208 -0.134189
-0.27284327 0.29213777 -0.1055542 -0.09428082 0.3171466 -0.045650944 -0.19728078 0.089872204
-0.24442108 -0.0032217104 -0.1602024 -0.3228951 0.11722226 -0.2315372 0.16449913 -0.22465031
0.36133587 0.11475319 -0.31036574 -0.29480815 0.31577724 -0.23151393 -0.24629521 -0.2945926
00000000: 325b eb3d be02 da3d dc9a febc 2a17 063e
00000010: a00a 043e e096 313e 0dd4 d6bd 1c6d 4d3d
00000020: 9458 6fbe 933e 103e 04b8 b93e 0d63 8c3e
00000030: e278 013d ae60 a43e de07 903d d5c3 b6be
00000040: 41af 22be 103b a23e acd9 743e c3ed 573e
00000050: 1775 d73c 4441 383e e025 22bd 0697 933e
00000060: 11d0 9b3e a5b3 af3d 575d 0d3e 5e5b 7a3e
00000070: ef21 8b3a e0e9 75bd 642a a4be 235d 01be
00000080: a667 853c d1c4 56be 5e74 163e 009b 8d3e
00000090: 83a5 39be c7c1 b53d 99cb b83d d768 09be
000000a0: 1db2 8bbe 1593 953e cd2c d8bd 4d16 c1bd
000000b0: 0a61 a23e 7cfc 3abd f903 4abe eb0e b83d
000000c0: 8549 7abe 5523 53bb 190c 24be 8252 a5be
000000d0: 3912 f03d 1618 6dbe 7672 283e bb0a 66be
000000e0: 0401 b93e b803 eb3d 42e8 9ebe 18f1 96be
000000f0: 8ead a13e fd11 6dbe d034 7cbe d7d4 96be

block1.se1.fc.2.weight f4 [8, 8]
0.2768444 -0.08931279 -0.04957887 0.122683525 -0.1164379 -0.053652916 -0.2830075 0.24080323
-0.0020661354 -0.018861085 -0.16296484 -0.04309553 -0.30335146 -0.008082747 -0.16573013 -0.1708331
-0.056356154 0.1488675 0.3877603 0.1002731 -0.27656144 0.050620284 0.35152358 0.27329203
0.18743053 -0.27411473 -0.100030735 0.16634294 -0.18475287 0.016750438 0.16252413 0.27842984
0.12747563 -0.30549917 0.11054693 -0.24989215 -0.017061194 0.28663933 -0.000987399 -0.28767443
-0.047476172 0.027318789 0.34797072 0.106748894 0.1397888 -0.2374168 -0.03962627 0.055848062
-0.028277904 -0.10915554 -0.0500427 0.24296395 -0.009997511 0.08295283 -0.025318518 -0.19441976
0.19339217 -0.18798646 -0.23105808 -0.10947304 0.264862 -0.2512091 -0.23429881 0.1765937
00000000: 8dbe 8d3e a0e9 b6bd 3713 4bbd 8041 fb3d
00000010: fe76 eebd 29c3 5bbd 5ce6 90be 1f95 763e
00000020: 0068 07bb 9082 9abc 41e0 26be f084 30bd
00000030: e250 9bbe 806d 04bc 29b5 29be dfee 2ebe
00000040: b6d5 66bd b970 183e 8588 c63e fc5b cd3d
00000050: 7699 8dbe 3757 4f3d e6fa b33e efec 8b3e
00000060: caed 3f3e c458 8cbe eadc ccbd ce55 2a3e
00000070: db2f 3dbe 3738 893c ba6c 263e 5b8e 8e3e
00000080: f988 023e 636a 9cbe 6e66 e23d bae3 7fbe
00000090: ebc3 8bbc 64c2 923e 9d6b 81ba 104a 93be
000000a0: 6076 42bd a7cb df3c 3829 b23e 2a9f da3d
000000b0: cc24 0f3e 641d 73be 284f 22bd f0c0 643d
000000c0: 10a7 e7bc f18c dfbd 93f9 4cbd 8bcb 783e
000000d0: 9acc 23bc 2ce3 a93d c868 cfbc f915 47be
000000e0: 9908 463e 867f 40be 7d9a 6cbe 6733 e0bd
000000f0: fe9b 873e 7b9e 80be 07ec 6fbe fbd4 343e

block1.pw2.weight f4 [16, 8, 1, 1]
-0.26831448 -0.07690945 0.027557597 -0.085356325 0.0661053 0.118371025 0.31146422 0.110838234
0.23865992 -0.16557196 0.18657906 0.008417835 0.013524541 0.4076032 0.32081503 0.20091607
-0.17258541 0.20109877 0.18116613 0.2925935 0.19856021 -0.17221622 -0.17304276 0.24133919
-0.280479 -0.21578866 -0.36890635 0.006374091 -0.031642523 0.073182434 -0.15951698 0.21609963
0.22354269 0.18034491 0.26720506 0.28236875 -0.26792806 0.21441561 0.21155585 -0.26051527
-0.07812013 -0.31360626 -0.083801635 -0.02159816 -0.17545353 0.015355686 0.25900117 -0.23927729
-0.07263569 0.12482932 -0.17131309 -0.29971474 -0.09581161 0.3125656 0.17207804 0.052363794
0.15183021 0.138194 0.33021614 -0.33004537 0.05829956 -0.011129872 -0.17009333 -0.12626006
-0.10464454 0.032622427 -0.074204795 0.117319375 0.35998347 0.11187236 -0.06924784 0.13500093
0.1083018 0.15988114 0.14305335 -0.19788559 -0.21433082 0.26992774 -0.10162715 0.0231344
0.03139544 -0.17097624 0.20119084 -0.19024928 0.30218992 0.11966481 -0.3052889 0.2599684
0.195027 0.24670222 -0.14480026 0.11130335 -0.23447703 0.13235538 0.18542466 -0.23089905
-0.12042476 -0.3489186 0.05231791 -0.10124034 -0.023590768 -0.0060289693 0.15284282 -0.09758651
-0.09254974 0.0497292 0.30233863 -0.32183164 0.16810827 -0.14655966 0.013766435 0.11299079
0.30673143 -0.22617659 -0.32743552 0.29092962 0.103414156 -0.262305 -0.27324206 0.27134156
-0.30394125 0.23910806 0.24765788 -0.12298279 -0.19236846 -0.27852073 -0.310996 0.09776416
00000000: 8460 89be b482 9dbd 78c0 e13c 4ccf aebd
00000010: 3762 873d 826c f23d 3d78 9f3e 28ff e23d
00000020: 4463 743e b28b 29be 950e 3f3e f6ea 093c
00000030: 0996 5d3c 5eb1 d03e de41 a43e f1bc 4d3e
00000040: 3bba 30be d6ec 4d3e 9d83 393e d1ce 953e
00000050: 5e53 4b3e 7359 30be 1f32 31be 9f21 773e
00000060: f29a 8fbe b4f7 5cbe 4be1 bcbe c0dd d03b
00000070: 979b 01bd ace0 953d 6b58 23be 3949 5d3e
00000080: 60e8 643e 56ac 383e 1acf 883e a392 903e
00000090: de2d 89be c48f 5b3e 19a2 583e 4262 85be
000000a0: 72fd 9fbd 0091 a0be 31a0 abbd a0ee b0bc
000000b0: 17aa 33be 6a96 7b3c cd9b 843e 1b05 75be
000000c0: 05c2 94bd 84a6 ff3d b36c 2fbe 3674 99be
000000d0: e138 c4bd 9908 a03e 3a35 303e 6b7b 563d
000000e0: 6179 1b3e ba82 0d3e 1712 a93e b5fb a8be
000000f0: 85cb 6e3d 115a 36bc f22c 2ebe 514a 01be
00000100: e04f d6bd 189f 053d aff8 97bd 2445 f03d
00000110: c14f b83e 561d e53d d0d1 8dbd af3d 0a3e
00000120: 56cd dd3d e2b7 233e 947c 123e 85a2 4abe
00000130: 8a79 5bbe f833 8a3e e521 d0bd 5a84 bd3c
00000140: 8198 003d 6514 2fbe f904 4e3e b5d0 42be
00000150: a3b8 9a3e d312 f53d d44e 9cbe 941a 853e
00000160: 28b5 473e 829f 7c3e 8546 14be 03f3 e33d
00000170: bf1a 70be 2b88 073e f6df 3d3e cd70 6cbe
00000180: 42a1 f6bd 75a5 b2be 4e4b 563d 1857 cfbd
00000190: 6d41 c1bc a98e c5bb d482 1c3e 70db c7bd
000001a0: b88a bdbd d8b0 4b3d 21cc 9a3e 1ec7 a4be
000001b0: 9324 2c3e bc13 16be 9d8c 613c b767 e73d
000001c0: e70b 9d3e d69a 67be a1a5 a7be baf4 943e
000001d0: cdca d33d d74c 86be 62e6 8bbe 48ed 8a3e
000001e0: 309e 9bbe bed8 743e 079a 7d3e 67de fbbd
000001f0: 3dfc 44be 459a 8ebe de3a 9fbe 9338 c83d

block1.bn3.weight f4 [16]
0.9580743 1.0255383 1.0075293 1.0933839 0.9517504 1.0065134 0.98132545 1.0132984
1.0268117 0.9713968 0.9942372 0.9691881 0.97100455 1.0335926 0.9854542 0.9533936
00000000: 5b44 753f d744 833f b8f6 803f 01f4 8b3f
00000010: eaa5 733f 6ed5 803f 2538 7b3f c3b3 813f
00000020: 916e 833f 76ad 783f 5486 7e3f b61c 783f
00000030: c193 783f c34c 843f ba46 7c3f 9a11 743f

block1.bn3.bias f4 [16]
-0.011940898 0.0575715 0.021299854 0.021998694 0.04158933 -0.021376789 0.033221073 0.01907687
0.028314218 0.09275117 0.039635222 -0.009107445 0.013571506 0.021732744 0.00874236 0.082380876
00000000: c2a3 43bc 18d0 6b3d 087d ae3c 9b36 b43c
00000010: 9359 2a3d 601e afbc d212 083d 1947 9c3c
00000020: 38f3 e73c 53f4 bd3d 8b58 223d 6537 15bc
00000030: 065b 5e3c de08 b23c 1e3c 0f3c 4eb7 a83d

block1.bn3.running_mean f4 [16]
0.0018944895 0.009117391 0.0019107955 -0.0071168505 0.00787589 -0.0019797364 -1.7887622e-05 0.006991443
0.00043956417 0.0059481985 0.0062770606 -0.0016796798 0.0008501043 0.004738307 -0.009520716 0.0010850315
00000000: 8550 f83a 1c61 153c a873 fa3a 7834 e9bb
00000010: e009 013c 77be 01bb 600d 96b7 7a18 e53b
00000020: 4e75 e639 1be9 c23b cdaf cd3b b428 dcba
00000030: 89d9 5e3a cd43 9b3b c7fc 1bbc 9e37 8e3a

block1.bn3.running_var f4 [16]
1.5994005e-05 0.0002750527 7.9911544e-05 0.0003421349 0.00029473196 2.7273574e-05 6.195139e-05 0.00029750762
4.1527586e-05 0.00014371064 0.0001814309 6.045006e-05 8.034753e-06 0.00021972803 0.00043830168 0.00013826041
00000000: dd2a 8637 f334 9039 2f96 a738 9260 b339
00000010: 4186 9a39 8ec9 e437 e6eb 8138 ccfa 9b39
00000020: e82d 2e38 08b1 1639 7d3e 3e39 c28b 7d38
00000030: 00cd 0637 cb66 6639 dbcb e539 fff9 1039

block1.hs4.total_ops f8 [1]
0.0
00000000: 0000 0000 0000 0000

block1.hs4.total_params f8 [1]
0.0
00000000: 0000 0000 0000 0000

block1.hs4.sigmoid.total_ops f8 [1]
0.0
00000000: 0000 0000 0000 0000

block1.hs4.sigmoid.total_params f8 [1]
0.0
00000000: 0000 0000 0000 0000

block2.total_ops f8 [1]
0.0
00000000: 0000 0000 0000 0000

block2.total_params f8 [1]
0.0
00000000: 0000 0000 0000 0000

block2.pw1.weight f4 [48, 16, 1, 1]
-0.22399397 -0.20614482 0.021341633 0.33052817 -0.0142500205 0.09483455 -0.0040079844 -0.12982368
0.16657983 0.09480837 0.02022984 -0.097987235 0.16892421 -0.2308994 0.026735073 -0.06815002
0.092459604 0.18992212 -0.15108903 -0.11717529 0.26900008 0.13009758 0.18772551 0.051155988
-0.2170218 0.13592543 0.035500795 0.1601135 0.04321485 -0.008487242 -0.03865044 0.1905527
-0.20542188 0.12200266 -0.18840279 0.049791463 0.0022594982 0.17582734 -0.078498565 -0.13852048
0.19948962 -0.21941583 0.11120732 -0.27260903 -0.25298616 0.051036354 0.054195803 0.036179878
0.1363635 -0.20410743 0.1981593 -0.2430035 -0.2363766 -0.28516862 -0.13381594 -0.1487356
-0.18030864 0.111388676 -0.0633609 -0.38432205 0.103038 0.16877808 -0.36414313 0.13688903
0.019400414 -0.10660652 0.19451712 -0.014023993 0.10306667 -0.05588991 0.22944365 -0.09062635
0.093391486 0.18640864 0.19949515 0.16202573 -0.033967517 -0.01615729 0.16945064 -0.08175425
0.21993487 0.17430769 -0.25515133 -0.108994454 0.28059033 0.08316918 -0.13528915 0.13763893
-0.18038926 0.01103034 0.070510335 -0.022253139 -0.03859721 0.006387784 -0.06532883 0.14477098
0.22832535 0.19382557 -0.10009672 -0.14369847 0.20669627 0.17164494 -0.115904495 0.2510718
-0.07945233 -0.023984855 -0.1707281 0.015020951 0.10298457 0.14245869 -0.24783857 0.12586048
-0.111779094 0.12473908 -0.004169184 0.012742196 -0.08247694 -0.21951076 -0.13102631 0.12733914
-0.020917157 0.10208998 0.050572645 -0.018227842 0.027954733 0.32329336 -0.30796546 0.14218624
-0.04206805 0.2253064 -0.04815875 0.089008875 -0.017635548 0.14724278 0.14799841 0.050417
-0.028848827 -0.2535333 -0.25459585 -0.19495237 -0.11104742 0.09507005 0.19474328 0.052337416
0.19942144 0.13822252 0.12590383 -0.08488547 0.23634647 0.061656162 0.06198389 0.052883558
-0.13374601 -0.08266196 0.18363288 -0.05892975 0.22616482 0.13485321 -0.1744441 -0.20387411
0.17686279 -0.1565942 -0.15810095 -0.06326498 -0.13900167 0.09513812 0.22656256 -0.13305135
0.15184921 -0.063084476 0.18361604 -0.13822213 -0.20983405 0.09269688 0.078472145 0.06463013
-0.1258746 0.13708793 0.23845088 -0.22109556 -0.08090949 0.07728148 0.15478234 -0.07752784
0.06690858 0.32203466 0.15041639 -0.1396937 0.044033848 -0.14983213 0.06094446 0.15417965
0.007870114 0.120129265 0.20987466 -0.15451339 -0.21085727 -0.08642713 -0.29381245 0.060077544
-0.080185406 -0.06393741 -0.04905863 -0.078955084 -0.21516384 -0.0023444856 0.11767517 -0.14075424
0.07668967 -0.23489109 -0.13311905 0.18869096 0.17672184 0.2166265 -0.022913883 -0.14899494
-0.08857881 -0.15285945 -0.18971716 0.12458788 0.09345645 0.039088137 -0.14637959 0.17682727
0.12383609 -0.15446588 0.11242813 -0.15693039 0.06577526 0.11027793 0.18483427 -0.0050319666
0.11977541 -0.053674985 -0.07398841 0.09410307 -0.23230398 -0.16053559 -0.09901063 0.2012363
-0.14730659 0.13169444 0.020672616 0.1323074 -0.18362808 0.09326999 -0.08419435 0.029650642
0.20134142 -0.16868854 -0.18609442 -0.2049493 0.014751812 0.08024955 -0.11705567 -0.10723435
00000000: ad5e 65be a117 53be a6d4 ae3c fd3a a93e
00000010: eb78 69bc 9e38 c23d 6955 83bb 80f0 04be
00000020: e793 2a3e e42a c23d 0db9 a53c 88ad c8bd
00000030: 78fa 2c3e e470 6cbe 8303 db3c 3d92 8bbd
00000040: 765b bd3d f27a 423e 15b7 1abe 99f9 efbd
00000050: 61ba 893e 4d38 053e 1e3b 403e f188 513d
00000060: f63a 5ebe 0930 0b3e 4869 113d cbf4 233e
00000070: 0e02 313d 130e 0bbc ec4f 1ebd 3f20 433e
00000080: 1d5a 52be 88dc f93d a9ec 40be 22f2 4b3d
00000090: 1714 143b 150c 343e dbc3 a0bd 50d8 0dbe
000000a0: 0247 4c3e 8bae 60be aac0 e33d 6993 8bbe
000000b0: 6787 81be 7f0b 513d 6bfc 5d3d 5a31 143d
000000c0: e0a2 0b3e 8a01 51be 46ea 4a3e e9d5 78be
000000d0: b50c 72be 9f01 92be 0c07 09be 254e 18be
000000e0: d4a2 38be bf1f e43d 5cc3 81bd dcc5 c4be
000000f0: 9605 d33d 29d4 2c3e f870 babe a32c 0c3e
00000100: 9eed 9e3c 8554 dabd 7f2f 473e e4c4 65bc
00000110: 9e14 d33d d1ec 64bd 47f3 6a3e 4f9a b9bd
00000120: 0944 bf3d e8e1 3e3e 7548 4c3e 13ea 253e
00000130: 8621 0bbd 4b5c 84bc 7884 2d3e c66e a7bd
00000140: 9b36 613e b77d 323e 32a3 82be 7c38 dfbd
00000150: 89a9 8f3e 9a54 aa3d 3d89 0abe 38f1 0c3e
00000160: f6b7 38be 99b8 343c b967 903d 374c b6bc
00000170: 1c18 1ebd 9e50 d13b 1fcb 85bd d83e 143e
00000180: 1fce 693e 367a 463e 82ff ccbd b125 13be
00000190: 30a8 533e b1c3 2f3e 565f edbd 7c8c 803e
000001a0: e7b7 a2bd e37b c4bc 59d3 2ebe 6f1a 763c
000001b0: 93e9 d23d b1e0 113e 65c9 7dbe 92e1 003e
000001c0: 70ec e4bd 3477 ff3d a69d 88bb a5c4 503c
000001d0: abe9 a8bd 6ec7 60be c32b 06be 3165 023e
000001e0: 755a abbc 8d14 d13d 4325 4f3d 8e52 95bc
000001f0: 5301 e53c b586 a53e a6ad 9dbe 4599 113e
00000200: 8c4f 2cbd b9b6 663e 1c42 45bd 494a b63d
00000210: 6d78 90bc d0c6 163e e58c 173e 0e82 4e3d
00000220: 6054 ecbc 1ecf 81be 635a 82be 98a1 47be
00000230: d46c e3bd 16b4 c23d c86a 473e c25f 563d
00000240: 2235 4c3e 348a 0d3e efec 003e 6fd8 adbd
00000250: cf04 723e 2c8b 7c3d d2e2 7d3d 6e9c 583d
00000260: b7f4 08be ac4a a9bd 420a 3c3e 5260 71bd
00000270: c097 673e f616 0a3e 79a1 32be 60c4 50be
00000280: 851b 353e 3b5a 20be 37e5 21be 1291 81bd
00000290: 7456 0ebe c6d7 c23d 0400 683e 9d3e 08be
000002a0: 5c7e 1b3e 6f32 81bd d805 3c3e 1a8a 0dbe
000002b0: bdde 56be ddd7 bd3d 01b6 a03d cd5c 843d
000002c0: 45e5 00be c760 0c3e 782c 743e e066 62be
000002d0: e0b3 a5bd c145 9e3d 437f 1e3e ebc6 9ebd
000002e0: 5e07 893d bae1 a43e c106 1a3e de0b 0fbe
000002f0: d65c 343d 986d 19be e6a0 793d 45e1 1d3e
00000300: a7f1 003c 5506 f63d 62e9 563e c238 1ebe
00000310: f8ea 57be b500 b1bd 966e 96be df13 763d
00000320: 3f38 a4bd 9ef1 82bd b4f1 48bd 34b3 a1bd
00000330: e953 5cbe f1a5 19bb aeff f03d e121 10be
00000340: 790f 9d3d 4a87 70be 5c50 08be 3438 413e
00000350: 92f6 343e 56d3 5d3e e5b5 bbbc 2192 18be
00000360: cf68 b5bd 3087 1cbe 3745 42be ee27 ff3d
00000370: 1866 bf3d e21a 203d 88e4 15be 3512 353e
00000380: c79d fd3d 4e2c 1ebe b840 e63d 5cb2 20be
00000390: 2eb5 863d 65d9 e13d 3245 3d3e 32e3 a4bb
000003a0: cf4c f53d 4dda 5bbd 3c87 97bd 1cb9 c03d
000003b0: 18e1 6dbe 7163 24be 16c6 cabd e310 4e3e
000003c0: 8ad7 16be e8da 063e 9e59 a93c 977b 073e
000003d0: 0009 3cbe 5604 bf3d 166e acbd e7e5 f23c
000003e0: 722c 4e3e b0bc 2cbe 898f 3ebe 3bde 51be
000003f0: 96b1 713c e059 a43d e2ba efbd af9d dbbd

block2.bn1.weight f4 [48]
1.1318016 1.0583991 1.0343542 0.86658067 0.9741133 0.92286134 1.0757037 1.1227032
1.0563186 1.053809 1.0766381 1.0271004 1.0697201 1.0262493 1.0256968 1.0166856
1.0362436 0.91962206 0.98889965 1.1287799 0.9797121 1.0923393 0.996007 0.794155
0.9578816 1.0724614 0.9724802 0.9579167 1.0255497 1.1111413 0.9948987 0.87649596
0.8819156 1.0307533 0.9514683 0.6210624 0.96258307 0.9221476 0.89704543 1.0746217
0.96829414 0.89797884 1.0094275 0.9452041 1.0698663 0.9604983 0.99444395 0.9697623
00000000: e0de 903f 9f79 873f b865 843f 3bd8 5d3f
00000010: 7d5f 793f a440 6c3f a9b0 893f bdb4 8f3f
00000020: 7335 873f 37e3 863f 47cf 893f 0778 833f
00000030: 97ec 883f 235c 833f 084a 833f c122 823f
00000040: a1a3 843f 5a6c 6b3f 8728 7d3f dc7b 903f
00000050: 6ace 7a3f c6d1 8b3f 51fa 7e3f be4d 4b3f
00000060: bb37 753f 6a46 893f 76f4 783f 073a 753f
00000070: 3645 833f e139 8e3f aeb1 7e3f 0a62 603f
00000080: 39c5 613f b9ef 833f 6d93 733f f2fd 1e3f
00000090: d86b 763f dd11 6c3f c5a4 653f 348d 893f
000000a0: 20e2 773f f1e1 653f ec34 813f e5f8 713f
000000b0: 61f1 883f 37e3 753f e193 7e3f 5842 783f

block2.bn1.bias f4 [48]
-0.0013497785 0.0074210204 0.021746645 0.13525423 -0.016359663 0.21666087 0.13706172 0.02858869
-0.029443711 -0.006950498 -0.0010586345 -0.0109286755 -0.008492766 -0.02390348 0.021988662 0.008416348
0.0316256 0.09371498 0.0400864 -0.11780555 0.020117408 -0.05974542 0.2641757 0.21695259
0.046944875 0.050349887 0.10416407 0.0055317027 -0.003284723 -0.009356276 -0.037187744 0.058917437
-0.01056813 0.027061354 -0.113462575 0.4156781 0.060450636 -0.033288706 0.0004336851 -0.02052863
0.056923073 -0.06835871 0.07390804 -0.012304622 0.03775374 0.004812599 0.03881011 0.0058377124
00000000: 0deb b0ba 082c f33b 0526 b23c 1680 0a3e
00000010: b304 86bc 59dc 5d3e e859 0c3e d432 ea3c
00000020: f033 f1bc 01c1 e3bb e1c1 8aba 300e 33bc
00000030: 3e25 0bbc 3bd1 c3bc 9121 b43c b9e4 093c
00000040: d889 013d a4ed bf3d a331 243d 0944 f1bd
00000050: 43cd a43c 9db7 74bd 0a42 873e d228 5e3e
00000060: 4549 403d af3b 4e3d f953 d53d 4943 b53b
00000070: 8244 57bb 114b 19bc 2d52 18bd 6953 713d
00000080: f325 2dbc c6af dd3c 115f e8bd c3d3 d43e
00000090: 169b 773d bd59 08bd 3b60 e339 a82b a8bc
000000a0: 2b28 693d a7ff 8bbd 195d 973d 5399 49bc
000000b0: aaa3 1a3d 02b3 9d3b 5af7 1e3d 484a bf3b

block2.bn1.running_mean f4 [48]
-0.013023508 0.15253022 -0.059629682 -0.21868217 0.14857572 0.05489418 0.067154504 0.04209462
0.024002533 0.08181914 -0.010279543 0.10735547 -0.11607063 -0.03336547 -0.007247619 -0.0754466
-0.22423759 0.048767127 0.09270455 -0.04303541 -0.016552253 -0.029046783 0.0058673113 -0.19031328
0.064812556 -0.011745814 -0.06413303 -0.07695135 0.06030677 0.2895326 -0.022567874 -0.022695795
0.039937988 -0.01983106 -0.17654088 -0.06970258 0.07380925 0.0908568 -0.052433025 -0.012834093
0.0044470862 0.07036637 -0.078471236 0.14752899 0.10149497 0.16355826 -0.16124828 -0.09247082
00000000: 8d60 55bc e230 1c3e 413e 74bd 38ee 5fbe
00000010: 3c24 183e b8d8 603d 4d88 893d 696b 2c3d
00000020: f6a0 c43c cb90 a73d 876b 28bc 2fdd db3d
00000030: 70b6 edbd 3baa 08bd 6f7d edbb bf83 9abd
00000040: 8a9e 65be 0ac0 473d e2db bd3d e645 30bd
00000050: 9798 87bc 85f3 edbc 9342 c03b 7ce1 42be
00000060: 72bc 843d 8471 40bc 2e58 83bd ab98 9dbd
00000070: 3b04 773d 9e3d 943e 43e0 b8bc 88ec b9bc
00000080: 0496 233d bf74 a2bc 22c7 34be 3ac0 8ebd
00000090: 4e29 973d 2113 ba3d 03c4 56bd 1646 52bc
000000a0: ddb8 913b 3e1c 903d 87b5 a0bd d711 173e
000000b0: 98dc cf3d d17b 273e 451e 25be 5761 bdbd

block2.bn1.running_var f4 [48]
0.23067576 0.21674518 0.110717386 0.42855623 0.05366884 0.25541043 0.36915827 0.40895578
0.071125425 0.32453975 0.10425772 0.11321786 0.058732472 0.13029869 0.039879225 0.062851936
0.28964737 0.022099927 0.073864706 0.17208116 0.022939954 0.18266374 0.21843931 0.09375718
0.17997916 0.20891769 0.043907274 0.07550198 0.1591642 0.27431524 0.013839086 0.056717463
0.2890158 0.027473288 0.32064727 0.09256604 0.027417718 0.08711848 0.18663423 0.11572342
0.14910567 0.08768672 0.17385995 0.043900404 0.18907112 0.0754045 0.5890401 0.22576204
00000000: 4436 6c3e 73f2 5d3e ccbf e23d b96b db3e
00000010: dcd3 5b3d 28c5 823e 5002 bd3e a762 d13e
00000020: 35aa 913d 132a a63e 1285 d53d c4de e73d
00000030: 7691 703d 056d 053e 6658 233d 84b8 803d
00000040: a94c 943e e80a b53c 6146 973d 0b36 303e
00000050: 92ec bb3c 340c 3b3e 8eae 5f3e c403 c03d
00000060: 754c 383e 85ee 553e 1dd8 333d c8a0 9a3d
00000070: f1fb 223e 0c73 8c3e 55bd 623c 9250 683d
00000080: e1f9 933e a90f e13c e12b a43e 4493 bd3d
00000090: 1f9b e03c 2c6b b23d 0b1d 3f3e 6700 ed3d
000000a0: 28af 183e 1895 b33d 5808 323e e9d0 333d
000000b0: dc9b 413e ad6d 9a3d 55cb 163f 2a2e 673e

block2.hs1.total_ops f8 [1]
0.0
00000000: 0000 0000 0000 0000

block2.hs1.total_params f8 [1]
0.0
00000000: 0000 0000 0000 0000

block2.hs1.sigmoid.total_ops f8 [1]
0.0
00000000: 0000 0000 0000 0000

block2.hs1.sigmoid.total_params f8 [1]
0.0
00000000: 0000 0000 0000 0000

block2.dw1.weight f4 [48, 1, 3, 3]
0.19701776 0.07074576 -0.11490445 -0.16774343 -0.27552176 -0.049402416 0.30952704 -0.069330335
0.06617814 -0.16808937 -0.1334339 -0.055202596 -0.0063576843 -0.14353842 -0.122698724 0.010948665
-0.07091132 0.29046348 0.30189416 -0.13190182 0.019467704 -0.21552047 -0.21793194 0.2598625
0.27949288 -0.22722352 0.3112561 0.2057756 -0.35434765 -0.2564005 0.22295667 0.3609632
0.19801483 -0.079924755 -0.14355794 0.07832422 0.23682867 0.22606103 0.23481314 0.2526671
-0.03862752 -0.059482876 0.0596494 0.07584712 0.06828575 -0.24891695 -0.18319322 -0.35563782
0.047849 0.23849651 -0.111448705 0.11962915 0.111665145 0.23237462 0.2697792 -0.2404211
0.017008066 0.2686656 -0.26915202 -0.28822827 0.1635276 -0.06541995 0.24325849 -0.2798087
0.023672992 0.13894117 -0.09694853 0.03985033 -0.03154876 0.095505856 0.31702012 0.22261925
-0.26721108 -0.3018455 0.08709373 -0.3924827 0.09501847 0.06278764 -0.17489101 0.010181336
0.16681282 -0.10872546 0.30555466 -0.008221052 0.22770962 0.3284896 0.104248054 0.06672787
-0.011780402 -0.12980545 0.13331795 0.07435431 0.28202647 -0.16342533 0.023245826 -0.212379
0.1919392 0.017354582 0.34756485 -0.14169034 -0.29170686 0.24041611 -0.13131332 0.082789436
0.06899152 -0.25884226 0.2681243 0.20391266 0.02472698 0.04511254 0.2547304 -0.19914337
0.18075147 -0.0056814323 0.10007483 0.3105168 -0.3844565 0.21328506 0.3045262 0.03701969
-0.06911591 -0.02204479 0.060096707 0.013704684 0.2829609 0.08329409 0.15126047 0.23484239
0.18385209 -0.18072978 0.021903437 0.031216724 0.31225222 0.4257624 -0.04305507 0.17051886
0.3133289 -0.07973754 0.38215488 0.21849921 0.1493398 -0.0094804885 0.05132359 0.18017647
-0.12063495 0.064233676 0.17862947 -0.2655395 0.046937194 0.07062069 -0.016770313 0.3512487
-0.009192682 -0.35462797 -0.11599787 0.21108767 -0.12197795 -0.017721249 -0.080063686 0.095123515
-0.14114562 -0.0909947 -0.37452233 0.06962577 0.2822465 0.17006642 -0.05578038 0.21229339
-0.33169228 0.09853279 -0.31650338 -0.25928843 0.2582563 0.33903447 0.37441868 0.003371549
-0.12215228 0.11944436 0.25897878 -0.1825419 0.19542508 -0.0005084655 0.0034792423 -0.067781165
0.29665452 -0.16967928 0.20861636 -0.22685541 -0.17350821 -0.26407418 -0.032836325 0.36170802
-0.2653729 0.11847445 0.18007882 -0.10694346 0.0928851 -0.029262403 -0.148067 -0.19558695
-0.07287802 -0.15093319 -0.109540924 -0.15580504 0.32413697 -0.021845018 -0.2039064 0.1198691
0.06290939 0.22214341 -0.026014103 -0.23217776 0.12951623 -0.10877382 -0.17326435 0.2503497
-0.33884442 0.3048364 -0.23926903 0.027328968 0.14590019 -0.14508253 0.06670312 -0.19404289
-0.050887495 0.09033047 0.2432698 0.17699382 -0.121032 0.22225061 0.26336202 0.16964616
0.25513738 -0.21936919 -0.23831715 0.28301176 -0.056917477 0.10540044 -0.32692426 0.042147037
0.3213964 0.22783433 0.097850166 0.20339046 0.29027775 -0.11794112 0.21607912 0.024326198
0.25758222 -0.28854263 0.15517785 -0.10252419 0.31738147 0.22820008 0.24935073 0.037669703
00000000: 06bf 493e 27e3 903d 0653 ebbd efc4 2bbe
00000010: 3011 8dbe 305a 4abd 547a 9e3e 10fd 8dbd
00000020: 6888 873d 9f1f 2cbe e5a2 08be 1e1c 62bd
00000030: 1f54 d0bb bcfb 12be 7849 fbbd 0862 333c
00000040: f439 91bd a1b7 943e df91 9a3e 4511 07be
00000050: bc7a 9f3c 66b1 5cbe 8d29 5fbe b30c 853e
00000060: b119 8f3e 48ad 68be f65c 9f3e d7b6 523e
00000070: 0e6d b5be ed46 83be c14e 643e 2bd0 b83e
00000080: 66c4 4a3e 97af a3bd da00 13be 7368 a03d
00000090: 3783 723e 8b7c 673e db72 703e 955d 813e
000000a0: e437 1ebd 51a4 73bd ee52 743d bc55 9b3d
000000b0: 66d9 8b3d 16e4 7ebe 0197 3bbe 2916 b6be
000000c0: 50fd 433d 6e38 743e 383f e4bd 2100 f53d
000000d0: b2b0 e43d 9df3 6d3e 8020 8a3e f330 76be
000000e0: 8054 8b3c 8a8e 893e 4bce 89be a892 93be
000000f0: c773 273e e5fa 85bd c118 793e 1643 8fbe
00000100: dded c13c 9846 0e3e f38c c6bd 1a3a 233d
00000110: 4639 01bd 9398 c33d 7650 a23e 4df6 633e
00000120: e4cf 88be 7e8b 9abe 335e b23d 7ef3 c8be
00000130: 0b99 c23d ce96 803d a116 33be 9ecf 263c
00000140: fbd0 2a3e 74ab debd a971 9c3e 97b1 06bc
00000150: b62c 693e ca2f a83e 0180 d53d 9fa8 883d
00000160: 9602 41bc b8eb 04be 8084 083e 1347 983d
00000170: c665 903e f858 27be 086e be3c e179 59be
00000180: b68b 443e 322b 8e3c 05f4 b13e 4617 11be
00000190: 9a5a 95be a42f 763e 0077 06be 828d a93d
000001a0: 6d4b 8d3d f986 84be 9747 893e 7bce 503e
000001b0: 3c90 ca3c edc7 383d 066c 823e 3dec 4bbe
000001c0: ea16 393e 4f2b babb 08f4 cc3d 0ffc 9e3e
000001d0: 7bd7 c4be 6667 5a3e dcea 9b3e f5a1 173d
000001e0: a48c 8dbd 4797 b4bc f727 763d 9c89 603c
000001f0: 40e0 903e 1896 aa3d 06e4 1a3e 867a 703e
00000200: b943 3c3e 3a11 39be d66e b33c 37ba ff3c
00000210: 86df 9f3e 87fd d93e 835a 30bd 7f9c 2e3e
00000220: a56c a03e 6f4d a3bd cea9 c33e 42be 5f3e
00000230: 88ec 183e 0d54 1bbc af38 523d 2e80 383e
00000240: 750f f7bd f28c 833d a5ea 363e cbf4 87be
00000250: 3741 403d 95a1 903d e561 89bc dfd6 b33e
00000260: e79c 16bc cc91 b5be 4b90 edbd 5e27 583e
00000270: 93cf f9bd 272c 91bc 6ef8 a3bd 1ed0 c23d
00000280: 7a88 10be 6e5b babd 64c1 bfbe f597 8e3d
00000290: 9d82 903e e425 2e3e f879 64bd 7063 593e
000002a0: 92d3 a9be 8fcb c93d bb0c a2be 74c1 84be
000002b0: 2b3a 843e ed95 ad3e ceb3 bf3e 35f5 5c3b
000002c0: f92a fabd 3f9f f43d de98 843e 44ec 3abe
000002d0: 831d 483e 8b4a 05ba 0004 643b dad0 8abd
000002e0: 1ae3 973e 68c0 2dbe 879f 553e c94c 68be
000002f0: 23ac 31be bb34 87be 627f 06bd cb31 b93e
00000300: f5de 87be bca2 f23d 9566 383e 2c05 dbbd
00000310: 8b3a be3d b5b7 efbc e09e 17be f247 48be
00000320: 1241 95bd 3b8e 1abe fe56 e0bd 5b8b 1fbe
00000330: 48f5 a53e 53f4 b2bc d7cc 50be ee7d f53d
00000340: a3d6 803d 9079 633e 871b d5bc 02c0 6dbe
00000350: e79f 043e cfc4 debd 366c 31be d62d 803e
00000360: 047d adbe 8413 9c3e f102 75be 00e1 df3c
00000370: dc66 153e 8490 14be a59b 883d 2eb3 46be
00000380: 686f 50bd 2eff b83d b81b 793e de3d 353e
00000390: a0df f7bd aa95 633e 63d7 863e b9b7 2d3e
000003a0: 5ea1 823e 51a2 60be 6909 74be ebe6 903e
000003b0: 4d22 69bd 30dc d73d 9e62 a7be 5fa2 2c3d
000003c0: 128e a43e 674d 693e ab65 c83d 9745 503e
000003d0: 499f 943e 1d8b f1bd d843 5d3e bc47 c73c
000003e0: d1e1 833e dcbb 93be f1e6 1e3e 34f8 d1bd
000003f0: d37f a23e 48ad 693e cc55 7f3e 8c4b 1a3d

block2.bn2.weight f4 [48]
0.95818526 1.0386257 0.99012405 1.0501406 1.0154225 1.009507 1.0558013 1.0198078
0.9964344 1.005294 0.99105364 0.97428644 1.053316 1.0381542 1.0217624 0.99883443
1.0165538 1.0331123 1.011501 1.0058395 0.9862787 1.0957028 0.958059 1.0565833
1.0326242 1.0013251 0.9690228 0.97443247 1.0001187 1.0050474 0.91480523 0.99229425
1.0533875 1.050033 0.90477574 1.0319554 1.0356058 1.0088562 1.027692 0.97001874
0.96871454 1.0442652 1.0219281 0.98153925 0.99346983 0.9683776 1.2598356 0.9841492
00000000: a14b 753f b0f1 843f c578 7d3f 026b 863f
00000010: 5df9 813f 8637 813f 7f24 873f 1089 823f
00000020: 5316 7f3f 79ad 803f b1b5 7d3f d66a 793f
00000030: 0fd3 863f 3de2 843f 1cc9 823f 9db3 7f3f
00000040: 6f1e 823f 063d 843f dd78 813f 59bf 803f
00000050: c37c 7c3f fd3f 8c3f 5b43 753f 1f3e 873f
00000060: 082d 843f 6c2b 803f e111 783f 6874 793f
00000070: e403 803f 65a5 803f ad30 6a3f ff06 7e3f
00000080: 67d5 863f 7b67 863f 629f 673f 1d17 843f
00000090: bb8e 843f 3322 813f 698b 833f 2653 783f
000000a0: adfd 773f 7baa 853f 8ace 823f 2846 7b3f
000000b0: 0a54 7e3f 98e7 773f 4b42 a13f 34f1 7b3f

block2.bn2.bias f4 [48]
0.07196732 -0.009836367 0.014600141 0.21266477 -0.016179508 0.026762629 0.071297474 -0.0129077695
0.09968629 -0.057983696 -0.052427616 -0.1150176 0.023930598 0.090037376 0.05972373 -0.004879443
0.042637303 0.04984532 0.15010427 -0.0034850251 0.052457023 0.075646676 0.2802373 -0.14496899
0.07891169 -0.10579407 0.030585213 -0.020993367 -0.027920034 -0.0281842 -0.0824328 0.0650553
0.0020730584 0.06387322 0.07526144 -0.0105212135 0.009886558 -0.00386918 -0.031971175 -0.097759224
0.09933967 0.028950794 0.04439569 0.15182291 0.032800157 -0.08408094 0.12494325 -0.0043362603
00000000: 9a63 933d b728 21bc 6e35 6f3c cbc4 593e
00000010: e38a 84bc 4d3d db3c 6904 923d 1c7b 53bc
00000020: 5328 cc3d 5080 6dbd 57be 56bd 598e ebbd
00000030: 1a0a c43c 8465 b83d dfa0 743d bce3 9fbb
00000040: 74a4 2e3d 9b2a 4c3d efb4 193e 0565 64bb
00000050: 2ddd 563d a5ec 9a3d 437b 8f3e c072 14be
00000060: 749c a13d 90aa d8bd d78d fa3c 48fa abbc
00000070: 8eb8 e4bc 8de2 e6bc 87d2 a8bd b73b 853d
00000080: 26dc 073b f6cf 823d ab22 9a3d 2b61 2cbc
00000090: 3bfb 213c 1292 7dbb 35f4 02bd fd35 c8bd
000000a0: 9972 cb3d 372a ed3c 41d8 353d 7777 1b3e
000000b0: 7559 063d a132 acbd 3fe2 ff3d 3017 8ebb

block2.bn2.running_mean f4 [48]
-0.008681242 -0.030759798 0.058303718 0.016791742 0.0949341 -0.0017821542 0.023278367 0.14972255
-0.14820486 0.083714 0.110157564 0.05348102 0.042501435 0.14624245 0.16481575 0.20557421
0.042091902 -0.100124486 -0.08149704 0.13738388 -0.029055787 0.0411597 -0.21976094 0.03769161
-0.081136785 0.20394537 0.06318292 0.0073287967 0.037172403 -0.075289145 -0.07040425 -0.03461955
0.014407356 0.06635634 0.01669003 -0.41789082 -0.12760372 -0.010069892 -0.036213435 0.13121279
-0.061034475 0.0045352755 -0.11929449 -0.07402739 0.20470583 0.09100399 -0.11194684 -0.007368205
00000000: c53b 0ebc f9fb fbbc e1cf 6e3d d68e 893c
00000010: cf6c c23d 2c97 e9ba 46b2 be3c de50 193e
00000020: 04c3 17be 3f72 ab3d 4a9a e13d ea0e 5b3d
00000030: fc15 2e3d 95c0 153e 76c5 283e 0c82 523e
00000040: 8f68 2c3d 110e cdbd ece7 a6bd 5cae 0c3e
00000050: 6706 eebc 1397 283d 0309 61be 8562 1a3d
00000060: 0b2b a6bd 0ed7 503e 0c66 813d 6726 f03b
00000070: 1742 183d 3231 9abd 1a30 90bd 3bcd 0dbd
00000080: d50c 6c3c d5e5 873d 88b9 883c c9f5 d5be
00000090: 8daa 02be 30fc 24bc 8a54 14bd a55c 063e
000000a0: 49ff 79bd a69c 943b ab50 f4bd ac9b 97bd
000000b0: 689e 513e 4d60 ba3d 6344 e5bd fc70 f1bb

block2.bn2.running_var f4 [48]
0.024551013 0.061180133 0.07544446 0.024472212 0.22990733 0.103028245 0.07606758 0.18507987
0.1373986 0.21143778 0.17563377 0.06961034 0.025400026 0.13202521 0.32514325 0.28775373
0.027675388 0.034315344 0.11579862 0.13743973 0.068987235 0.073505715 0.1283438 0.018558921
0.045654856 0.24165918 0.060672518 0.18146673 0.14158891 0.13675866 0.15945476 0.024821552
0.020622306 0.11002825 0.019019077 0.23441683 0.14992322 0.020300383 0.044526514 0.13855314
0.10389103 0.021172944 0.079016 0.284564 0.38120097 0.14035618 0.07681504 0.020694744
00000000: 351f c93c 0598 7a3d a082 9a3d f379 c83c
00000010: d46c 6b3e 7900 d33d 52c9 9b3d 9485 3d3e
00000020: 38b2 0c3e 2583 583e 57d9 333e de8f 8e3d
00000030: b713 d03c 9e31 073e 2d79 a63e 7554 933e
00000040: 7fb7 e23c 3f8e 0c3d d427 ed3d 00bd 0c3e
00000050: 2e49 8d3d 2a8a 963d 8f6c 033e e108 983c
00000060: 9600 3b3d 8175 773e bf83 783d 6ad2 393e
00000070: affc 103e 760a 0c3e 1c48 233e 9156 cb3c
00000080: 1cf0 a83c 7e56 e13d e5cd 9b3c f70a 703e
00000090: 7985 193e fd4c a63c 6f61 363d e0e0 0d3e
000000a0: d2c4 d43d e272 ad3c 24d3 a13d 5fb2 913e
000000b0: c62c c33e 88b9 0f3e 3451 9d3d 0688 a93c

block2.hs2.total_ops f8 [1]
0.0
00000000: 0000 0000 0000 0000

block2.hs2.total_params f8 [1]
0.0
00000000: 0000 0000 0000 0000

block2.hs2.sigmoid.total_ops f8 [1]
0.0
00000000: 0000 0000 0000 0000

block2.hs2.sigmoid.total_params f8 [1]
0.0
00000000: 0000 0000 0000 0000

block2.se1.total_ops f8 [1]
0.0
00000000: 0000 0000 0000 0000

block2.se1.total_params f8 [1]
0.0
00000000: 0000 0000 0000 0000

block2.se1.fc.0.weight f4 [16, 48]
0.12151583 -0.021568814 0.124315225 0.14182551 0.0047264476 0.1905271 -0.091377355 -0.050122656
0.09180022 0.004580077 -0.066274665 -0.08333867 0.10847636 0.22342733 0.07757416 0.058041707
0.16014989 0.019446721 0.15416175 0.26011628 0.15549974 -0.13945116 0.07372065 -0.009795038
0.12232709 0.11894028 0.024426907 -0.016092652 -0.096514046 0.025814097 -0.092527784 0.012636514
-0.007070801 -0.09624622 0.012215745 -0.1045992 -0.03545253 0.13168211 -0.077214204 -0.113242485
-0.08197228 0.04308806 0.1560573 -0.00083962054 0.083584316 -0.051894534 0.2401043 0.00030435564
0.018746821 -0.22241805 -0.2290891 -0.051707346 0.008316039 -0.3524776 -0.19538452 -0.18722883
-0.046366993 -0.11424561 -0.059238154 0.075181976 -0.08465836 -0.22223112 0.032504644 -0.104652524
-0.022780057 0.28553724 0.18633774 -0.023110874 -0.26587972 0.39301518 0.23764072 0.09360405
-0.02505778 -0.22621578 -0.04191474 0.05974986 -0.18010555 -0.072158456 -0.08604902 0.056004576
0.24539217 0.12558198 -0.04146402 0.03832614 -0.11180435 -0.011435018 0.34590778 -0.12563592
0.057083596 0.048573464 0.11516353 0.1451894 -0.03895202 0.05487837 -0.15650843 -0.10775526
0.03531662 -0.12549421 0.19213776 -0.010593826 0.0038545283 -0.10470387 0.06907284 0.04468953
0.044864185 -0.121810496 0.055835698 0.13011214 -0.22767024 -0.15039939 0.011956536 0.17749739
0.10489474 0.25465417 -0.09162877 0.048367463 -0.07823909 -0.039846815 -0.020354057 0.1143682
0.30469966 0.010583276 0.033569843 -0.1055782 -0.10680776 0.16961128 -0.0042205737 -0.15839179
-0.007201527 0.16527371 0.13988853 0.25172177 -0.0017646151 0.1415263 0.18478346 0.10471223
0.10099428 -0.007766517 0.14103813 -0.024373768 0.06521217 -0.043984357 -0.13348894 0.17250285
0.1372362 -0.027784038 -0.10964317 0.08412788 -0.08927106 0.10432087 -0.07063733 0.017093634
-0.06417241 -0.040874332 -0.063999474 0.117379636 -0.050331883 -0.05149251 -0.0031186163 0.16907611
0.15549037 0.10735764 0.11168262 0.09936539 -0.0128485365 0.07526945 -0.024340741 -0.1343283
-0.035190877 -0.043327134 -0.053973652 0.124376096 0.1133158 0.11564829 -0.010273262 0.060035463
0.08467166 -0.06266954 -0.14709827 0.05752759 -0.09300153 -0.029587343 -0.010406478 -0.108085334
-0.09612757 -0.035037216 0.0046032732 0.040342174 -0.012182167 -0.13135673 -0.14670083 0.12640981
0.08252504 -0.07555285 -0.0497646 0.090579376 0.013936728 -0.08158628 -0.08733135 0.02234577
0.02886015 -0.054509096 0.027035588 -0.04135032 -0.12941293 0.08916897 -0.035734218 0.15625174
-0.049720727 0.123406716 0.0975426 -0.12118852 0.13504365 0.030996205 -0.016016142 0.0333636
-0.030628793 -0.043150056 0.049404312 0.030934654 -0.03493265 -0.10492481 -0.034953497 -0.035604365
-0.20546368 0.12010422 0.14245676 0.22571416 0.12125498 -0.039501134 -0.20561366 -0.054597676
0.03375383 0.042987943 -0.15013888 -0.016300775 -0.17186236 -0.1585268 0.080881275 -0.090047754
0.014213277 0.034877874 -0.033603277 -0.02593625 0.014965046 0.07247527 -0.052166443 0.014297371
0.08857671 0.066688195 0.079967044 0.10950633 0.09749481 -0.07940756 -0.14004625 0.111793794
00000000: 4bdd f83d 15b1 b0bc fb98 fe3d b53a 113e
00000010: 51e0 9a3b 8919 433e 0d24 bbbd 6a4d 4dbd
00000020: c101 bc3d 7814 963b 03bb 87bd 77ad aabd
00000030: db28 de3d 22ca 643e 34df 9e3d 24bd 6d3d
00000040: 55fe 233e bb4e 9f3c 94dc 1d3e f62d 853e
00000050: 533b 1f3e 49cc 0ebe dafa 963d 5e7b 20bc
00000060: a086 fa3d f696 f33d f01a c83c bdd4 83bc
00000070: 28a9 c5bd 1678 d33c 357f bdbd 6209 4f3c
00000080: 2eb2 e7bb bd1c c5bd 8c24 483c 1b38 d6bd
00000090: ac36 11bd add7 063e 7b22 9ebd adeb e7bd
000000a0: 15e1 a7bd 1b7d 303d 7ccd 1f3e fb19 5cba
000000b0: 412e ab3d 5d8f 54bd e7dd 753e ec91 9f39
000000c0: ef92 993c 8fc1 63be 5596 6abe 15cb 53bd
000000d0: ff3f 083c f277 b4be e112 48be eab8 3fbe
000000e0: 51eb 3dbd 9af9 e9bd b5a3 72bd 02f9 993d
000000f0: 5d61 adbd 8e90 63be 9723 053d 1054 d6bd
00000100: 3e9d babc f031 923e 52cf 3e3e 0453 bdbc
00000110: 6321 88be 4939 c93e 1758 733e 7bb3 bf3d
00000120: f945 cdbc 1ca5 67be caae 2bbd 45bc 743d
00000130: 976d 38be d0c7 93bd 783a b0bd 0e65 653d
00000140: 1648 7b3e 9098 003e 2dd6 29bd dffb 1c3d
00000150: aef9 e4bd f159 3bbc d31a b13e b4a6 00be
00000160: 7dd0 693d f8f4 463d dbda eb3d 88ac 143e
00000170: 278c 1fbd 24c8 603d bf43 20be caae dcbd
00000180: 29a8 103d 8e81 00be c3bf 443e ba91 2dbc
00000190: 419c 7c3b fc6e d6bd 1076 8d3d 5e0c 373d
000001a0: 82c3 373d c877 f9bd f9b3 643d 1e3c 053e
000001b0: 6322 69be 4c02 1abe 59e5 433c e0c1 353e
000001c0: 0ed3 d63d 0862 823e dda7 bbbd f61c 463d
000001d0: d13b a0bd 6a36 23bd 8dbd a6bc e039 ea3d
000001e0: 9801 9c3e 7a65 2d3c 8880 093d 6239 d8bd
000001f0: 07be dabd 94ae 2d3e bd4c 8abb 7531 22be
00000200: c9fa ebbb 833d 293e f03e 0f3e ade1 803e
00000210: a84a e7ba 45ec 103e e037 3d3e 5e73 d63d
00000220: 17d6 ce3d 447e febb 4d6c 103e 7fab c7bc
00000230: f58d 853d f128 34bd 53b1 08be 96a4 303e
00000240: a587 0c3e 5a9b e3bc 998c e0bd 3d4b ac3d
00000250: bfd3 b6bd 2ea6 d53d 4eaa 90bd f307 8c3c
00000260: d36c 83bd d86b 27bd 2812 83bd bc64 f03d
00000270: ce28 4ebd cfe9 52bd b361 4cbb 4a22 2d3e
00000280: de38 1f3e 53de db3d dcb9 e43d 1580 cb3d
00000290: ab82 52bc df26 9a3d 3c66 c7bc 5c8d 09be
000002a0: 4f24 10bd cb77 31bd 7a13 5dbd e5b8 fe3d
000002b0: 1d12 e83d 03d9 ec3d 2f51 28bc bfe7 753d
000002c0: 5668 ad3d e358 80bd eea0 16be 0da2 6b3d
000002d0: 9677 bebd 2861 f2bc ef7f 2abc d85b ddbd
000002e0: 88de c4bd 2f83 0fbd 0ed7 963b d63d 253d
000002f0: b697 47bc 6182 06be be38 16be 9371 013e
00000300: e302 a93d 74bb 9abd f7d5 4bbd ae81 b93d
00000310: e056 643c b516 a7bd c7da b2bd 7a0e b73c
00000320: 1f6c ec3c ee44 5fbd bd79 dd3c f45e 29bd
00000330: d384 04be 399e b63d 0b5e 12bd 7500 203e
00000340: f6a7 4bbd a9bc fc3d 6ac4 c73d b031 f8bd
00000350: e248 0a3e c1eb fd3c 4934 83bc 45a8 083d
00000360: 3ce9 fabc 1dbe 30bd 2d5c 4a3d ac6a fd3c
00000370: 8a15 0fbd d2e2 d6bd 662b 0fbd e2d5 11bd
00000380: 1265 52be 34f9 f53d 2fe0 113e 9d21 673e
00000390: 8854 f83d f1cb 21bd 638c 52be d0a1 5fbd
000003a0: 7541 0a3d 2014 303d 02be 19be 3489 85bc
000003b0: b0fc 2fbe d954 22be 15a5 a53d f56a b8bd
000003c0: cede 683c 1adc 0e3d 97a3 09bd 4278 d4bc
000003d0: f42f 753c ea6d 943d 7bac 55bd 853f 6a3c
000003e0: b567 b53d d293 883d c3c5 a33d db44 e03d
000003f0: 5cab c73d 6ea0 a2bd 4968 0fbe 25f4 e43d

block2.se1.fc.2.weight f4 [48, 16]
-0.16338369 0.43126777 0.19588396 -0.25647175 0.103081085 -0.31018224 -0.27353838 -0.43769646
0.06960265 0.077384196 0.10062247 0.07720157 0.18184105 -0.25620437 0.095692195 -0.046912905
0.19222926 -0.29697838 -0.15525652 0.20071535 -0.14012176 0.21350591 0.16490461 -0.19474585
0.15209164 -0.040854916 0.017444361 0.22094724 -0.16020042 -0.032223202 -0.091854684 -0.15342543
0.06647055 -0.17020968 -0.16732682 0.062640645 0.20341213 0.20881197 -0.2370062 -0.072645225
-0.15518697 -0.004126183 -0.13206193 -0.18176302 0.20063971 -0.20889816 -0.114738695 0.033561755
0.08013763 -0.28412968 0.029286256 0.19043465 0.21780981 -0.22817507 -0.011889709 -0.08241961
-0.14305732 0.2513452 -0.19770458 0.2621059 0.23369475 0.027688993 0.31312162 0.017030234
0.25514352 -0.08592152 -0.27317554 0.19133885 -0.064334475 0.028518818 -0.123482846 -0.10164137
-0.2160799 0.18101536 -0.04452828 -0.30402175 0.16165172 -0.09221176 -0.20569675 0.009124073
-0.10870264 0.042495687 0.2944714 0.071010716 0.3346714 -0.29412904 -0.030482952 -0.193037
0.23514022 0.34384683 -0.0954306 -0.12463204 0.3712048 0.19682282 0.08402244 0.45425522
-0.011318383 -0.3788801 -0.042148795 -0.19036393 -0.014049216 0.042072967 0.18928555 -0.0375727
0.1047641 0.31163406 0.049422834 0.16643332 -0.013223284 0.33717477 0.09188768 0.7883954
0.19755438 0.21584944 0.04384532 -0.008105504 0.033492487 -0.16187038 -0.02356253 -0.08241371
0.17412701 0.41307673 -0.14807196 0.19137658 -0.09235954 0.20531905 0.39534053 0.02938317
-0.01637366 0.26209602 0.031135458 -0.13482992 -0.10850535 0.221472 -0.019637037 0.22016278
-0.052856304 -0.12828372 -0.03289072 -0.042457137 -0.22703971 -0.16473159 0.034044504 -0.19762294
0.07383516 0.14886881 -0.2790999 -0.17530265 -0.09270229 -0.00871516 0.06961561 0.25710908
0.27170873 -0.016538255 -0.09379239 0.0229421 0.17718443 0.19368947 0.21584773 0.014889982
-0.03388581 0.08500427 -0.0899806 0.16285908 0.06491932 0.14570796 0.15839154 -0.07168538
-0.28785315 -0.04057064 0.21944776 -0.241332 0.1601427 0.09939124 0.08533415 -0.19232313
-0.09153722 -0.15523902 -0.07150637 0.04591385 -0.24233615 -0.0013381724 -0.015919257 0.019604553
-0.13073944 -0.24627683 0.19133733 -0.15066779 0.05180617 0.1544505 0.045672636 -0.2081336
-0.12193112 -0.080372594 -0.19277374 0.23549622 0.11177542 0.21872553 -0.052654304 0.04197075
0.17052965 0.14293657 0.088017076 -0.037550353 -0.19881004 0.095113516 0.21419132 0.23818828
0.2453661 -0.13125475 -0.0878723 0.16263591 0.3297057 0.0013511609 0.13881606 0.1238699
-0.011424201 -0.018111255 0.19865091 0.15311605 0.07985935 -0.18432498 0.3299734 0.10465308
-0.12848945 0.026069297 -0.072696775 -0.07410352 -0.034568254 0.103388816 0.08357673 0.019704608
0.1311054 -0.07840832 -0.10132249 0.22100802 -0.07252098 0.16284649 0.092643194 0.014028818
-0.11229373 -0.28195667 -0.14674722 -0.307466 -0.09133694 -0.16095571 0.17017867 0.25265098
-0.20280463 0.27196726 0.0885383 0.14348066 -0.13938972 0.22944508 -0.12681454 0.16550882
00000000: 0e4e 27be 21cf dc3e ce95 483e 4450 83be
00000010: 2d1c d33d 35d0 9ebe 390d 8cbe c019 e0be
00000020: d68b 8e3d 9b7b 9e3d 2713 ce3d db1b 9e3d
00000030: 8a34 3a3e 382d 83be 45fa c33d bf27 40bd
00000040: bfd7 443e 8d0d 98be 91fb 1ebe 5388 4d3e
00000050: 147c 0fbe 4ba1 5a3e c1dc 283e 756b 47be
00000060: e9bd 1b3e 7c57 27bd 7ae7 8e3c fe3f 623e
00000070: 940b 24be 7afc 03bd 4f1e bcbd 8e1b 1dbe
00000080: b621 883d 724b 2ebe b957 2bbe bd49 803d
00000090: 454b 503e ced2 553e c1b1 72be 05c7 94bd
000000a0: 55e9 1ebe ef34 87bb 3e3b 07be 1620 3abe
000000b0: 7f74 4d3e 66e9 55be 1ffc eabd 0d78 093d
000000c0: 331f a43d 7279 91be bbe9 ef3c 4d01 433e
000000d0: 8909 5f3e baa6 69be 0ecd 42bc 9dcb a8bd
000000e0: 9e7d 12be 51b0 803e 1273 4abe bf32 863e
000000f0: ad4d 6f3e 07d4 e23c 7a51 a03e fd82 8b3c
00000100: 2ca2 823e 9ff7 afbd aadd 8bbe 55ee 433e
00000110: cbc1 83bd 4ca0 e93c 93e4 fcbd 5a29 d0bd
00000120: 0d44 5dbe 175c 393e 4963 36bd bda8 9bbe
00000130: 0788 253e 85d9 bcbd 2ba2 52be 237d 153c
00000140: 7d9f debd f50f 2e3d f5c4 963e 116e 913d
00000150: 0d5a ab3e 1598 96be 62b7 f9bc 7eab 45be
00000160: 99c8 703e b10c b03e 1e71 c3bd 153f ffbd
00000170: 8e0e be3e ec8b 493e f513 ac3d 2494 e83e
00000180: bd70 39bc 93fc c1be 37a4 2cbd c3ee 42be
00000190: af2e 66bc b454 2c3d 12d4 413e d5e5 19bd
000001a0: 8f8e d63d 808e 9f3e 996f 4a3d 7f6d 2a3e
000001b0: 79a6 58bc 2ca2 ac3e 9c2f bc3d 48d4 493f
000001c0: b24b 4a3e a307 5d3e 2697 333d f3cc 04bc
000001d0: 6b2f 093d 59c1 25be 3506 c1bc 85c8 a8bd
000001e0: 5a4e 323e cb7e d33e 2da0 17be 39f8 433e
000001f0: 0027 bdbd 283f 523e 136a ca3e f9b4 f03c
00000200: 0e22 86bc 7331 863e ca0f ff3c db10 0abe
00000210: 0e38 debd 8ec9 623e dadd a0bc 5a72 613e
00000220: da7f 58bd cf5c 03be 6bb8 06bd 89e7 2dbd
00000230: 197d 68be 66af 28be 4072 0b3d ab5d 4abe
00000240: e336 973d 1171 183e 2fe6 8ebe 8a82 33be
00000250: b3da bdbd 08ca 0ebc a192 8e3d cda3 833e
00000260: 681d 8b3e 3c7b 87bc 3916 c0bd 12f1 bb3c
00000270: d66f 353e 8856 463e 3007 5d3e 1cf5 733c
00000280: d9cb 0abd b816 ae3d c047 b8bd 88c4 263e
00000290: 6cf4 843d 7834 153e 6431 223e c9cf 92bd
000002a0: 7d61 93be 662d 26bd eab6 603e bc1f 77be
000002b0: 73fc 233e a28d cb3d acc3 ae3d 5bf0 44be
000002c0: de77 bbbd faf6 1ebe ef71 92bd 2910 3c3d
000002d0: f826 78be 9d65 afba 1a69 82bc ba99 a03c
000002e0: 8fe0 05be fe2f 7cbe efed 433e a848 1abe
000002f0: b532 543d 4628 1e3e 3b13 3b3d f920 55be
00000300: 06b7 f9bd 639a a4bd 7b66 45be ec25 713e
00000310: 83ea e43d 96f9 5f3e 0aac 57bd 85e9 2b3d
00000320: 539f 2e3e f75d 123e 4c42 b43d 66ce 19bd
00000330: dc94 4bbe e0ca c23d f854 5b3e a1e7 733e
00000340: 4041 7b3e a567 06be 64f6 b3bd 078a 263e
00000350: 2fcf a83e 7019 b13a cc25 0e3e 81af fd3d
00000360: 922c 3bbc 0e5e 94bc 256b 4b3e 74ca 1c3e
00000370: 4d8d a33d b0bf 3cbe 46f2 a83e 5b54 d63d
00000380: bd92 03be 478f d53c 0ce2 94bd 96c3 97bd
00000390: 7197 0dbd 84bd d33d 472a ab3d 8f6b a13c
000003a0: 7e40 063e 8b94 a0bd 2a82 cfbd ed4f 623e
000003b0: e185 94bd 3bc1 263e b7bb bd3d 21d9 653c
000003c0: 41fa e5bd a05c 90be e744 16be 2f6c 9dbe
000003d0: dd0e bbbd 93d1 24be 5143 2e3e 785b 813e
000003e0: 04ac 4fbe 4b3f 8b3e 9153 b53d 98ec 123e
000003f0: 2ebc 0ebe a7f3 6a3e acdb 01be 257b 293e
