Project/Software/project_Mobilenet_q/Mobilenet_ckpt/Quantized_Mobilenet.pt (torch, 494962 bytes, 104 tensors)

weights f4 [8, 1, 3, 3]
0	0x42cc0000	102.0
1	0x42a60000	83.0
2	0xc1400000	-12.0
3	0x42240000	41.0
4	0x41800000	16.0
5	0xc1a80000	-21.0
6	0x40c00000	6.0
7	0xc2440000	-49.0
8	0x41200000	10.0
9	0x42680000	58.0
10	0xc2e60000	-115.0
11	0xc2980000	-76.0
12	0x42e40000	114.0
13	0x42b40000	90.0
14	0x41d00000	26.0
15	0x42a40000	82.0
16	0x42a40000	82.0
17	0x42cc0000	102.0
18	0xc1a80000	-21.0
19	0xc2f80000	-124.0
20	0x42880000	68.0
21	0x41980000	19.0
22	0xc2340000	-45.0
23	0xc2ae0000	-87.0
24	0xc2fa0000	-125.0
25	0xc2000000	-32.0
26	0xc1300000	-11.0
27	0xc2fe0000	-127.0
28	0x42d00000	104.0
29	0xc22c0000	-43.0
30	0xc2c20000	-97.0
31	0xc26c0000	-59.0
32	0xc2aa0000	-85.0
33	0xc2b20000	-89.0
34	0xc2040000	-33.0
35	0xc2fe0000	-127.0
36	0xc2340000	-45.0
37	0x40e00000	7.0
38	0x42de0000	111.0
39	0x40c00000	6.0
40	0x42ac0000	86.0
41	0x42b60000	91.0
42	0x42920000	73.0
43	0xc0c00000	-6.0
44	0x42f00000	120.0
45	0xc2740000	-61.0
46	0xc2a80000	-84.0
47	0xc2ea0000	-117.0
48	0xc1b80000	-23.0
49	0xc2da0000	-109.0
50	0x41000000	8.0
51	0xc2b00000	-88.0
52	0xc2be0000	-95.0
53	0x42dc0000	110.0
54	0xc0c00000	-6.0
55	0xc1600000	-14.0
56	0x42b20000	89.0
57	0xc1a80000	-21.0
58	0x42080000	34.0
59	0x42fe0000	127.0
60	0x42dc0000	110.0
61	0xc29e0000	-79.0
62	0xc2da0000	-109.0
63	0x42ca0000	101.0
64	0xc29a0000	-77.0
65	0xc1980000	-19.0
66	0x428a0000	69.0
67	0xc2900000	-72.0
68	0x41a80000	21.0
69	0xc2040000	-33.0
70	0xc2940000	-74.0
71	0x42c00000	96.0

bias f4 [8]
0	0xbd9ae23b	-0.07562681
1	0xbe5a9fc5	-0.2135001
2	0xbded8275	-0.11597148
3	0xbbd14b1b	-0.006387127
4	0xbd6be1c3	-0.05758835
5	0xbd38a2e6	-0.045077227
6	0xbe04884d	-0.1294262
7	0x3e5a1f43	0.21300988

q_bias f4 [8]
0	0xc5ea2000	-7492.0
1	0xc6a53e00	-21151.0
2	0xc6338400	-11489.0
3	0xc41e4000	-633.0
4	0xc5b24800	-5705.0
5	0xc58b9000	-4466.0
6	0xc6485800	-12822.0
7	0x46a4dc00	21102.0

q_weight f4 [8, 1, 3, 3]
0	0x42dc0000	110.0
1	0x42b60000	91.0
2	0xc0800000	-4.0
3	0x42440000	49.0
4	0x41c00000	24.0
5	0xc1500000	-13.0
6	0x41600000	14.0
7	0xc2240000	-41.0
8	0x41900000	18.0
9	0x42840000	66.0
10	0xc2d60000	-107.0
11	0xc2880000	-68.0
12	0x42f40000	122.0
13	0x42c40000	98.0
14	0x42080000	34.0
15	0x42b40000	90.0
16	0x42b40000	90.0
17	0x42dc0000	110.0
18	0xc1500000	-13.0
19	0xc2e80000	-116.0
20	0x42980000	76.0
21	0x41d80000	27.0
22	0xc2140000	-37.0
23	0xc29e0000	-79.0
24	0xc2ea0000	-117.0
25	0xc1c00000	-24.0
26	0xc0400000	-3.0
27	0xc2ee0000	-119.0
28	0x42e00000	112.0
29	0xc20c0000	-35.0
30	0xc2b20000	-89.0
31	0xc24c0000	-51.0
32	0xc29a0000	-77.0
33	0xc2a20000	-81.0
34	0xc1c80000	-25.0
35	0xc2ee0000	-119.0
36	0xc2140000	-37.0
37	0x41700000	15.0
38	0x42ee0000	119.0
39	0x41600000	14.0
40	0x42bc0000	94.0
41	0x42c60000	99.0
42	0x42a20000	81.0
43	0x40000000	2.0
44	0x43000000	128.0
45	0xc2540000	-53.0
46	0xc2980000	-76.0
47	0xc2da0000	-109.0
48	0xc1700000	-15.0
49	0xc2ca0000	-101.0
50	0x41800000	16.0
51	0xc2a00000	-80.0
52	0xc2ae0000	-87.0
53	0x42ec0000	118.0
54	0x40000000	2.0
55	0xc0c00000	-6.0
56	0x42c20000	97.0
57	0xc1500000	-13.0
58	0x42280000	42.0
59	0x43070000	135.0
60	0x42ec0000	118.0
61	0xc28e0000	-71.0
62	0xc2ca0000	-101.0
63	0x42da0000	109.0
64	0xc28a0000	-69.0
65	0xc1300000	-11.0
66	0x429a0000	77.0
67	0xc2800000	-64.0
68	0x41e80000	29.0
69	0xc1c80000	-25.0
70	0xc2840000	-66.0
71	0x42d00000	104.0

weights f4 [8, 8, 1, 1]
0	0x41400000	12.0
1	0xc1980000	-19.0
2	0x41600000	14.0
3	0x42100000	36.0
4	0x42040000	33.0
5	0x42280000	42.0
6	0xc0400000	-3.0
7	0x420c0000	35.0
8	0xc0000000	-2.0
9	0xc2500000	-52.0
10	0x42fe0000	127.0
11	0xc2a40000	-82.0
12	0xc2bc0000	-94.0
13	0xc1b00000	-22.0
14	0x42f40000	122.0
15	0xc2c60000	-99.0
16	0x41b80000	23.0
17	0xc1d80000	-27.0
18	0x421c0000	39.0
19	0x41c00000	24.0
20	0xc0e00000	-7.0
21	0xc0c00000	-6.0
22	0xc20c0000	-35.0
23	0xc1b00000	-22.0
24	0x42700000	60.0
25	0x42140000	37.0
26	0xc2640000	-57.0
27	0x42b00000	88.0
28	0xc2980000	-76.0
29	0xc2a60000	-83.0
30	0x42d80000	108.0
31	0x41b00000	22.0
32	0xc1700000	-15.0
33	0x41b80000	23.0
34	0xc2080000	-34.0
35	0x420c0000	35.0
36	0x422c0000	43.0
37	0xc1900000	-18.0
38	0x42080000	34.0
39	0x41f00000	30.0
40	0xc2aa0000	-85.0
41	0x00000000	0.0
42	0x42b00000	88.0
43	0xc2580000	-54.0
44	0x42ca0000	101.0
45	0x42820000	65.0
46	0x42d40000	106.0
47	0xc2fe0000	-127.0
48	0x42280000	42.0
49	0x42340000	45.0
50	0xbf800000	-1.0
51	0x41200000	10.0
52	0x41200000	10.0
53	0xc2200000	-40.0
54	0xc1d00000	-26.0
55	0x41800000	16.0
56	0x3f800000	1.0
57	0x40800000	4.0
58	0x42a20000	81.0
59	0x41d80000	27.0
60	0xc1a00000	-20.0
61	0xc25c0000	-55.0
62	0xc2a60000	-83.0
63	0x41e80000	29.0

bias f4 [8]
0	0x3ee05e1a	0.43821794
1	0x3ff6f778	1.9294271
2	0x3f4f92be	0.81083286
3	0xbe5982fc	-0.21241373
4	0xbf58d29a	-0.8469635
5	0x3fad740b	1.3551039
6	0xbf5216c9	-0.8206602
7	0x3f002294	0.5005276

q_bias f4 [8]
0	0x44aca000	1381.0
1	0x45be0000	6080.0
2	0x451fb000	2555.0
3	0xc4274000	-669.0
4	0xc526d000	-2669.0
5	0x45857000	4270.0
6	0xc521a000	-2586.0
7	0x44c52000	1577.0

q_weight f4 [8, 8, 1, 1]
0	0x40e00000	7.0
1	0xc1c00000	-24.0
2	0x41100000	9.0
3	0x41f80000	31.0
4	0x41e00000	28.0
5	0x42140000	37.0
6	0xc1000000	-8.0
7	0x41f00000	30.0
8	0xc0e00000	-7.0
9	0xc2640000	-57.0
10	0x42f40000	122.0
11	0xc2ae0000	-87.0
12	0xc2c60000	-99.0
13	0xc1d80000	-27.0
14	0x42ea0000	117.0
15	0xc2d00000	-104.0
16	0x41900000	18.0
17	0xc2000000	-32.0
18	0x42080000	34.0
19	0x41980000	19.0
20	0xc1400000	-12.0
21	0xc1300000	-11.0
22	0xc2200000	-40.0
23	0xc1d80000	-27.0
24	0x425c0000	55.0
25	0x42000000	32.0
26	0xc2780000	-62.0
27	0x42a60000	83.0
28	0xc2a20000	-81.0
29	0xc2b00000	-88.0
30	0x42ce0000	103.0
31	0x41880000	17.0
32	0xc1a00000	-20.0
33	0x41900000	18.0
34	0xc21c0000	-39.0
35	0x41f00000	30.0
36	0x42180000	38.0
37	0xc1b80000	-23.0
38	0x41e80000	29.0
39	0x41c80000	25.0
40	0xc2b40000	-90.0
41	0xc0a00000	-5.0
42	0x42a60000	83.0
43	0xc26c0000	-59.0
44	0x42c00000	96.0
45	0x42700000	60.0
46	0x42ca0000	101.0
47	0xc3040000	-132.0
48	0x42140000	37.0
49	0x42200000	40.0
50	0xc0c00000	-6.0
51	0x40a00000	5.0
52	0x40a00000	5.0
53	0xc2340000	-45.0
54	0xc1f80000	-31.0
55	0x41300000	11.0
56	0xc0800000	-4.0
57	0xbf800000	-1.0
58	0x42980000	76.0
59	0x41b00000	22.0
60	0xc1c80000	-25.0
61	0xc2700000	-60.0
62	0xc2b00000	-88.0
63	0x41c00000	24.0

weights f4 [8, 1, 3, 3]
0	0xc2b00000	-88.0
1	0xc1a80000	-21.0
2	0x42540000	53.0
3	0xc1a00000	-20.0
4	0xc2880000	-68.0
5	0x42fe0000	127.0
6	0x42d20000	105.0
7	0xc2fe0000	-127.0
8	0x429a0000	77.0
9	0x427c0000	63.0
10	0x42080000	34.0
11	0x41500000	13.0
12	0x42740000	61.0
13	0x41c80000	25.0
14	0xc2240000	-41.0
15	0xc2700000	-60.0
16	0xc2860000	-67.0
17	0x41500000	13.0
18	0x41a00000	20.0
19	0x42000000	32.0
20	0x41400000	12.0
21	0xc1400000	-12.0
22	0x41880000	17.0
23	0x41b00000	22.0
24	0x41a80000	21.0
25	0x41500000	13.0
26	0x41a80000	21.0
27	0x41900000	18.0
28	0x42580000	54.0
29	0xc1c80000	-25.0
30	0x41600000	14.0
31	0x42140000	37.0
32	0xc21c0000	-39.0
33	0x41900000	18.0
34	0xc2240000	-41.0
35	0x41500000	13.0
36	0x420c0000	35.0
37	0x40400000	3.0
38	0x41f80000	31.0
39	0x41980000	19.0
40	0x422c0000	43.0
41	0x41e80000	29.0
42	0xc1b00000	-22.0
43	0xc2980000	-76.0
44	0xc2580000	-54.0
45	0x40400000	3.0
46	0x40000000	2.0
47	0xc1500000	-13.0
48	0x40800000	4.0
49	0xc1600000	-14.0
50	0xc1880000	-17.0
51	0x41600000	14.0
52	0x41200000	10.0
53	0xc1500000	-13.0
54	0x42500000	52.0
55	0xc1000000	-8.0
56	0x41b00000	22.0
57	0x41a00000	20.0
58	0x42600000	56.0
59	0xc2480000	-50.0
60	0xc20c0000	-35.0
61	0x42840000	66.0
62	0xc23c0000	-47.0
63	0xc2480000	-50.0
64	0x42380000	46.0
65	0x41e00000	28.0
66	0x420c0000	35.0
67	0xc1300000	-11.0
68	0x00000000	0.0
69	0x41b00000	22.0
70	0xc2940000	-74.0
71	0xc22c0000	-43.0

bias f4 [8]
0	0xbdbd96a0	-0.09257245
1	0x3e9424f1	0.28934434
2	0xbebbabec	-0.36654603
3	0x3c2ccebf	0.010547339
4	0x3e007a27	0.12546597
5	0x3ee9df24	0.45678055
6	0xbe456c76	-0.19279656
7	0x3ee917a3	0.45525846

q_bias f4 [8]
0	0xc3380000	-184.0
1	0x440f8000	574.0
2	0xc435c000	-727.0
3	0x41a80000	21.0
4	0x43790000	249.0
5	0x44628000	906.0
6	0xc3bf0000	-382.0
7	0x4461c000	903.0

q_weight f4 [8, 1, 3, 3]
0	0xc2ba0000	-93.0
1	0xc1d00000	-26.0
2	0x42400000	48.0
3	0xc1c80000	-25.0
4	0xc2920000	-73.0
5	0x42f40000	122.0
6	0x42c80000	100.0
7	0xc3040000	-132.0
8	0x42900000	72.0
9	0x42680000	58.0
10	0x41e80000	29.0
11	0x41000000	8.0
12	0x42600000	56.0
13	0x41a00000	20.0
14	0xc2380000	-46.0
15	0xc2820000	-65.0
16	0xc2900000	-72.0
17	0x41000000	8.0
18	0x41700000	15.0
19	0x41d80000	27.0
20	0x40e00000	7.0
21	0xc1880000	-17.0
22	0x41400000	12.0
23	0x41880000	17.0
24	0x41800000	16.0
25	0x41000000	8.0
26	0x41800000	16.0
27	0x41500000	13.0
28	0x42440000	49.0
29	0xc1f00000	-30.0
30	0x41100000	9.0
31	0x42000000	32.0
32	0xc2300000	-44.0
33	0x41500000	13.0
34	0xc2380000	-46.0
35	0x41000000	8.0
36	0x41f00000	30.0
37	0xc0000000	-2.0
38	0x41d00000	26.0
39	0x41600000	14.0
40	0x42180000	38.0
41	0x41c00000	24.0
42	0xc1d80000	-27.0
43	0xc2a20000	-81.0
44	0xc26c0000	-59.0
45	0xc0000000	-2.0
46	0xc0400000	-3.0
47	0xc1900000	-18.0
48	0xbf800000	-1.0
49	0xc1980000	-19.0
50	0xc1b00000	-22.0
51	0x41100000	9.0
52	0x40a00000	5.0
53	0xc1900000	-18.0
54	0x423c0000	47.0
55	0xc1500000	-13.0
56	0x41880000	17.0
57	0x41700000	15.0
58	0x424c0000	51.0
59	0xc25c0000	-55.0
60	0xc2200000	-40.0
61	0x42740000	61.0
62	0xc2500000	-52.0
63	0xc25c0000	-55.0
64	0x42240000	41.0
65	0x41b80000	23.0
66	0x41f00000	30.0
67	0xc1800000	-16.0
68	0xc0a00000	-5.0
69	0x41880000	17.0
70	0xc29e0000	-79.0
71	0xc2400000	-48.0

weights f4 [8, 8]
0	0x42200000	40.0
1	0x42140000	37.0
2	0xc1400000	-12.0
3	0x42340000	45.0
4	0x42340000	45.0
5	0x42700000	60.0
6	0xc2180000	-38.0
7	0x41880000	17.0
8	0xc2a60000	-83.0
9	0x42440000	49.0
10	0x42fe0000	127.0
11	0x42c00000	96.0
12	0x41200000	10.0
13	0x42e00000	112.0
14	0x41c00000	24.0
15	0xc2fe0000	-127.0
16	0xc2640000	-57.0
17	0x42de0000	111.0
18	0x42a60000	83.0
19	0x42920000	73.0
20	0x41000000	8.0
21	0x427c0000	63.0
22	0xc1700000	-15.0
23	0x42ca0000	101.0
24	0x42d40000	106.0
25	0x41e80000	29.0
26	0x42400000	48.0
27	0x42aa0000	85.0
28	0xbf800000	-1.0
29	0xc1b00000	-22.0
30	0xc2e40000	-114.0
31	0xc2380000	-46.0
32	0x40a00000	5.0
33	0xc2960000	-75.0
34	0x424c0000	51.0
35	0x42c20000	97.0
36	0xc2820000	-65.0
37	0x41f00000	30.0
38	0x41f80000	31.0
39	0xc2400000	-48.0
40	0xc2c20000	-97.0
41	0x42cc0000	102.0
42	0xc2180000	-38.0
43	0xc2080000	-34.0
44	0x42de0000	111.0
45	0xc1880000	-17.0
46	0xc28e0000	-71.0
47	0x41f80000	31.0
48	0xc2ae0000	-87.0
49	0xc0000000	-2.0
50	0xc2680000	-58.0
51	0xc2e60000	-115.0
52	0x42200000	40.0
53	0xc2a60000	-83.0
54	0x42640000	57.0
55	0xc2a00000	-80.0
56	0x42fe0000	127.0
57	0x421c0000	39.0
58	0xc2de0000	-111.0
59	0xc2d20000	-105.0
60	0x42dc0000	110.0
61	0xc2a60000	-83.0
62	0xc2b00000	-88.0
63	0xc2d20000	-105.0

weights f4 [8, 8]
0	0x42ac0000	86.0
1	0xc2400000	-48.0
2	0xc2040000	-33.0
3	0x41f00000	30.0
4	0xc2680000	-58.0
5	0xc20c0000	-35.0
6	0xc2ee0000	-119.0
7	0x42920000	73.0
8	0xc1800000	-16.0
9	0xc1b00000	-22.0
10	0xc2960000	-75.0
11	0xc1f80000	-31.0
12	0xc2fc0000	-126.0
13	0xc1900000	-18.0
14	0xc2980000	-76.0
15	0xc29c0000	-78.0
16	0xc2100000	-36.0
17	0x42200000	40.0
18	0x42fe0000	127.0
19	0x41b00000	22.0
20	0xc2e80000	-116.0
21	0x40800000	4.0
22	0x42e40000	114.0
23	0x42aa0000	85.0
24	0x42580000	54.0
25	0xc2e60000	-115.0
26	0xc2500000	-52.0
27	0x42380000	46.0
28	0xc2a60000	-83.0
29	0xc1100000	-9.0
30	0x42340000	45.0
31	0x42ae0000	87.0
32	0x42000000	32.0
33	0xc2fe0000	-127.0
34	0x41d00000	26.0
35	0xc2d60000	-107.0
36	0xc1a80000	-21.0
37	0x42b40000	90.0
38	0xc1700000	-15.0
39	0xc2f00000	-120.0
40	0xc2000000	-32.0
41	0xc0a00000	-5.0
42	0x42e00000	112.0
43	0x41c00000	24.0
44	0x42100000	36.0
45	0xc2cc0000	-102.0
46	0xc1f00000	-30.0
47	0x40a00000	5.0
48	0xc1c80000	-25.0
49	0xc25c0000	-55.0
50	0xc2040000	-33.0
51	0x42940000	74.0
52	0xc1980000	-19.0
53	0x41700000	15.0
54	0xc1c00000	-24.0
55	0xc2ac0000	-86.0
56	0x42600000	56.0
57	0xc2a80000	-84.0
58	0xc2c80000	-100.0
59	0xc25c0000	-55.0
60	0x42a40000	82.0
61	0xc2d60000	-107.0
62	0xc2ca0000	-101.0
63	0x42480000	50.0

weights f4 [16, 8, 1, 1]
0	0xc2920000	-73.0
1	0xc0e00000	-7.0
2	0x41f00000	30.0
3	0xc1100000	-9.0
4	0x422c0000	43.0
5	0x42740000	61.0
6	0x42fe0000	127.0
7	0x42680000	58.0
8	0x423c0000	47.0
9	0x40000000	2.0
10	0x42240000	41.0
11	0x41a80000	21.0
12	0x41b00000	22.0
13	0x42820000	65.0
14	0x42600000	56.0
15	0x42280000	42.0
16	0xc1600000	-14.0
17	0x426c0000	59.0
18	0x425c0000	55.0
19	0x429a0000	77.0
20	0x426c0000	59.0
21	0xc1600000	-14.0
22	0xc1600000	-14.0
23	0x42860000	67.0
24	0xc1200000	-10.0
25	0xc0400000	-3.0
26	0xc1980000	-19.0
27	0x41a80000	21.0
28	0x41880000	17.0
29	0x41e00000	28.0
30	0x40400000	3.0
31	0x422c0000	43.0
32	0x42280000	42.0
33	0x42180000	38.0
34	0x423c0000	47.0
35	0x42400000	48.0
36	0xc0e00000	-7.0
37	0x42240000	41.0
38	0x42240000	41.0
39	0xc0c00000	-6.0
40	0xc0800000	-4.0
41	0xc2960000	-75.0
42	0xc0a00000	-5.0
43	0x41500000	13.0
44	0xc2040000	-33.0
45	0x41c80000	25.0
46	0x42c40000	98.0
47	0xc2500000	-52.0
48	0x40a00000	5.0
49	0x423c0000	47.0
50	0xc1800000	-16.0
51	0xc2300000	-44.0
52	0x00000000	0.0
53	0x42ac0000	86.0
54	0x42640000	57.0
55	0x41f80000	31.0
56	0x42100000	36.0
57	0x420c0000	35.0
58	0x425c0000	55.0
59	0xc1700000	-15.0
60	0x41d00000	26.0
61	0x41980000	19.0
62	0x40000000	2.0
63	0x40e00000	7.0
64	0xc0e00000	-7.0
65	0x41e80000	29.0
66	0x3f800000	1.0
67	0x424c0000	51.0
68	0x42e60000	115.0
69	0x42440000	49.0
70	0x40000000	2.0
71	0x425c0000	55.0
72	0x42100000	36.0
73	0x422c0000	43.0
74	0x42240000	41.0
75	0xc1000000	-8.0
76	0xc1300000	-11.0
77	0x426c0000	59.0
78	0x40a00000	5.0
79	0x41b80000	23.0
80	0x41c00000	24.0
81	0xc0400000	-3.0
82	0x423c0000	47.0
83	0xc0a00000	-5.0
84	0x42700000	60.0
85	0x42100000	36.0
86	0xc1a00000	-20.0
87	0x42580000	54.0
88	0x42740000	61.0
89	0x42900000	72.0
90	0xc1300000	-11.0
91	0x42300000	44.0
92	0xc1f00000	-30.0
93	0x42400000	48.0
94	0x426c0000	59.0
95	0xc1e80000	-29.0
96	0xc1f80000	-31.0
97	0xc2fe0000	-127.0
98	0x42280000	42.0
99	0xc1b80000	-23.0
100	0x41200000	10.0
101	0x41880000	17.0
102	0x42a80000	84.0
103	0xc1a80000	-21.0
104	0x41000000	8.0
105	0x41d00000	26.0
106	0x42680000	58.0
107	0xc1a00000	-20.0
108	0x42240000	41.0
109	0x40000000	2.0
110	0x41b00000	22.0
111	0x42080000	34.0
112	0x42380000	46.0
113	0x3f800000	1.0
114	0xc1000000	-8.0
115	0x42340000	45.0
116	0x41e80000	29.0
117	0xc0000000	-2.0
118	0xc0400000	-3.0
119	0x422c0000	43.0
120	0xc1c00000	-24.0
121	0x42580000	54.0
122	0x42600000	56.0
123	0x40000000	2.0
124	0xc1000000	-8.0
125	0xc1a00000	-20.0
126	0xc1c80000	-25.0
127	0x42080000	34.0

bias f4 [16]
0	0xbebc6344	-0.36794484
1	0xbefe12d3	-0.49623737
2	0xbe3a17f3	-0.18173198
3	0x3edf9377	0.43667194
4	0xbec68f56	-0.38781232
5	0x3e9c29a9	0.30500534
6	0x3d108cc0	0.03529048
7	0xbec51404	-0.38491833
8	0xbd0d91ea	-0.034562983
9	0xbebf20b1	-0.3732963
10	0xbed2a716	-0.411431
11	0x3e3d47da	0.1848444
12	0xbe392451	-0.1808026
13	0xbe9a4f9a	-0.30138856
14	0x3ee75a71	0.4518619
15	0xbb28dd60	-0.0025766715

q_bias f4 [16]
0	0xc409c000	-551.0
1	0xc439c000	-743.0
2	0xc3880000	-272.0
3	0x44238000	654.0
4	0xc4114000	-581.0
5	0x43e48000	457.0
6	0x42540000	53.0
7	0xc4100000	-576.0
8	0xc2500000	-52.0
9	0xc40bc000	-559.0
10	0xc41a0000	-616.0
11	0x438a8000	277.0
12	0xc3878000	-271.0
13	0xc3e18000	-451.0
14	0x44290000	676.0
15	0xc0800000	-4.0

q_weight f4 [16, 8, 1, 1]
0	0xc2ba0000	-93.0
1	0xc1d80000	-27.0
2	0x41200000	10.0
3	0xc1e80000	-29.0
4	0x41b80000	23.0
5	0x42240000	41.0
6	0x42d60000	107.0
7	0x42180000	38.0
8	0x41d80000	27.0
9	0xc1900000	-18.0
10	0x41a80000	21.0
11	0x3f800000	1.0
12	0x40000000	2.0
13	0x42340000	45.0
14	0x42100000	36.0
15	0x41b00000	22.0
16	0xc2080000	-34.0
17	0x421c0000	39.0
18	0x420c0000	35.0
19	0x42640000	57.0
20	0x421c0000	39.0
21	0xc2080000	-34.0
22	0xc2080000	-34.0
23	0x423c0000	47.0
24	0xc1f00000	-30.0
25	0xc1b80000	-23.0
26	0xc21c0000	-39.0
27	0x3f800000	1.0
28	0xc0400000	-3.0
29	0x41000000	8.0
30	0xc1880000	-17.0
31	0x41b80000	23.0
32	0x41b00000	22.0
33	0x41900000	18.0
34	0x41d80000	27.0
35	0x41e00000	28.0
36	0xc1d80000	-27.0
37	0x41a80000	21.0
38	0x41a80000	21.0
39	0xc1d00000	-26.0
40	0xc1c00000	-24.0
41	0xc2be0000	-95.0
42	0xc1c80000	-25.0
43	0xc0e00000	-7.0
44	0xc2540000	-53.0
45	0x40a00000	5.0
46	0x429c0000	78.0
47	0xc2900000	-72.0
48	0xc1700000	-15.0
49	0x41d80000	27.0
50	0xc2100000	-36.0
51	0xc2800000	-64.0
52	0xc1a00000	-20.0
53	0x42840000	66.0
54	0x42140000	37.0
55	0x41300000	11.0
56	0x41800000	16.0
57	0x41700000	15.0
58	0x420c0000	35.0
59	0xc20c0000	-35.0
60	0x40c00000	6.0
61	0xbf800000	-1.0
62	0xc1900000	-18.0
63	0xc1500000	-13.0
64	0xc1d80000	-27.0
65	0x41100000	9.0
66	0xc1980000	-19.0
67	0x41f80000	31.0
68	0x42be0000	95.0
69	0x41e80000	29.0
70	0xc1900000	-18.0
71	0x420c0000	35.0
72	0x41800000	16.0
73	0x41b80000	23.0
74	0x41a80000	21.0
75	0xc1e00000	-28.0
76	0xc1f80000	-31.0
77	0x421c0000	39.0
78	0xc1700000	-15.0
79	0x40400000	3.0
80	0x40800000	4.0
81	0xc1b80000	-23.0
82	0x41d80000	27.0
83	0xc1c80000	-25.0
84	0x42200000	40.0
85	0x41800000	16.0
86	0xc2200000	-40.0
87	0x42080000	34.0
88	0x42240000	41.0
89	0x42500000	52.0
90	0xc1f80000	-31.0
91	0x41c00000	24.0
92	0xc2480000	-50.0
93	0x41e00000	28.0
94	0x421c0000	39.0
95	0xc2440000	-49.0
96	0xc24c0000	-51.0
97	0xc3130000	-147.0
98	0x41b00000	22.0
99	0xc22c0000	-43.0
100	0xc1200000	-10.0
101	0xc0400000	-3.0
102	0x42800000	64.0
103	0xc2240000	-41.0
104	0xc1400000	-12.0
105	0x40c00000	6.0
106	0x42180000	38.0
107	0xc2200000	-40.0
108	0x41a80000	21.0
109	0xc1900000	-18.0
110	0x40000000	2.0
111	0x41600000	14.0
112	0x41d00000	26.0
113	0xc1980000	-19.0
114	0xc1e00000	-28.0
115	0x41c80000	25.0
116	0x41100000	9.0
117	0xc1b00000	-22.0
118	0xc1b80000	-23.0
119	0x41b80000	23.0
120	0xc2300000	-44.0
121	0x42080000	34.0
122	0x42100000	36.0
123	0xc1900000	-18.0
124	0xc1e00000	-28.0
125	0xc2200000	-40.0
126	0xc2340000	-45.0
127	0x41600000	14.0

weights f4 [48, 16, 1, 1]
0	0xc2140000	-37.0
1	0xc2080000	-34.0
2	0xbf800000	-1.0
3	0x42340000	45.0
4	0xc0c00000	-6.0
5	0x41200000	10.0
6	0xc0a00000	-5.0
7	0xc1b80000	-23.0
8	0x41a80000	21.0
9	0x41200000	10.0
10	0xbf800000	-1.0
11	0xc1900000	-18.0
12	0x41a80000	21.0
13	0xc2180000	-38.0
14	0x00000000	0.0
15	0xc1600000	-14.0
16	0x41100000	9.0
17	0x41b80000	23.0
18	0xc1c80000	-25.0
19	0xc1a80000	-21.0
20	0x42080000	34.0
21	0x41600000	14.0
22	0x41b80000	23.0
23	0x40400000	3.0
24	0xc20c0000	-35.0
25	0x41700000	15.0
26	0x3f800000	1.0
27	0x41980000	19.0
28	0x40000000	2.0
29	0xc0a00000	-5.0
30	0xc1100000	-9.0
31	0x41b80000	23.0
32	0xc2300000	-44.0
33	0x41a00000	20.0
34	0xc2240000	-41.0
35	0x40c00000	6.0
36	0xc0800000	-4.0
37	0x41f00000	30.0
38	0xc1980000	-19.0
39	0xc1f80000	-31.0
40	0x420c0000	35.0
41	0xc23c0000	-47.0
42	0x41900000	18.0
43	0xc2640000	-57.0
44	0xc2540000	-53.0
45	0x40c00000	6.0
46	0x40e00000	7.0
47	0x40400000	3.0
48	0x40e00000	7.0
49	0xc1a80000	-21.0
50	0x41400000	12.0
51	0xc1c00000	-24.0
52	0xc1c00000	-24.0
53	0xc1e00000	-28.0
54	0xc1700000	-15.0
55	0xc1800000	-16.0
56	0xc1980000	-19.0
57	0x40a00000	5.0
58	0xc1100000	-9.0
59	0xc2100000	-36.0
60	0x40a00000	5.0
61	0x41200000	10.0
62	0xc2080000	-34.0
63	0x40e00000	7.0
64	0x3f800000	1.0
65	0xc2000000	-32.0
66	0x423c0000	47.0
67	0xc1000000	-8.0
68	0x41b80000	23.0
69	0xc1980000	-19.0
70	0x42600000	56.0
71	0xc1e00000	-28.0
72	0x41a80000	21.0
73	0x42340000	45.0
74	0x42400000	48.0
75	0x421c0000	39.0
76	0xc1500000	-13.0
77	0xc1000000	-8.0
78	0x42240000	41.0
79	0xc1c80000	-25.0
80	0x41a80000	21.0
81	0x41800000	16.0
82	0xc2040000	-33.0
83	0xc1800000	-16.0
84	0x41e00000	28.0
85	0x40a00000	5.0
86	0xc1980000	-19.0
87	0x41400000	12.0
88	0xc1c80000	-25.0
89	0xc0400000	-3.0
90	0x40800000	4.0
91	0xc0e00000	-7.0
92	0xc1000000	-8.0
93	0xc0400000	-3.0
94	0xc1300000	-11.0
95	0x41500000	13.0
96	0x41a80000	21.0
97	0x41880000	17.0
98	0xc1700000	-15.0
99	0xc1a00000	-20.0
100	0x41980000	19.0
101	0x41700000	15.0
102	0xc1880000	-17.0
103	0x41c00000	24.0
104	0xc1500000	-13.0
105	0xc0e00000	-7.0
106	0xc1b80000	-23.0
107	0xc0000000	-2.0
108	0x40e00000	7.0
109	0x41400000	12.0
110	0xc1f80000	-31.0
111	0x41200000	10.0
112	0xc1800000	-16.0
113	0x41200000	10.0
114	0xc0800000	-4.0
115	0xc0400000	-3.0
116	0xc1500000	-13.0
117	0xc1e00000	-28.0
118	0xc1900000	-18.0
119	0x41200000	10.0
120	0xc0c00000	-6.0
121	0x40e00000	7.0
122	0x40000000	2.0
123	0xc0c00000	-6.0
124	0xbf800000	-1.0
125	0x41f80000	31.0
126	0xc2180000	-38.0
127	0x41400000	12.0
128	0xc1600000	-14.0
129	0x42500000	52.0
130	0xc1800000	-16.0
131	0x41900000	18.0
132	0xc1000000	-8.0
133	0x42000000	32.0
134	0x42040000	33.0
135	0x41000000	8.0
136	0xc1300000	-11.0
137	0xc2860000	-67.0
138	0xc2860000	-67.0
139	0xc2500000	-52.0
140	0xc1f80000	-31.0
141	0x41a00000	20.0
142	0x42300000	44.0
143	0x41100000	9.0
144	0x41980000	19.0
145	0x41400000	12.0
146	0x41300000	11.0
147	0xc1600000	-14.0
148	0x41b80000	23.0
149	0x40400000	3.0
150	0x40400000	3.0
151	0x40000000	2.0
152	0xc1980000	-19.0
153	0xc1600000	-14.0
154	0x41880000	17.0
155	0xc1300000	-11.0
156	0x41b00000	22.0
157	0x41400000	12.0
158	0xc1c00000	-24.0
159	0xc1e00000	-28.0
160	0x42040000	33.0
161	0xc2140000	-37.0
162	0xc2140000	-37.0
163	0xc1880000	-17.0
164	0xc2040000	-33.0
165	0x41800000	16.0
166	0x422c0000	43.0
167	0xc2000000	-32.0
168	0x41e00000	28.0
169	0xc1880000	-17.0
170	0x42080000	34.0
171	0xc2040000	-33.0
172	0xc2400000	-48.0
173	0x41700000	15.0
174	0x41400000	12.0
175	0x41100000	9.0
176	0xc1e00000	-28.0
177	0x41b00000	22.0
178	0x42240000	41.0
179	0xc2380000	-46.0
180	0xc1980000	-19.0
181	0x41300000	11.0
182	0x41d00000	26.0
183	0xc1980000	-19.0
184	0x41100000	9.0
185	0x42640000	57.0
186	0x41c80000	25.0
187	0xc1f80000	-31.0
188	0x40800000	4.0
189	0xc2040000	-33.0
190	0x41000000	8.0
191	0x41c80000	25.0
192	0xc0000000	-2.0
193	0x41e80000	29.0
194	0x42580000	54.0
195	0xc23c0000	-47.0
196	0xc2780000	-62.0
197	0xc1e00000	-28.0
198	0xc2aa0000	-85.0
199	0x41500000	13.0
200	0xc1d00000	-26.0
201	0xc1b00000	-22.0
202	0xc1900000	-18.0
203	0xc1d00000	-26.0
204	0xc27c0000	-63.0
205	0xc0a00000	-5.0
206	0x41e00000	28.0
207	0xc22c0000	-43.0
208	0x41200000	10.0
209	0xc2380000	-46.0
210	0xc1e00000	-28.0
211	0x41f00000	30.0
212	0x41d80000	27.0
213	0x42080000	34.0
214	0xc1000000	-8.0
215	0xc1f00000	-30.0
216	0xc1a00000	-20.0
217	0xc1f80000	-31.0
218	0xc2180000	-38.0
219	0x41900000	18.0
220	0x41500000	13.0
221	0x40400000	3.0
222	0xc1f00000	-30.0
223	0x41d80000	27.0
224	0x42100000	36.0
225	0xc2580000	-54.0
226	0x42000000	32.0
227	0xc2580000	-54.0
228	0x41880000	17.0
229	0x41f80000	31.0
230	0x425c0000	55.0
231	0xc0c00000	-6.0
232	0x42080000	34.0
233	0xc1a80000	-21.0
234	0xc1e00000	-28.0
235	0x41d00000	26.0
236	0xc29e0000	-79.0
237	0xc2600000	-56.0
238	0xc2100000	-36.0
239	0x42740000	61.0
240	0xc2240000	-41.0
241	0x41e80000	29.0
242	0x3f800000	1.0
243	0x41f00000	30.0
244	0xc24c0000	-51.0
245	0x41a00000	20.0
246	0xc1c80000	-25.0
247	0x40800000	4.0
248	0x423c0000	47.0
249	0xc23c0000	-47.0
250	0xc24c0000	-51.0
251	0xc2600000	-56.0
252	0x00000000	0.0
253	0x41800000	16.0
254	0xc2080000	-34.0
255	0xc1f80000	-31.0

bias f4 [48]
0	0x3cf05991	0.029339584
1	0xbeadbcf6	-0.33933228
2	0x3e541273	0.20710163
3	0x3ed97650	0.42473078
4	0xbf241b01	-0.64103705
5	0x3dee6ecf	0.11642229
6	0x3c94d6ec	0.018168889
7	0xbd399900	-0.045311928
8	0xbdfefd17	-0.12450617
9	0xbe2218f4	-0.15829831
10	0x3d080d27	0.033215668
11	0xbead5f28	-0.3386166
12	0x3f00f8e5	0.5037978
13	0x3d914f65	0.070952214
14	0x3d7285b2	0.059209533
15	0x3ea0f2f7	0.31435367
16	0x3eed3efe	0.46337122
17	0xbe54e1e8	-0.20789301
18	0xbe982b44	-0.2972051
19	0xba390600	-0.0007058084
20	0x3e0236c0	0.12716198
21	0x3c6d6c0c	0.014491092
22	0x3e80db33	0.25167236
23	0x3f35e4d2	0.7105228
24	0xbdcb8cfa	-0.099389985
25	0x3d9f8ece	0.0779091
26	0x3ecdb517	0.40177223
27	0x3e8c2cd1	0.27377942
28	0xbe221a83	-0.15830426
29	0xbf1fa39d	-0.6235903
30	0x3e1d4a4c	0.15360373
31	0x3e11db88	0.14243901
32	0xbd9bd1cd	-0.07608376
33	0x3e19f891	0.15036227
34	0x3e3b90f4	0.18317014
35	0x3f0ed626	0.55795515
36	0xbebcb21a	-0.3685463
37	0xbea25f0f	-0.3171315
38	0x3ddfdb1e	0.10930465
39	0x3ca3f060	0.02001208
40	0x3d3b7b4c	0.045771882
41	0xbe903f25	-0.28173175
42	0x3e871a5a	0.26387292
43	0xbf2d81b6	-0.6777605
44	0xbe590d2c	-0.21196431
45	0xbf113721	-0.56724745
46	0x3e7daf64	0.24773937
47	0x3e473c13	0.1945651

q_bias f4 [48]
0	0x42080000	34.0
1	0xc3c78000	-399.0
2	0x43730000	243.0
3	0x43f98000	499.0
4	0xc43c8000	-754.0
5	0x43090000	137.0
6	0x41a80000	21.0
7	0xc2540000	-53.0
8	0xc3120000	-146.0
9	0xc33a0000	-186.0
10	0x421c0000	39.0
11	0xc3c70000	-398.0
12	0x44140000	592.0
13	0x42a60000	83.0
14	0x428c0000	70.0
15	0x43b90000	370.0
16	0x44084000	545.0
17	0xc3740000	-244.0
18	0xc3ae8000	-349.0
19	0xbf800000	-1.0
20	0x43150000	149.0
21	0x41880000	17.0
22	0x43940000	296.0
23	0x4450c000	835.0
24	0xc2ea0000	-117.0
25	0x42b80000	92.0
26	0x43ec0000	472.0
27	0x43a10000	322.0
28	0xc33a0000	-186.0
29	0xc4374000	-733.0
30	0x43350000	181.0
31	0x43270000	167.0
32	0xc2b20000	-89.0
33	0x43310000	177.0
34	0x43570000	215.0
35	0x44240000	656.0
36	0xc3d88000	-433.0
37	0xc3ba8000	-373.0
38	0x43010000	129.0
39	0x41c00000	24.0
40	0x42580000	54.0
41	0xc3a58000	-331.0
42	0x439b0000	310.0
43	0xc4474000	-797.0
44	0xc3790000	-249.0
45	0xc426c000	-667.0
46	0x43918000	291.0
47	0x43650000	229.0

q_weight f4 [48, 16, 1, 1]
0	0xc2040000	-33.0
1	0xc1f00000	-30.0
2	0x40400000	3.0
3	0x42440000	49.0
4	0xc0000000	-2.0
5	0x41600000	14.0
6	0xbf800000	-1.0
7	0xc1980000	-19.0
8	0x41c80000	25.0
9	0x41600000	14.0
10	0x40400000	3.0
11	0xc1600000	-14.0
12	0x41c80000	25.0
13	0xc2080000	-34.0
14	0x40800000	4.0
15	0xc1200000	-10.0
16	0x41500000	13.0
17	0x41d80000	27.0
18	0xc1a80000	-21.0
19	0xc1880000	-17.0
20	0x42180000	38.0
21	0x41900000	18.0
22	0x41d80000	27.0
23	0x40e00000	7.0
24	0xc1f80000	-31.0
25	0x41980000	19.0
26	0x40a00000	5.0
27	0x41b80000	23.0
28	0x40c00000	6.0
29	0xbf800000	-1.0
30	0xc0a00000	-5.0
31	0x41d80000	27.0
32	0xc2200000	-40.0
33	0x41c00000	24.0
34	0xc2140000	-37.0
35	0x41200000	10.0
36	0x00000000	0.0
37	0x42080000	34.0
38	0xc1700000	-15.0
39	0xc1d80000	-27.0
40	0x421c0000	39.0
41	0xc22c0000	-43.0
42	0x41b00000	22.0
43	0xc2540000	-53.0
44	0xc2440000	-49.0
45	0x41200000	10.0
46	0x41300000	11.0
47	0x40e00000	7.0
48	0x41300000	11.0
49	0xc1880000	-17.0
50	0x41800000	16.0
51	0xc1a00000	-20.0
52	0xc1a00000	-20.0
53	0xc1c00000	-24.0
54	0xc1300000	-11.0
55	0xc1400000	-12.0
56	0xc1700000	-15.0
57	0x41100000	9.0
58	0xc0a00000	-5.0
59	0xc2000000	-32.0
60	0x41100000	9.0
61	0x41600000	14.0
62	0xc1f00000	-30.0
63	0x41300000	11.0
64	0x40a00000	5.0
65	0xc1e00000	-28.0
66	0x424c0000	51.0
67	0xc0800000	-4.0
68	0x41d80000	27.0
69	0xc1700000	-15.0
70	0x42700000	60.0
71	0xc1c00000	-24.0
72	0x41c80000	25.0
73	0x42440000	49.0
74	0x42500000	52.0
75	0x422c0000	43.0
76	0xc1100000	-9.0
77	0xc0800000	-4.0
78	0x42340000	45.0
79	0xc1a80000	-21.0
80	0x41c80000	25.0
81	0x41a00000	20.0
82	0xc1e80000	-29.0
83	0xc1400000	-12.0
84	0x42000000	32.0
85	0x41100000	9.0
86	0xc1700000	-15.0
87	0x41800000	16.0
88	0xc1a80000	-21.0
89	0x3f800000	1.0
90	0x41000000	8.0
91	0xc0400000	-3.0
92	0xc0800000	-4.0
93	0x3f800000	1.0
94	0xc0e00000	-7.0
95	0x41880000	17.0
96	0x41c80000	25.0
97	0x41a80000	21.0
98	0xc1300000	-11.0
99	0xc1800000	-16.0
100	0x41b80000	23.0
101	0x41980000	19.0
102	0xc1500000	-13.0
103	0x41e00000	28.0
104	0xc1100000	-9.0
105	0xc0400000	-3.0
106	0xc1980000	-19.0
107	0x40000000	2.0
108	0x41300000	11.0
109	0x41800000	16.0
110	0xc1d80000	-27.0
111	0x41600000	14.0
112	0xc1400000	-12.0
113	0x41600000	14.0
114	0x00000000	0.0
115	0x3f800000	1.0
116	0xc1100000	-9.0
117	0xc1c00000	-24.0
118	0xc1600000	-14.0
119	0x41600000	14.0
120	0xc0000000	-2.0
121	0x41300000	11.0
122	0x40c00000	6.0
123	0xc0000000	-2.0
124	0x40400000	3.0
125	0x420c0000	35.0
126	0xc2080000	-34.0
127	0x41800000	16.0
128	0xc1200000	-10.0
129	0x42600000	56.0
130	0xc1400000	-12.0
131	0x41b00000	22.0
132	0xc0800000	-4.0
133	0x42100000	36.0
134	0x42140000	37.0
135	0x41400000	12.0
136	0xc0e00000	-7.0
137	0xc27c0000	-63.0
138	0xc27c0000	-63.0
139	0xc2400000	-48.0
140	0xc1d80000	-27.0
141	0x41c00000	24.0
142	0x42400000	48.0
143	0x41500000	13.0
144	0x41b80000	23.0
145	0x41800000	16.0
146	0x41700000	15.0
147	0xc1200000	-10.0
148	0x41d80000	27.0
149	0x40e00000	7.0
150	0x40e00000	7.0
151	0x40c00000	6.0
152	0xc1700000	-15.0
153	0xc1200000	-10.0
154	0x41a80000	21.0
155	0xc0e00000	-7.0
156	0x41d00000	26.0
157	0x41800000	16.0
158	0xc1a00000	-20.0
159	0xc1c00000	-24.0
160	0x42140000	37.0
161	0xc2040000	-33.0
162	0xc2040000	-33.0
163	0xc1500000	-13.0
164	0xc1e80000	-29.0
165	0x41a00000	20.0
166	0x423c0000	47.0
167	0xc1e00000	-28.0
168	0x42000000	32.0
169	0xc1500000	-13.0
170	0x42180000	38.0
171	0xc1e80000	-29.0
172	0xc2300000	-44.0
173	0x41980000	19.0
174	0x41800000	16.0
175	0x41500000	13.0
176	0xc1c00000	-24.0
177	0x41d00000	26.0
178	0x42340000	45.0
179	0xc2280000	-42.0
180	0xc1700000	-15.0
181	0x41700000	15.0
182	0x41f00000	30.0
183	0xc1700000	-15.0
184	0x41500000	13.0
185	0x42740000	61.0
186	0x41e80000	29.0
187	0xc1d80000	-27.0
188	0x41000000	8.0
189	0xc1e80000	-29.0
190	0x41400000	12.0
191	0x41e80000	29.0
192	0x40000000	2.0
193	0x42040000	33.0
194	0x42680000	58.0
195	0xc22c0000	-43.0
196	0xc2680000	-58.0
197	0xc1c00000	-24.0
198	0xc2a20000	-81.0
199	0x41880000	17.0
200	0xc1b00000	-22.0
201	0xc1900000	-18.0
202	0xc1600000	-14.0
203	0xc1b00000	-22.0
204	0xc26c0000	-59.0
205	0xbf800000	-1.0
206	0x42000000	32.0
207	0xc21c0000	-39.0
208	0x41600000	14.0
209	0xc2280000	-42.0
210	0xc1c00000	-24.0
211	0x42080000	34.0
212	0x41f80000	31.0
213	0x42180000	38.0
214	0xc0800000	-4.0
215	0xc1d00000	-26.0
216	0xc1800000	-16.0
217	0xc1d80000	-27.0
218	0xc2080000	-34.0
219	0x41b00000	22.0
220	0x41880000	17.0
221	0x40e00000	7.0
222	0xc1d00000	-26.0
223	0x41f80000	31.0
224	0x42200000	40.0
225	0xc2480000	-50.0
226	0x42100000	36.0
227	0xc2480000	-50.0
228	0x41a80000	21.0
229	0x420c0000	35.0
230	0x426c0000	59.0
231	0xc0000000	-2.0
232	0x42180000	38.0
233	0xc1880000	-17.0
234	0xc1c00000	-24.0
235	0x41f00000	30.0
236	0xc2960000	-75.0
237	0xc2500000	-52.0
238	0xc2000000	-32.0
239	0x42820000	65.0
240	0xc2140000	-37.0
241	0x42040000	33.0
242	0x40a00000	5.0
243	0x42080000	34.0
244	0xc23c0000	-47.0
245	0x41c00000	24.0
246	0xc1a80000	-21.0
247	0x41000000	8.0
248	0x424c0000	51.0
249	0xc22c0000	-43.0
250	0xc23c0000	-47.0
251	0xc2500000	-52.0
252	0x40800000	4.0
253	0x41a00000	20.0
254	0xc1f00000	-30.0
255	0xc1d80000	-27.0

weights f4 [48, 1, 3, 3]
0	0x42820000	65.0
1	0x41c80000	25.0
2	0xc2040000	-33.0
3	0xc2440000	-49.0
4	0xc2a60000	-83.0
5	0xc1400000	-12.0
6	0x42c80000	100.0
7	0xc1980000	-19.0
8	0x41c00000	24.0
9	0xc2040000	-33.0
10	0xc1d00000	-26.0
11	0xc1100000	-9.0
12	0x40000000	2.0
13	0xc1e00000	-28.0
14	0xc1b80000	-23.0
15	0x40a00000	5.0
16	0xc1400000	-12.0
17	0x42820000	65.0
18	0x426c0000	59.0
19	0xc1a80000	-21.0
20	0x40e00000	7.0
21	0xc2140000	-37.0
22	0xc2140000	-37.0
23	0x424c0000	51.0
24	0x425c0000	55.0
25	0xc21c0000	-39.0
26	0x42700000	60.0
27	0x42940000	74.0
28	0xc2ee0000	-119.0
29	0xc2aa0000	-85.0
30	0x42a00000	80.0
31	0x42fe0000	127.0
32	0x428e0000	71.0
33	0xc1c00000	-24.0
34	0xc2380000	-46.0
35	0x41f00000	30.0
36	0x41e80000	29.0
37	0x41e00000	28.0
38	0x41e00000	28.0
39	0x41f00000	30.0
40	0xbf800000	-1.0
41	0xc0400000	-3.0
42	0x41100000	9.0
43	0x41300000	11.0
44	0x41200000	10.0
45	0xc2140000	-37.0
46	0xc1d00000	-26.0
47	0xc2580000	-54.0
48	0x41300000	11.0
49	0x42240000	41.0
50	0xc1700000	-15.0
51	0x41b00000	22.0
52	0x41a80000	21.0
53	0x42200000	40.0
54	0x42600000	56.0
55	0xc2300000	-44.0
56	0x40c00000	6.0
57	0x42600000	56.0
58	0xc2480000	-50.0
59	0xc2540000	-53.0
60	0x420c0000	35.0
61	0xc1200000	-10.0
62	0x424c0000	51.0
63	0xc1f80000	-31.0
64	0x40c00000	6.0
65	0x41a00000	20.0
66	0xc1100000	-9.0
67	0x41000000	8.0
68	0xbf800000	-1.0
69	0x41700000	15.0
70	0x42240000	41.0
71	0x41f00000	30.0
72	0xc2080000	-34.0
73	0xc21c0000	-39.0
74	0x41700000	15.0
75	0xc24c0000	-51.0
76	0x41800000	16.0
77	0x41400000	12.0
78	0xc1a80000	-21.0
79	0x40800000	4.0
80	0x41d00000	26.0
81	0xc1100000	-9.0
82	0x42140000	37.0
83	0x40000000	2.0
84	0x41e00000	28.0
85	0x42200000	40.0
86	0x41700000	15.0
87	0x41200000	10.0
88	0x40000000	2.0
89	0xc1400000	-12.0
90	0x41980000	19.0
91	0x41400000	12.0
92	0x42140000	37.0
93	0xc1880000	-17.0
94	0x40c00000	6.0
95	0xc1b80000	-23.0
96	0x41d00000	26.0
97	0x40a00000	5.0
98	0x42340000	45.0
99	0xc1c00000	-24.0
100	0xc2500000	-52.0
101	0x42400000	48.0
102	0xc1b00000	-22.0
103	0x41980000	19.0
104	0x41800000	16.0
105	0xc2380000	-46.0
106	0x42580000	54.0
107	0x42280000	42.0
108	0x41300000	11.0
109	0x41900000	18.0
110	0x42b20000	89.0
111	0xc2800000	-64.0
112	0x42800000	64.0
113	0x3f800000	1.0
114	0x42140000	37.0
115	0x42d80000	108.0
116	0xc2fe0000	-127.0
117	0x42080000	34.0
118	0x42400000	48.0
119	0x41000000	8.0
120	0xc0e00000	-7.0
121	0x00000000	0.0
122	0x41400000	12.0
123	0x40a00000	5.0
124	0x42300000	44.0
125	0x41700000	15.0
126	0x41880000	17.0
127	0x41c80000	25.0
128	0x41a00000	20.0
129	0xc1600000	-14.0
130	0x40a00000	5.0
131	0x40c00000	6.0
132	0x42000000	32.0
133	0x42280000	42.0
134	0xbf800000	-1.0
135	0x41980000	19.0
136	0x42040000	33.0
137	0xc0a00000	-5.0
138	0x421c0000	39.0
139	0x41c00000	24.0
140	0x41880000	17.0
141	0x40000000	2.0
142	0x41000000	8.0
143	0x41a00000	20.0
144	0xc20c0000	-35.0
145	0x41b80000	23.0
146	0x426c0000	59.0
147	0xc2a00000	-80.0
148	0x41900000	18.0
149	0x41c80000	25.0
150	0xc0000000	-2.0
151	0x42e20000	113.0
152	0x00000000	0.0
153	0xc2c40000	-98.0
154	0xc1f00000	-30.0
155	0x427c0000	63.0
156	0xc2000000	-32.0
157	0xc0000000	-2.0
158	0xc1a00000	-20.0
159	0x41f00000	30.0
160	0xc2140000	-37.0
161	0xc1b80000	-23.0
162	0xc2580000	-54.0
163	0x41600000	14.0
164	0x42380000	46.0
165	0x41e80000	29.0
166	0xc0a00000	-5.0
167	0x420c0000	35.0
168	0xc23c0000	-47.0
169	0x41900000	18.0
170	0xc2340000	-45.0
171	0xc2040000	-33.0
172	0x421c0000	39.0
173	0x42480000	50.0
174	0x425c0000	55.0
175	0x40400000	3.0
176	0xc1600000	-14.0
177	0x41a00000	20.0
178	0x421c0000	39.0
179	0xc1b00000	-22.0
180	0x42240000	41.0
181	0x40400000	3.0
182	0x40800000	4.0
183	0xc1200000	-10.0
184	0x42700000	60.0
185	0xc1f00000	-30.0
186	0x422c0000	43.0
187	0xc2240000	-41.0
188	0xc1f00000	-30.0
189	0xc2500000	-52.0
190	0xc0800000	-4.0
191	0x429c0000	78.0
192	0xc2500000	-52.0
193	0x41e00000	28.0
194	0x42200000	40.0
195	0xc1980000	-19.0
196	0x41b00000	22.0
197	0xc0400000	-3.0
198	0xc1880000	-17.0
199	0xc1c00000	-24.0
200	0xc0e00000	-7.0
201	0xc1900000	-18.0
202	0xc1400000	-12.0
203	0xc1900000	-18.0
204	0x423c0000	47.0
205	0x00000000	0.0
206	0xc1c80000	-25.0
207	0x424c0000	51.0
208	0x41e00000	28.0
209	0x42b60000	91.0
210	0xc0e00000	-7.0
211	0xc2b20000	-89.0
212	0x42580000	54.0
213	0xc2200000	-40.0
214	0xc2840000	-66.0
215	0x42cc0000	102.0
216	0xc2a20000	-81.0
217	0x429c0000	78.0
218	0xc2600000	-56.0
219	0x41200000	10.0
220	0x421c0000	39.0
221	0xc2040000	-33.0
222	0x41980000	19.0
223	0xc2340000	-45.0
224	0xc1200000	-10.0
225	0x41400000	12.0
226	0x41e00000	28.0
227	0x41a80000	21.0
228	0xc1200000	-10.0
229	0x41d00000	26.0
230	0x41f00000	30.0
231	0x41a80000	21.0
232	0x41f00000	30.0
233	0xc1a00000	-20.0
234	0xc2340000	-45.0
235	0x42700000	60.0
236	0xc1000000	-8.0
237	0x41c00000	24.0
238	0xc27c0000	-63.0
239	0x41300000	11.0
240	0x42880000	68.0
241	0x42440000	49.0
242	0x41b80000	23.0
243	0x41d80000	27.0
244	0x42140000	37.0
245	0xc1300000	-11.0
246	0x41e00000	28.0
247	0x40c00000	6.0
248	0x42040000	33.0
249	0xc1f80000	-31.0
250	0x41a80000	21.0
251	0xc1100000	-9.0
252	0x42380000	46.0
253	0x42080000	34.0
254	0x42140000	37.0
255	0x41000000	8.0

bias f4 [48]
0	0x3e000bad	0.12504454
1	0x3df45bdd	0.11931584
2	0xbe483fff	-0.19555663
3	0x3dccbb26	0.09996633
4	0xbe5e6ede	-0.2172198
5	0x3d0493a5	0.032367367
6	0xbc91e2ec	-0.0178084
7	0xbebc522f	-0.3678145
8	0x3eff0359	0.49807242
9	0xbe76c8b0	-0.24099994
10	0xbea0370f	-0.31292006
11	0xbe9fff66	-0.3124954
12	0xbe8389b1	-0.25690988
13	0xbea7d348	-0.32778382
14	0xbe71423c	-0.23560423
15	0xbec67ab4	-0.3876549
16	0xbe5babdd	-0.2145228
17	0x3f1bb07e	0.6081618
18	0x3ec8e0c0	0.3923397
19	0xbec09f0c	-0.37621343
20	0x3e256ea9	0.16155495
21	0xbdb9b909	-0.09068496
22	0x3f5e2f9a	0.86791384
23	0xbedfdb37	-0.43721935
24	0x3ef12529	0.47098663
25	0xbf056db7	-0.52120537
26	0xbe5f3063	-0.21795802
27	0xbd1aa752	-0.037757225
28	0xbe01c205	-0.12671669
29	0x3e34a8d1	0.17642523
30	0x3da17d7d	0.07885263
31	0x3e90ecdb	0.28305706
32	0xbdd423db	-0.103584014
33	0xbe15ae34	-0.14617234
34	0xbd0c1cb8	-0.034207076
35	0x3f6151de	0.88015544
36	0x3eb3cbe8	0.35116506
37	0x3d8a1109	0.067415304
38	0x3e13d7f3	0.14437847
39	0xbee11e73	-0.43968543
40	0x3e90c6ac	0.28276575
41	0xbb6b3d98	-0.0035894867
42	0x3ef4c48b	0.478062
43	0x3e9378c8	0.28803086
44	0xbe97d9ce	-0.2965836
45	0xbea37b63	-0.31930074
46	0x3f223f17	0.6337752
47	0x3d3ca81e	0.046058767

q_bias f4 [48]
0	0x42d60000	107.0
1	0x42cc0000	102.0
2	0xc3270000	-167.0
3	0x42aa0000	85.0
4	0xc3390000	-185.0
5	0x41e00000	28.0
6	0xc1700000	-15.0
7	0xc39d0000	-314.0
8	0x43d48000	425.0
9	0xc34d0000	-205.0
10	0xc3858000	-267.0
11	0xc3850000	-266.0
12	0xc35b0000	-219.0
13	0xc38b8000	-279.0
14	0xc3490000	-201.0
15	0xc3a50000	-330.0
16	0xc3370000	-183.0
17	0x44018000	518.0
18	0x43a70000	334.0
19	0xc3a08000	-321.0
20	0x430a0000	138.0
21	0xc29a0000	-77.0
22	0x44390000	740.0
23	0xc3ba8000	-373.0
24	0x43c88000	401.0
25	0xc3de0000	-444.0
26	0xc33a0000	-186.0
27	0xc2000000	-32.0
28	0xc2d80000	-108.0
29	0x43160000	150.0
30	0x42860000	67.0
31	0x43710000	241.0
32	0xc2b00000	-88.0
33	0xc2fa0000	-125.0
34	0xc1e80000	-29.0
35	0x443b8000	750.0
36	0x43958000	299.0
37	0x42640000	57.0
38	0x42f60000	123.0
39	0xc3bb8000	-375.0
40	0x43710000	241.0
41	0xc0400000	-3.0
42	0x43cc0000	408.0
43	0x43760000	246.0
44	0xc37d0000	-253.0
45	0xc3880000	-272.0
46	0x44070000	540.0
47	0x421c0000	39.0

q_weight f4 [48, 1, 3, 3]
0	0x42780000	62.0
1	0x41b00000	22.0
2	0xc2100000	-36.0
3	0xc2500000	-52.0
4	0xc2ac0000	-86.0
5	0xc1700000	-15.0
6	0x42c20000	97.0
7	0xc1b00000	-22.0
8	0x41a80000	21.0
9	0xc2100000	-36.0
10	0xc1e80000	-29.0
11	0xc1400000	-12.0
12	0xbf800000	-1.0
13	0xc1f80000	-31.0
14	0xc1d00000	-26.0
15	0x40000000	2.0
16	0xc1700000	-15.0
17	0x42780000	62.0
18	0x42600000	56.0
19	0xc1c00000	-24.0
20	0x40800000	4.0
21	0xc2200000	-40.0
22	0xc2200000	-40.0
23	0x42400000	48.0
24	0x42500000	52.0
25	0xc2280000	-42.0
26	0x42640000	57.0
27	0x428e0000	71.0
28	0xc2f40000	-122.0
29	0xc2b00000	-88.0
30	0x429a0000	77.0
31	0x42f80000	124.0
32	0x42880000	68.0
33	0xc1d80000	-27.0
34	0xc2440000	-49.0
35	0x41d80000	27.0
36	0x41d00000	26.0
37	0x41c80000	25.0
38	0x41c80000	25.0
39	0x41d80000	27.0
40	0xc0800000	-4.0
41	0xc0c00000	-6.0
42	0x40c00000	6.0
43	0x41000000	8.0
44	0x40e00000	7.0
45	0xc2200000	-40.0
46	0xc1e80000	-29.0
47	0xc2640000	-57.0
48	0x41000000	8.0
49	0x42180000	38.0
50	0xc1900000	-18.0
51	0x41980000	19.0
52	0x41900000	18.0
53	0x42140000	37.0
54	0x42540000	53.0
55	0xc23c0000	-47.0
56	0x40400000	3.0
57	0x42540000	53.0
58	0xc2540000	-53.0
59	0xc2600000	-56.0
60	0x42000000	32.0
61	0xc1500000	-13.0
62	0x42400000	48.0
63	0xc2080000	-34.0
64	0x40400000	3.0
65	0x41880000	17.0
66	0xc1400000	-12.0
67	0x40a00000	5.0
68	0xc0800000	-4.0
69	0x41400000	12.0
70	0x42180000	38.0
71	0x41d80000	27.0
72	0xc2140000	-37.0
73	0xc2280000	-42.0
74	0x41400000	12.0
75	0xc2580000	-54.0
76	0x41500000	13.0
77	0x41100000	9.0
78	0xc1c00000	-24.0
79	0x3f800000	1.0
80	0x41b80000	23.0
81	0xc1400000	-12.0
82	0x42080000	34.0
83	0xbf800000	-1.0
84	0x41c80000	25.0
85	0x42140000	37.0
86	0x41400000	12.0
87	0x40e00000	7.0
88	0xbf800000	-1.0
89	0xc1700000	-15.0
90	0x41800000	16.0
91	0x41100000	9.0
92	0x42080000	34.0
93	0xc1a00000	-20.0
94	0x40400000	3.0
95	0xc1d00000	-26.0
96	0x41b80000	23.0
97	0x40000000	2.0
98	0x42280000	42.0
99	0xc1d80000	-27.0
100	0xc25c0000	-55.0
101	0x42340000	45.0
102	0xc1c80000	-25.0
103	0x41800000	16.0
104	0x41500000	13.0
105	0xc2440000	-49.0
106	0x424c0000	51.0
107	0x421c0000	39.0
108	0x41000000	8.0
109	0x41700000	15.0
110	0x42ac0000	86.0
111	0xc2860000	-67.0
112	0x42740000	61.0
113	0xc0000000	-2.0
114	0x42080000	34.0
115	0x42d20000	105.0
116	0xc3020000	-130.0
117	0x41f80000	31.0
118	0x42340000	45.0
119	0x40a00000	5.0
120	0xc1200000	-10.0
121	0xc0400000	-3.0
122	0x41100000	9.0
123	0x40000000	2.0
124	0x42240000	41.0
125	0x41400000	12.0
126	0x41600000	14.0
127	0x41b00000	22.0
128	0x41880000	17.0
129	0xc1880000	-17.0
130	0x40000000	2.0
131	0x40400000	3.0
132	0x41e80000	29.0
133	0x421c0000	39.0
134	0xc0800000	-4.0
135	0x41800000	16.0
136	0x41f00000	30.0
137	0xc1000000	-8.0
138	0x42100000	36.0
139	0x41a80000	21.0
140	0x41600000	14.0
141	0xbf800000	-1.0
142	0x40a00000	5.0
143	0x41880000	17.0
144	0xc2180000	-38.0
145	0x41a00000	20.0
146	0x42600000	56.0
147	0xc2a60000	-83.0
148	0x41700000	15.0
149	0x41b00000	22.0
150	0xc0a00000	-5.0
151	0x42dc0000	110.0
152	0xc0400000	-3.0
153	0xc2ca0000	-101.0
154	0xc2040000	-33.0
155	0x42700000	60.0
156	0xc20c0000	-35.0
157	0xc0a00000	-5.0
158	0xc1b80000	-23.0
159	0x41d80000	27.0
160	0xc2200000	-40.0
161	0xc1d00000	-26.0
162	0xc2640000	-57.0
163	0x41300000	11.0
164	0x422c0000	43.0
165	0x41d00000	26.0
166	0xc1000000	-8.0
167	0x42000000	32.0
168	0xc2480000	-50.0
169	0x41700000	15.0
170	0xc2400000	-48.0
171	0xc2100000	-36.0
172	0x42100000	36.0
173	0x423c0000	47.0
174	0x42500000	52.0
175	0x00000000	0.0
176	0xc1880000	-17.0
177	0x41880000	17.0
178	0x42100000	36.0
179	0xc1c80000	-25.0
180	0x42180000	38.0
181	0x00000000	0.0
182	0x3f800000	1.0
183	0xc1500000	-13.0
184	0x42640000	57.0
185	0xc2040000	-33.0
186	0x42200000	40.0
187	0xc2300000	-44.0
188	0xc2040000	-33.0
189	0xc25c0000	-55.0
190	0xc0e00000	-7.0
191	0x42960000	75.0
192	0xc25c0000	-55.0
193	0x41c80000	25.0
194	0x42140000	37.0
195	0xc1b00000	-22.0
196	0x41980000	19.0
197	0xc0c00000	-6.0
198	0xc1a00000	-20.0
199	0xc1d80000	-27.0
200	0xc1200000	-10.0
201	0xc1a80000	-21.0
202	0xc1700000	-15.0
203	0xc1a80000	-21.0
204	0x42300000	44.0
205	0xc0400000	-3.0
206	0xc1e00000	-28.0
207	0x42400000	48.0
208	0x41c80000	25.0
209	0x42b00000	88.0
210	0xc1200000	-10.0
211	0xc2b80000	-92.0
212	0x424c0000	51.0
213	0xc22c0000	-43.0
214	0xc28a0000	-69.0
215	0x42c60000	99.0
216	0xc2a80000	-84.0
217	0x42960000	75.0
218	0xc26c0000	-59.0
219	0x40e00000	7.0
220	0x42100000	36.0
221	0xc2100000	-36.0
222	0x41800000	16.0
223	0xc2400000	-48.0
224	0xc1500000	-13.0
225	0x41100000	9.0
226	0x41c80000	25.0
227	0x41900000	18.0
228	0xc1500000	-13.0
229	0x41b80000	23.0
230	0x41d80000	27.0
231	0x41900000	18.0
232	0x41d80000	27.0
233	0xc1b80000	-23.0
234	0xc2400000	-48.0
235	0x42640000	57.0
236	0xc1300000	-11.0
237	0x41a80000	21.0
238	0xc2840000	-66.0
239	0x41000000	8.0
240	0x42820000	65.0
241	0x42380000	46.0
242	0x41a00000	20.0
243	0x41c00000	24.0
244	0x42080000	34.0
245	0xc1600000	-14.0
246	0x41c80000	25.0
247	0x40400000	3.0
248	0x41f00000	30.0
249	0xc2080000	-34.0
250	0x41900000	18.0
251	0xc1400000	-12.0
252	0x422c0000	43.0
253	0x41f80000	31.0
254	0x42080000	34.0
255	0x40a00000	5.0

weights f4 [16, 48]
0	0x42300000	44.0
1	0x00000000	0.0
2	0x42340000	45.0
3	0x42480000	50.0
4	0x41000000	8.0
5	0x42820000	65.0
6	0xc1a80000	-21.0
7	0xc1000000	-8.0
8	0x420c0000	35.0
9	0x41000000	8.0
10	0xc1500000	-13.0
11	0xc1900000	-18.0
12	0x42200000	40.0
13	0x42960000	75.0
14	0x41f80000	31.0
15	0x41c80000	25.0
16	0x42600000	56.0
17	0x41500000	13.0
18	0x42580000	54.0
19	0x42ac0000	86.0
20	0x42580000	54.0
21	0xc2100000	-36.0
22	0x41e80000	29.0
23	0x40800000	4.0
24	0x42300000	44.0
25	0x422c0000	43.0
26	0x41600000	14.0
27	0x40000000	2.0
28	0xc1b00000	-22.0
29	0x41700000	15.0
30	0xc1a80000	-21.0
31	0x41300000	11.0
32	0x40a00000	5.0
33	0xc1b00000	-22.0
34	0x41300000	11.0
35	0xc1c80000	-25.0
36	0xc0800000	-4.0
37	0x423c0000	47.0
38	0xc1880000	-17.0
39	0xc1e00000	-28.0
40	0xc1900000	-18.0
41	0x41a00000	20.0
42	0x425c0000	55.0
43	0x40e00000	7.0
44	0x42000000	32.0
45	0xc1100000	-9.0
46	0x42a00000	80.0
47	0x40e00000	7.0
48	0x41500000	13.0
49	0xc2740000	-61.0
50	0xc27c0000	-63.0
51	0xc1100000	-9.0
52	0x41200000	10.0
53	0xc2c80000	-100.0
54	0xc2540000	-53.0
55	0xc2480000	-50.0
56	0xc0e00000	-7.0
57	0xc1e00000	-28.0
58	0xc1300000	-11.0
59	0x41f00000	30.0
60	0xc1980000	-19.0
61	0xc2740000	-61.0
62	0x41880000	17.0
63	0xc1c80000	-25.0
64	0x00000000	0.0
65	0x42bc0000	94.0
66	0x42800000	64.0
67	0x00000000	0.0
68	0xc2940000	-74.0
69	0x42fe0000	127.0
70	0x429e0000	79.0
71	0x42100000	36.0
72	0xbf800000	-1.0
73	0xc2780000	-62.0
74	0xc0c00000	-6.0
75	0x41c80000	25.0
76	0xc2400000	-48.0
77	0xc1700000	-15.0
78	0xc1980000	-19.0
79	0x41c00000	24.0
80	0x42a40000	82.0
81	0x42340000	45.0
82	0xc0c00000	-6.0
83	0x41980000	19.0
84	0xc1d80000	-27.0
85	0x40800000	4.0
86	0x42e00000	112.0
87	0xc1f80000	-31.0
88	0x41c00000	24.0
89	0x41b00000	22.0
90	0x42280000	42.0
91	0x424c0000	51.0
92	0xc0a00000	-5.0
93	0x41c00000	24.0
94	0xc2240000	-41.0
95	0xc1d00000	-26.0
96	0x41900000	18.0
97	0xc1f80000	-31.0
98	0x42840000	66.0
99	0x40800000	4.0
100	0x41000000	8.0
101	0xc1c80000	-25.0
102	0x41e00000	28.0
103	0x41a80000	21.0
104	0x41a80000	21.0
105	0xc1f00000	-30.0
106	0x41c00000	24.0
107	0x423c0000	47.0
108	0xc2780000	-62.0
109	0xc21c0000	-39.0
110	0x41300000	11.0
111	0x42740000	61.0
112	0x421c0000	39.0
113	0x42aa0000	85.0
114	0xc1a80000	-21.0
115	0x41b00000	22.0
116	0xc1880000	-17.0
117	0xc0a00000	-5.0
118	0x3f800000	1.0
119	0x42280000	42.0
120	0x42c80000	100.0
121	0x41200000	10.0
122	0x41880000	17.0
123	0xc1c80000	-25.0
124	0xc1d00000	-26.0
125	0x426c0000	59.0
126	0x40c00000	6.0
127	0xc2240000	-41.0
128	0x40a00000	5.0
129	0x42640000	57.0
130	0x42480000	50.0
131	0x42a80000	84.0
132	0x40c00000	6.0
133	0x42480000	50.0
134	0x427c0000	63.0
135	0x421c0000	39.0
136	0x42180000	38.0
137	0x40a00000	5.0
138	0x42480000	50.0
139	0x00000000	0.0
140	0x41d80000	27.0
141	0xc0c00000	-6.0
142	0xc2080000	-34.0
143	0x42700000	60.0
144	0x42440000	49.0
145	0xbf800000	-1.0
146	0xc1d00000	-26.0
147	0x42040000	33.0
148	0xc1a00000	-20.0
149	0x421c0000	39.0
150	0xc1700000	-15.0
151	0x41400000	12.0
152	0xc1500000	-13.0
153	0xc0a00000	-5.0
154	0xc1500000	-13.0
155	0x422c0000	43.0
156	0xc1000000	-8.0
157	0xc1100000	-9.0
158	0x40c00000	6.0
159	0x426c0000	59.0
160	0x42580000	54.0
161	0x42200000	40.0
162	0x42240000	41.0
163	0x42140000	37.0
164	0x40400000	3.0
165	0x41f00000	30.0
166	0x00000000	0.0
167	0xc2080000	-34.0
168	0xc0800000	-4.0
169	0xc0c00000	-6.0
170	0xc1100000	-9.0
171	0x42340000	45.0
172	0x42280000	42.0
173	0x42280000	42.0
174	0x40800000	4.0
175	0x41c80000	25.0
176	0x42040000	33.0
177	0xc1400000	-12.0
178	0xc2180000	-38.0
179	0x41c80000	25.0
180	0xc1a80000	-21.0
181	0xc0000000	-2.0
182	0x40800000	4.0
183	0xc1d00000	-26.0
184	0xc1b00000	-22.0
185	0xc0800000	-4.0
186	0x41000000	8.0
187	0x41980000	19.0
188	0x40400000	3.0
189	0xc2040000	-33.0
190	0xc2180000	-38.0
191	0x42380000	46.0
192	0x42000000	32.0
193	0xc1800000	-16.0
194	0xc1000000	-8.0
195	0x420c0000	35.0
196	0x41300000	11.0
197	0xc1900000	-18.0
198	0xc1a00000	-20.0
199	0x41600000	14.0
200	0x41800000	16.0
201	0xc1200000	-10.0
202	0x41700000	15.0
203	0xc0c00000	-6.0
204	0xc2000000	-32.0
205	0x42080000	34.0
206	0xc0800000	-4.0
207	0x425c0000	55.0
208	0xc1000000	-8.0
209	0x42340000	45.0
210	0x42140000	37.0
211	0xc1f00000	-30.0
212	0x42400000	48.0
213	0x41800000	16.0
214	0x40000000	2.0
215	0x41880000	17.0
216	0xc0000000	-2.0
217	0xc0c00000	-6.0
218	0x41b00000	22.0
219	0x41800000	16.0
220	0xc0800000	-4.0
221	0xc1c80000	-25.0
222	0xc0800000	-4.0
223	0xc0800000	-4.0
224	0xc2600000	-56.0
225	0x42300000	44.0
226	0x42480000	50.0
227	0x42980000	76.0
228	0x42300000	44.0
229	0xc0a00000	-5.0
230	0xc2600000	-56.0
231	0xc1200000	-10.0
232	0x41880000	17.0
233	0x41a00000	20.0
234	0xc21c0000	-39.0
235	0x40000000	2.0
236	0xc2340000	-45.0
237	0xc2240000	-41.0
238	0x42000000	32.0
239	0xc1a00000	-20.0
240	0x41300000	11.0
241	0x41900000	18.0
242	0xc0400000	-3.0
243	0xbf800000	-1.0
244	0x41400000	12.0
245	0x41e80000	29.0
246	0xc1100000	-9.0
247	0x41300000	11.0
248	0x42080000	34.0
249	0x41d80000	27.0
250	0x41f80000	31.0
251	0x42200000	40.0
252	0x42140000	37.0
253	0xc1880000	-17.0
254	0xc2100000	-36.0
255	0x42240000	41.0
