Project/Software/project_Mobilenet_q/simple_model_test/dw_customize_Toymodel.pt (torch, 105865 bytes, 15 tensors)

weights f4 [8, 1, 1, 1]
00000000: 0000 fec2 0000 1042 0000 fcc2 0000 00c3
00000010: 0000 86c2 0000 fac2 0000 fe42 0000 18c2
-127.0 36.0 -126.0 -128.0 -67.0 -125.0 127.0 -38.0

bias f4 [8]
00000000: c4af 82bf 1b37 7dbf d2b0 253f bb06 5abf
00000010: 1191 a1be 7e46 5abf e37f 083f 09bc 6fbf
-1.020989 -0.9891221 0.6472293 -0.8516652 -0.3155599 -0.8526381 0.5332014 -0.93646294

q_bias f4 [8]
00000000: 000e b2c6 0080 acc6 00c0 6146 0086 94c6
00000010: 0020 dcc5 00b2 94c6 00f8 3946 0050 a3c6
-22791.0 -22080.0 14448.0 -19011.0 -7044.0 -19033.0 11902.0 -20904.0

q_weight f4 [8, 1, 1, 1]
00000000: 0000 e4c2 0000 4442 0000 e2c2 0000 e6c2
00000010: 0000 58c2 0000 e0c2 0000 0c43 0000 c8c1
-114.0 49.0 -113.0 -115.0 -54.0 -112.0 140.0 -25.0

weights f4 [8, 1, 3, 3]
00000000: 0000 64c2 0000 60c2 0000 4cc2 0000 44c2
00000010: 0000 9cc2 0000 b6c2 0000 8ac2 0000 1cc2
00000020: 0000 acc2 0000 a0c1 0000 6041 0000 1cc2
00000030: 0000 5041 0000 5cc2 0000 68c2 0000 4cc2
00000040: 0000 b0c1 0000 50c2 0000 3c42 0000 9242
00000050: 0000 6c42 0000 5c42 0000 e041 0000 8c42
00000060: 0000 9642 0000 b841 0000 9042 0000 70c1
00000070: 0000 94c2 0000 18c2 0000 14c2 0000 b4c2
00000080: 0000 60c2 0000 90c1 0000 a0c2 0000 34c2
00000090: 0000 a040 0000 0040 0000 2442 0000 e8c1
000000a0: 0000 0040 0000 20c1 0000 f0c1 0000 f0c1
000000b0: 0000 7041 0000 fe42 0000 8242 0000 e242
000000c0: 0000 c642 0000 f442 0000 8842 0000 ce42
000000d0: 0000 f242 0000 f042 0000 a2c2 0000 5041
000000e0: 0000 c040 0000 00c3 0000 e8c1 0000 98c1
000000f0: 0000 38c2 0000 f0c1 0000 e0c0 0000 b2c2
00000100: 0000 70c1 0000 82c2 0000 04c2 0000 9ac2
00000110: 0000 04c2 0000 14c2 0000 8cc2 0000 44c2
-57.0 -56.0 -51.0 -49.0 -78.0 -91.0 -69.0 -39.0
-86.0 -20.0 14.0 -39.0 13.0 -55.0 -58.0 -51.0
-22.0 -52.0 47.0 73.0 59.0 55.0 28.0 70.0
75.0 23.0 72.0 -15.0 -74.0 -38.0 -37.0 -90.0
-56.0 -18.0 -80.0 -45.0 5.0 2.0 41.0 -29.0
2.0 -10.0 -30.0 -30.0 15.0 127.0 65.0 113.0
99.0 122.0 68.0 103.0 121.0 120.0 -81.0 13.0
6.0 -128.0 -29.0 -19.0 -46.0 -30.0 -7.0 -89.0
-15.0 -65.0 -33.0 -77.0 -33.0 -37.0 -70.0 -49.0

bias f4 [8]
00000000: f8f7 f23e 5e26 a93e c1f5 303f b9cb c83e
00000010: c44c 25bf 3fe4 87be 3a58 bd3e 4aed 093f
0.4745481 0.33037084 0.6912499 0.39217928 -0.6457026 -0.26541325 0.36981374 0.538777

q_bias f4 [8]
00000000: 00a8 2b46 0000 ef45 000c 7a46 00dc 0d46
00000010: 0094 69c6 0008 c0c5 00c8 0546 00e4 4246
10986.0 7648.0 16003.0 9079.0 -14949.0 -6145.0 8562.0 12473.0

q_weight f4 [8, 1, 3, 3]
00000000: 0000 6cc2 0000 68c2 0000 54c2 0000 4cc2
00000010: 0000 a0c2 0000 bac2 0000 8ec2 0000 24c2
00000020: 0000 b0c2 0000 b0c1 0000 4041 0000 24c2
00000030: 0000 3041 0000 64c2 0000 70c2 0000 54c2
00000040: 0000 c0c1 0000 58c2 0000 3442 0000 8e42
00000050: 0000 6442 0000 5442 0000 d041 0000 8842
00000060: 0000 9242 0000 a841 0000 8c42 0000 88c1
00000070: 0000 98c2 0000 20c2 0000 1cc2 0000 b8c2
00000080: 0000 68c2 0000 a0c1 0000 a4c2 0000 3cc2
00000090: 0000 4040 0000 0000 0000 1c42 0000 f8c1
000000a0: 0000 0000 0000 40c1 0000 00c2 0000 00c2
000000b0: 0000 5041 0000 fa42 0000 7c42 0000 de42
000000c0: 0000 c242 0000 f042 0000 8442 0000 ca42
000000d0: 0000 ee42 0000 ec42 0000 a6c2 0000 3041
000000e0: 0000 8040 0000 02c3 0000 f8c1 0000 a8c1
000000f0: 0000 40c2 0000 00c2 0000 10c1 0000 b6c2
00000100: 0000 88c1 0000 86c2 0000 0cc2 0000 9ec2
00000110: 0000 0cc2 0000 1cc2 0000 90c2 0000 4cc2
-59.0 -58.0 -53.0 -51.0 -80.0 -93.0 -71.0 -41.0
-88.0 -22.0 12.0 -41.0 11.0 -57.0 -60.0 -53.0
-24.0 -54.0 45.0 71.0 57.0 53.0 26.0 68.0
73.0 21.0 70.0 -17.0 -76.0 -40.0 -39.0 -92.0
-58.0 -20.0 -82.0 -47.0 3.0 0.0 39.0 -31.0
0.0 -12.0 -32.0 -32.0 13.0 125.0 63.0 111.0
97.0 120.0 66.0 101.0 119.0 118.0 -83.0 11.0
4.0 -130.0 -31.0 -21.0 -48.0 -32.0 -9.0 -91.0
-17.0 -67.0 -35.0 -79.0 -35.0 -39.0 -72.0 -51.0

weights f4 [8, 8]
00000000: 0000 70c2 0000 9ec2 0000 58c2 0000 0cc2
00000010: 0000 a041 0000 3041 0000 3041 0000 28c2
00000020: 0000 38c2 0000 d041 0000 c042 0000 d8c1
00000030: 0000 18c2 0000 24c2 0000 0041 0000 0842
00000040: 0000 d842 0000 f841 0000 9041 0000 6842
00000050: 0000 88c2 0000 00c3 0000 b041 0000 2041
00000060: 0000 803f 0000 3842 0000 a842 0000 1cc2
00000070: 0000 00c0 0000 86c2 0000 4042 0000 c8c1
00000080: 0000 20c1 0000 48c2 0000 24c2 0000 2042
00000090: 0000 d841 0000 1041 0000 60c1 0000 7cc2
000000a0: 0000 00c2 0000 88c1 0000 a2c2 0000 c0c0
000000b0: 0000 8ac2 0000 a8c1 0000 f0c1 0000 b8c1
000000c0: 0000 fe42 0000 0042 0000 8042 0000 a842
000000d0: 0000 e8c2 0000 f2c2 0000 30c2 0000 e642
000000e0: 0000 a8c1 0000 3442 0000 98c2 0000 78c2
000000f0: 0000 6041 0000 e0c1 0000 90c1 0000 00c0
-60.0 -79.0 -54.0 -35.0 20.0 11.0 11.0 -42.0
-46.0 26.0 96.0 -27.0 -38.0 -41.0 8.0 34.0
108.0 31.0 18.0 58.0 -68.0 -128.0 22.0 10.0
1.0 46.0 84.0 -39.0 -2.0 -67.0 48.0 -25.0
-10.0 -50.0 -41.0 40.0 27.0 9.0 -14.0 -63.0
-32.0 -17.0 -81.0 -6.0 -69.0 -21.0 -30.0 -23.0
127.0 32.0 64.0 84.0 -116.0 -121.0 -44.0 115.0
-21.0 45.0 -76.0 -62.0 14.0 -28.0 -18.0 -2.0

weights f4 [8, 8]
00000000: 0000 aac2 0000 d8c1 0000 eac2 0000 8041
00000010: 0000 0cc2 0000 80bf 0000 cec2 0000 5041
00000020: 0000 e841 0000 8040 0000 dac2 0000 74c2
00000030: 0000 0042 0000 82c2 0000 ecc2 0000 54c2
00000040: 0000 fcc2 0000 2041 0000 34c2 0000 2041
00000050: 0000 68c2 0000 dcc2 0000 00c3 0000 b8c2
00000060: 0000 c6c2 0000 acc2 0000 8cc2 0000 ccc2
00000070: 0000 bcc2 0000 d4c2 0000 88c2 0000 d4c2
00000080: 0000 a040 0000 18c2 0000 c0c2 0000 0000
00000090: 0000 2041 0000 30c2 0000 64c2 0000 80bf
000000a0: 0000 28c2 0000 a4c2 0000 b4c2 0000 803f
000000b0: 0000 dec2 0000 a041 0000 60c2 0000 a6c2
000000c0: 0000 a040 0000 fe42 0000 b042 0000 3c42
000000d0: 0000 f8c2 0000 90c1 0000 6842 0000 b841
000000e0: 0000 90c1 0000 20c2 0000 d6c2 0000 00c0
000000f0: 0000 d4c2 0000 f2c2 0000 3cc2 0000 80c0
-85.0 -27.0 -117.0 16.0 -35.0 -1.0 -103.0 13.0
29.0 4.0 -109.0 -61.0 32.0 -65.0 -118.0 -53.0
-126.0 10.0 -45.0 10.0 -58.0 -110.0 -128.0 -92.0
-99.0 -86.0 -70.0 -102.0 -94.0 -106.0 -68.0 -106.0
5.0 -38.0 -96.0 0.0 10.0 -44.0 -57.0 -1.0
-42.0 -82.0 -90.0 1.0 -111.0 20.0 -56.0 -83.0
5.0 127.0 88.0 47.0 -124.0 -18.0 58.0 23.0
-18.0 -40.0 -107.0 -2.0 -106.0 -121.0 -47.0 -4.0

weights f4 [1, 8, 1, 1]
00000000: 0000 dec2 0000 6041 0000 c0c1 0000 9cc2
00000010: 0000 00c3 0000 5042 0000 fe42 0000 90c1
-111.0 14.0 -24.0 -78.0 -128.0 52.0 127.0 -18.0

q_weight f4 [1, 8, 1, 1]
00000000: 0000 a6c2 0000 2842 0000 8040 0000 48c2
00000010: 0000 c8c2 0000 a042 0000 1b43 0000 2041
-83.0 42.0 4.0 -50.0 -100.0 80.0 155.0 10.0

weights f4 [120, 100]
00000000: 0000 e040 0000 803f 0000 c841 0000 c841
00000010: 0000 1041 0000 4042 0000 2842 0000 8841
00000020: 0000 3041 0000 7041 0000 b841 0000 b041
00000030: 0000 c8c1 0000 f041 0000 2c42 0000 80bf
00000040: 0000 90c1 0000 d8c1 0000 80c0 0000 e040
00000050: 0000 a0c0 0000 10c1 0000 80c0 0000 0c42
00000060: 0000 8841 0000 8041 0000 8041 0000 e0c0
00000070: 0000 f8c1 0000 88c1 0000 8041 0000 a0c1
00000080: 0000 8841 0000 1c42 0000 b041 0000 c041
00000090: 0000 f841 0000 9841 0000 8041 0000 6041
000000a0: 0000 7041 0000 e041 0000 5042 0000 1c42
000000b0: 0000 2041 0000 8040 0000 f041 0000 2842
000000c0: 0000 3042 0000 2041 0000 d041 0000 2042
000000d0: 0000 9442 0000 5442 0000 b841 0000 3041
000000e0: 0000 9041 0000 3c42 0000 1c42 0000 5041
000000f0: 0000 f841 0000 7442 0000 9042 0000 3041
00000100: 0000 9442 0000 8041 0000 00c0 0000 8242
00000110: 0000 b841 0000 0842 0000 f841 0000 2442
00000120: 0000 c841 0000 e8c1 0000 f841 0000 2041
00000130: 0000 c841 0000 e041 0000 4041 0000 7041
00000140: 0000 3041 0000 9041 0000 40c0 0000 3cc2
00000150: 0000 8841 0000 6041 0000 4c42 0000 80bf
00000160: 0000 1842 0000 a841 0000 9041 0000 c040
00000170: 0000 60c1 0000 80bf 0000 30c1 0000 8cc2
00000180: 0000 f041 0000 e040 0000 3842 0000 5041
00000190: 0000 40c1 0000 80c0 0000 9041 0000 803f
000001a0: 0000 10c2 0000 18c2 0000 7041 0000 8442
000001b0: 0000 1c42 0000 c8c1 0000 a8c1 0000 c841
000001c0: 0000 9041 0000 48c2 0000 a0c0 0000 d8c1
000001d0: 0000 d8c1 0000 e0c0 0000 2842 0000 f841
000001e0: 0000 20c1 0000 e841 0000 60c1 0000 a841
000001f0: 0000 20c1 0000 00c1 0000 0000 0000 2041
00000200: 0000 4442 0000 c841 0000 a841 0000 3042
00000210: 0000 f8c1 0000 1042 0000 4040 0000 0040
00000220: 0000 e841 0000 4c42 0000 8841 0000 8041
00000230: 0000 2842 0000 a0c0 0000 60c1 0000 d841
00000240: 0000 a0c0 0000 a0c1 0000 e841 0000 5442
00000250: 0000 0000 0000 b041 0000 40c0 0000 a0c0
00000260: 0000 8041 0000 0042 0000 7041 0000 0040
00000270: 0000 0040 0000 5842 0000 9841 0000 1041
00000280: 0000 b841 0000 2041 0000 80c0 0000 a041
00000290: 0000 7041 0000 0000 0000 d041 0000 1442
000002a0: 0000 8041 0000 9841 0000 e0c0 0000 8040
000002b0: 0000 6042 0000 c841 0000 70c1 0000 4041
000002c0: 0000 40c0 0000 4041 0000 00c1 0000 a041
000002d0: 0000 60c1 0000 e841 0000 9e42 0000 50c1
000002e0: 0000 00c0 0000 7041 0000 e8c1 0000 80bf
000002f0: 0000 6041 0000 c841 0000 80c1 0000 5041
00000300: 0000 6c42 0000 0c42 0000 60c1 0000 a8c1
00000310: 0000 a8c1 0000 20c2 0000 a040 0000 e8c1
00000320: 0000 2c42 0000 2042 0000 3041 0000 803f
00000330: 0000 2442 0000 c842 0000 70c1 0000 80c1
00000340: 0000 c041 0000 a841 0000 5042 0000 c041
00000350: 0000 60c2 0000 0442 0000 7041 0000 b841
00000360: 0000 a040 0000 a8c1 0000 40c0 0000 5042
00000370: 0000 f041 0000 80c0 0000 0000 0000 f041
00000380: 0000 3842 0000 2042 0000 3041 0000 4041
00000390: 0000 f0c1 0000 2842 0000 4842 0000 c040
000003a0: 0000 c841 0000 0042 0000 0041 0000 d841
000003b0: 0000 30c1 0000 3041 0000 e0c0 0000 9041
000003c0: 0000 2042 0000 0842 0000 3442 0000 3041
000003d0: 0000 40c0 0000 0842 0000 5041 0000 0c42
000003e0: 0000 00c0 0000 a841 0000 a041 0000 0c42
000003f0: 0000 3042 0000 c841 0000 0c42 0000 9041
7.0 1.0 25.0 25.0 9.0 48.0 42.0 17.0
11.0 15.0 23.0 22.0 -25.0 30.0 43.0 -1.0
-18.0 -27.0 -4.0 7.0 -5.0 -9.0 -4.0 35.0
17.0 16.0 16.0 -7.0 -31.0 -17.0 16.0 -20.0
17.0 39.0 22.0 24.0 31.0 19.0 16.0 14.0
15.0 28.0 52.0 39.0 10.0 4.0 30.0 42.0
44.0 10.0 26.0 40.0 74.0 53.0 23.0 11.0
18.0 47.0 39.0 13.0 31.0 61.0 72.0 11.0
74.0 16.0 -2.0 65.0 23.0 34.0 31.0 41.0
25.0 -29.0 31.0 10.0 25.0 28.0 12.0 15.0
11.0 18.0 -3.0 -47.0 17.0 14.0 51.0 -1.0
38.0 21.0 18.0 6.0 -14.0 -1.0 -11.0 -70.0
30.0 7.0 46.0 13.0 -12.0 -4.0 18.0 1.0
-36.0 -38.0 15.0 66.0 39.0 -25.0 -21.0 25.0
18.0 -50.0 -5.0 -27.0 -27.0 -7.0 42.0 31.0
-10.0 29.0 -14.0 21.0 -10.0 -8.0 0.0 10.0
49.0 25.0 21.0 44.0 -31.0 36.0 3.0 2.0
29.0 51.0 17.0 16.0 42.0 -5.0 -14.0 27.0
-5.0 -20.0 29.0 53.0 0.0 22.0 -3.0 -5.0
16.0 32.0 15.0 2.0 2.0 54.0 19.0 9.0
23.0 10.0 -4.0 20.0 15.0 0.0 26.0 37.0
16.0 19.0 -7.0 4.0 56.0 25.0 -15.0 12.0
-3.0 12.0 -8.0 20.0 -14.0 29.0 79.0 -13.0
-2.0 15.0 -29.0 -1.0 14.0 25.0 -16.0 13.0
59.0 35.0 -14.0 -21.0 -21.0 -40.0 5.0 -29.0
43.0 40.0 11.0 1.0 41.0 100.0 -15.0 -16.0
24.0 21.0 52.0 24.0 -56.0 33.0 15.0 23.0
5.0 -21.0 -3.0 52.0 30.0 -4.0 0.0 30.0
46.0 40.0 11.0 12.0 -30.0 42.0 50.0 6.0
25.0 32.0 8.0 27.0 -11.0 11.0 -7.0 18.0
40.0 34.0 45.0 11.0 -3.0 34.0 13.0 35.0
-2.0 21.0 20.0 35.0 44.0 25.0 35.0 18.0

weights f4 [84, 120]
00000000: 0000 50c1 0000 6842 0000 60c1 0000 7042
00000010: 0000 2042 0000 10c1 0000 2042 0000 0000
00000020: 0000 e841 0000 d041 0000 8041 0000 00c0
00000030: 0000 a040 0000 7041 0000 5041 0000 e841
00000040: 0000 7041 0000 b0c1 0000 0842 0000 7041
00000050: 0000 2042 0000 0041 0000 5041 0000 803f
00000060: 0000 2041 0000 5041 0000 3842 0000 00c0
00000070: 0000 1442 0000 0041 0000 3041 0000 a041
00000080: 0000 2041 0000 1442 0000 4042 0000 4041
00000090: 0000 4041 0000 80c1 0000 1cc2 0000 40c1
000000a0: 0000 4040 0000 e0c1 0000 f0c1 0000 0842
000000b0: 0000 50c2 0000 88c1 0000 00c1 0000 b041
000000c0: 0000 c040 0000 e841 0000 8041 0000 8040
000000d0: 0000 e041 0000 98c1 0000 c041 0000 4040
000000e0: 0000 8242 0000 9842 0000 c041 0000 0842
000000f0: 0000 0442 0000 70c1 0000 8841 0000 60c1
00000100: 0000 5041 0000 00c2 0000 c040 0000 f041
00000110: 0000 2c42 0000 a0c1 0000 8040 0000 c841
00000120: 0000 5842 0000 2442 0000 30c1 0000 a242
00000130: 0000 f8c1 0000 24c2 0000 5442 0000 a0c1
00000140: 0000 3041 0000 a841 0000 3041 0000 40c0
00000150: 0000 88c1 0000 e040 0000 c041 0000 a0c0
00000160: 0000 a642 0000 0cc2 0000 a0c0 0000 2442
00000170: 0000 e040 0000 acc2 0000 1842 0000 2042
00000180: 0000 2842 0000 5042 0000 7041 0000 68c2
00000190: 0000 2c42 0000 8040 0000 4042 0000 2042
000001a0: 0000 70c1 0000 6042 0000 5442 0000 00c1
000001b0: 0000 a841 0000 a841 0000 1041 0000 e040
000001c0: 0000 00c1 0000 8041 0000 2c42 0000 50c1
000001d0: 0000 90c1 0000 2042 0000 0040 0000 e0c1
000001e0: 0000 6041 0000 50c1 0000 1042 0000 9442
000001f0: 0000 9841 0000 4041 0000 6442 0000 0442
00000200: 0000 c041 0000 3842 0000 0040 0000 50c1
00000210: 0000 48c2 0000 7041 0000 4442 0000 0cc2
00000220: 0000 0c42 0000 7041 0000 54c2 0000 b841
00000230: 0000 3042 0000 8041 0000 e040 0000 80c1
00000240: 0000 803f 0000 4842 0000 90c1 0000 3442
00000250: 0000 7842 0000 3842 0000 90c1 0000 c040
00000260: 0000 d841 0000 4c42 0000 2041 0000 2842
00000270: 0000 98c1 0000 6041 0000 c841 0000 1cc2
00000280: 0000 6042 0000 c0c1 0000 8041 0000 6cc2
00000290: 0000 0042 0000 a0c0 0000 f0c1 0000 2041
000002a0: 0000 3442 0000 e040 0000 a0c1 0000 2042
000002b0: 0000 d041 0000 08c2 0000 3442 0000 6041
000002c0: 0000 1842 0000 6442 0000 a0c0 0000 b642
000002d0: 0000 2842 0000 b041 0000 e8c1 0000 7041
000002e0: 0000 f0c1 0000 2042 0000 10c1 0000 e041
000002f0: 0000 8e42 0000 a040 0000 88c1 0000 a041
00000300: 0000 d8c1 0000 e0c0 0000 4040 0000 8040
00000310: 0000 3442 0000 2041 0000 1042 0000 0000
00000320: 0000 c040 0000 50c1 0000 b041 0000 b841
00000330: 0000 90c1 0000 2041 0000 c041 0000 80bf
00000340: 0000 34c2 0000 f8c1 0000 f0c1 0000 1442
00000350: 0000 0000 0000 a0c0 0000 10c1 0000 40c1
00000360: 0000 1842 0000 4842 0000 28c2 0000 e0c0
00000370: 0000 0c42 0000 20c1 0000 9041 0000 e0c1
00000380: 0000 7042 0000 c841 0000 b0c1 0000 3842
00000390: 0000 2041 0000 00c0 0000 c841 0000 4040
000003a0: 0000 4040 0000 9842 0000 0cc2 0000 3042
000003b0: 0000 40c0 0000 4042 0000 5041 0000 8e42
000003c0: 0000 80c1 0000 70c1 0000 60c1 0000 5041
000003d0: 0000 70c1 0000 c0c0 0000 40c0 0000 a0c0
000003e0: 0000 40c1 0000 80bf 0000 00c1 0000 6041
000003f0: 0000 c040 0000 3041 0000 6041 0000 9041
-13.0 58.0 -14.0 60.0 40.0 -9.0 40.0 0.0
29.0 26.0 16.0 -2.0 5.0 15.0 13.0 29.0
15.0 -22.0 34.0 15.0 40.0 8.0 13.0 1.0
10.0 13.0 46.0 -2.0 37.0 8.0 11.0 20.0
10.0 37.0 48.0 12.0 12.0 -16.0 -39.0 -12.0
3.0 -28.0 -30.0 34.0 -52.0 -17.0 -8.0 22.0
6.0 29.0 16.0 4.0 28.0 -19.0 24.0 3.0
65.0 76.0 24.0 34.0 33.0 -15.0 17.0 -14.0
13.0 -32.0 6.0 30.0 43.0 -20.0 4.0 25.0
54.0 41.0 -11.0 81.0 -31.0 -41.0 53.0 -20.0
11.0 21.0 11.0 -3.0 -17.0 7.0 24.0 -5.0
83.0 -35.0 -5.0 41.0 7.0 -86.0 38.0 40.0
42.0 52.0 15.0 -58.0 43.0 4.0 48.0 40.0
-15.0 56.0 53.0 -8.0 21.0 21.0 9.0 7.0
-8.0 16.0 43.0 -13.0 -18.0 40.0 2.0 -28.0
14.0 -13.0 36.0 74.0 19.0 12.0 57.0 33.0
24.0 46.0 2.0 -13.0 -50.0 15.0 49.0 -35.0
35.0 15.0 -53.0 23.0 44.0 16.0 7.0 -16.0
1.0 50.0 -18.0 45.0 62.0 46.0 -18.0 6.0
27.0 51.0 10.0 42.0 -19.0 14.0 25.0 -39.0
56.0 -24.0 16.0 -59.0 32.0 -5.0 -30.0 10.0
45.0 7.0 -20.0 40.0 26.0 -34.0 45.0 14.0
38.0 57.0 -5.0 91.0 42.0 22.0 -29.0 15.0
-30.0 40.0 -9.0 28.0 71.0 5.0 -17.0 20.0
-27.0 -7.0 3.0 4.0 45.0 10.0 36.0 0.0
6.0 -13.0 22.0 23.0 -18.0 10.0 24.0 -1.0
-45.0 -31.0 -30.0 37.0 0.0 -5.0 -9.0 -12.0
38.0 50.0 -42.0 -7.0 35.0 -10.0 18.0 -28.0
60.0 25.0 -22.0 46.0 10.0 -2.0 25.0 3.0
3.0 76.0 -35.0 44.0 -3.0 48.0 13.0 71.0
-16.0 -15.0 -14.0 13.0 -15.0 -6.0 -3.0 -5.0
-12.0 -1.0 -8.0 14.0 6.0 11.0 14.0 18.0

weights f4 [10, 84]
00000000: 0000 b041 0000 00c0 0000 2041 0000 a0c0
00000010: 0000 54c2 0000 30c1 0000 7842 0000 0c42
00000020: 0000 40c1 0000 a040 0000 b0c1 0000 1041
00000030: 0000 40c2 0000 4041 0000 40c0 0000 10c2
00000040: 0000 1442 0000 4040 0000 f0c1 0000 2442
00000050: 0000 9041 0000 c041 0000 a0c1 0000 30c1
00000060: 0000 34c2 0000 40c0 0000 10c2 0000 6041
00000070: 0000 c8c1 0000 70c1 0000 e841 0000 e040
00000080: 0000 50c1 0000 00c0 0000 1842 0000 20c1
00000090: 0000 8cc2 0000 b041 0000 3041 0000 b841
000000a0: 0000 0042 0000 7041 0000 00c0 0000 a841
000000b0: 0000 1442 0000 e041 0000 80c1 0000 e0c0
000000c0: 0000 44c2 0000 1442 0000 00c0 0000 14c2
000000d0: 0000 30c1 0000 3042 0000 1041 0000 70c1
000000e0: 0000 d041 0000 f041 0000 803f 0000 6041
000000f0: 0000 0000 0000 a841 0000 82c2 0000 80bf
00000100: 0000 00c0 0000 60c2 0000 4cc2 0000 9841
00000110: 0000 8841 0000 a041 0000 f041 0000 1cc2
00000120: 0000 f841 0000 80c1 0000 8040 0000 8040
00000130: 0000 b8c1 0000 50c1 0000 e040 0000 00c1
00000140: 0000 0cc2 0000 f041 0000 30c2 0000 70c1
00000150: 0000 d8c1 0000 e041 0000 00c1 0000 9841
00000160: 0000 9041 0000 0041 0000 5c42 0000 14c2
00000170: 0000 c0c0 0000 40c1 0000 2041 0000 c841
00000180: 0000 4041 0000 70c1 0000 1cc2 0000 60c1
00000190: 0000 4842 0000 58c2 0000 b041 0000 2842
000001a0: 0000 34c2 0000 10c1 0000 1041 0000 5041
000001b0: 0000 d041 0000 00c0 0000 10c1 0000 80bf
000001c0: 0000 80c0 0000 54c2 0000 8841 0000 b841
000001d0: 0000 1041 0000 3cc2 0000 b041 0000 3cc2
000001e0: 0000 54c2 0000 c0c1 0000 00c1 0000 98c1
000001f0: 0000 54c2 0000 4041 0000 70c1 0000 3041
00000200: 0000 2442 0000 0000 0000 c0c0 0000 1cc2
00000210: 0000 98c1 0000 58c2 0000 58c2 0000 00c1
00000220: 0000 5041 0000 44c2 0000 0842 0000 3041
00000230: 0000 30c1 0000 44c2 0000 70c1 0000 80bf
00000240: 0000 c0c0 0000 4040 0000 90c1 0000 8a42
00000250: 0000 60c1 0000 10c1 0000 10c2 0000 60c2
00000260: 0000 40c2 0000 c040 0000 80c0 0000 fe42
00000270: 0000 4042 0000 30c1 0000 90c1 0000 60c1
00000280: 0000 c841 0000 70c1 0000 4040 0000 2c42
00000290: 0000 8041 0000 b0c1 0000 3842 0000 1041
000002a0: 0000 8040 0000 c041 0000 6041 0000 9041
000002b0: 0000 20c2 0000 5041 0000 a041 0000 3041
000002c0: 0000 e040 0000 18c2 0000 4842 0000 80c2
000002d0: 0000 a040 0000 9841 0000 0cc2 0000 0442
000002e0: 0000 98c2 0000 c8c1 0000 00c1 0000 1842
000002f0: 0000 b041 0000 4041 0000 b0c1 0000 b8c1
00000300: 0000 0042 0000 a841 0000 a8c1 0000 00c0
00000310: 0000 c040 0000 b0c1 0000 0442 0000 1041
00000320: 0000 10c1 0000 f841 0000 8040 0000 2041
00000330: 0000 d8c1 0000 7041 0000 a0c0 0000 b041
00000340: 0000 1c42 0000 4040 0000 0040 0000 0000
00000350: 0000 b841 0000 28c2 0000 c841 0000 a841
00000360: 0000 d041 0000 0040 0000 1842 0000 0cc2
00000370: 0000 f041 0000 3cc2 0000 3042 0000 60c1
00000380: 0000 3041 0000 f0c1 0000 80c0 0000 8ac2
00000390: 0000 9841 0000 38c2 0000 e0c0 0000 40c2
000003a0: 0000 9041 0000 2842 0000 50c1 0000 d0c1
000003b0: 0000 2041 0000 d8c1 0000 d841 0000 a2c2
000003c0: 0000 1c42 0000 a040 0000 00c1 0000 00c2
000003d0: 0000 6cc2 0000 2c42 0000 0000 0000 c041
000003e0: 0000 8040 0000 1c42 0000 f8c1 0000 4040
000003f0: 0000 6041 0000 92c2 0000 0041 0000 c8c1
22.0 -2.0 10.0 -5.0 -53.0 -11.0 62.0 35.0
-12.0 5.0 -22.0 9.0 -48.0 12.0 -3.0 -36.0
37.0 3.0 -30.0 41.0 18.0 24.0 -20.0 -11.0
-45.0 -3.0 -36.0 14.0 -25.0 -15.0 29.0 7.0
-13.0 -2.0 38.0 -10.0 -70.0 22.0 11.0 23.0
32.0 15.0 -2.0 21.0 37.0 28.0 -16.0 -7.0
-49.0 37.0 -2.0 -37.0 -11.0 44.0 9.0 -15.0
26.0 30.0 1.0 14.0 0.0 21.0 -65.0 -1.0
-2.0 -56.0 -51.0 19.0 17.0 20.0 30.0 -39.0
31.0 -16.0 4.0 4.0 -23.0 -13.0 7.0 -8.0
-35.0 30.0 -44.0 -15.0 -27.0 28.0 -8.0 19.0
18.0 8.0 55.0 -37.0 -6.0 -12.0 10.0 25.0
12.0 -15.0 -39.0 -14.0 50.0 -54.0 22.0 42.0
-45.0 -9.0 9.0 13.0 26.0 -2.0 -9.0 -1.0
-4.0 -53.0 17.0 23.0 9.0 -47.0 22.0 -47.0
-53.0 -24.0 -8.0 -19.0 -53.0 12.0 -15.0 11.0
41.0 0.0 -6.0 -39.0 -19.0 -54.0 -54.0 -8.0
13.0 -49.0 34.0 11.0 -11.0 -49.0 -15.0 -1.0
-6.0 3.0 -18.0 69.0 -14.0 -9.0 -36.0 -56.0
-48.0 6.0 -4.0 127.0 48.0 -11.0 -18.0 -14.0
25.0 -15.0 3.0 43.0 16.0 -22.0 46.0 9.0
4.0 24.0 14.0 18.0 -40.0 13.0 20.0 11.0
7.0 -38.0 50.0 -64.0 5.0 19.0 -35.0 33.0
-76.0 -25.0 -8.0 38.0 22.0 12.0 -22.0 -23.0
32.0 21.0 -21.0 -2.0 6.0 -22.0 33.0 9.0
-9.0 31.0 4.0 10.0 -27.0 15.0 -5.0 22.0
39.0 3.0 2.0 0.0 23.0 -42.0 25.0 21.0
26.0 2.0 38.0 -35.0 30.0 -47.0 44.0 -14.0
11.0 -30.0 -4.0 -69.0 19.0 -46.0 -7.0 -48.0
18.0 42.0 -13.0 -26.0 10.0 -27.0 27.0 -81.0
39.0 5.0 -8.0 -32.0 -59.0 43.0 0.0 24.0
4.0 39.0 -31.0 3.0 14.0 -73.0 8.0 -25.0
