Project/Software/project_Mobilenet_q/simple_model_test/Q_toy_model_2.pt (torch, 428495 bytes, 9 tensors)

weights f4 [5, 1, 1, 1]
000000 00 00 b8 41 00 00 5c 42 00 00 fe c2 00 00 fe 42
       23.0 55.0 -127.0 127.0
000010 00 00 28 c2
       -42.0

bias f4 [5]
000000 98 78 86 3f 8f 2e 15 3d 2a ea fa be c3 e0 d6 3f
       1.0505552 0.036421355 -0.49006778 1.6787342
000010 a2 82 32 3f
       0.6973058

q_bias f4 [5]
000000 00 b0 37 46 00 00 cc 43 00 60 ab c5 00 c2 92 46
       11756.0 408.0 -5484.0 18785.0
000010 00 d8 f3 45
       7803.0

q_weight f4 [5, 1, 1, 1]
000000 00 00 a0 c1 00 00 40 41 00 00 2a c3 00 00 a8 42
       -20.0 12.0 -170.0 84.0
000010 00 00 aa c2
       -85.0

weights f4 [1, 5, 1, 1]
000000 00 00 f0 41 00 00 10 c1 00 00 fe c2 00 00 fe 42
       30.0 -9.0 -127.0 127.0
000010 00 00 c8 c1
       -25.0

q_weight f4 [1, 5, 1, 1]
000000 00 00 0c 42 00 00 80 c0 00 00 f4 c2 00 00 04 43
       35.0 -4.0 -122.0 132.0
000010 00 00 a0 c1
       -20.0

weights f4 [120, 784]
000000 00 00 30 c2 00 00 a0 41 00 00 80 bf 00 00 a0 41
       -44.0 20.0 -1.0 20.0
000010 00 00 40 41 00 00 d0 c1 00 00 d0 41 00 00 18 42
       12.0 -26.0 26.0 38.0
000020 00 00 f0 c1 00 00 e0 c0 00 00 b0 c1 00 00 0c c2
       -30.0 -7.0 -22.0 -35.0
000030 00 00 50 42 00 00 40 40 00 00 80 c0 00 00 98 41
       52.0 3.0 -4.0 19.0
000040 00 00 e0 40 00 00 20 c1 00 00 00 c1 00 00 34 c2
       7.0 -10.0 -8.0 -45.0
000050 00 00 20 c1 00 00 18 42 00 00 30 41 00 00 24 c2
       -10.0 38.0 11.0 -41.0
000060 00 00 18 42 00 00 c8 41 00 00 a0 40 00 00 24 c2
       38.0 25.0 5.0 -41.0
000070 00 00 d0 41 00 00 d8 41 00 00 04 c2 00 00 88 c1
       26.0 27.0 -33.0 -17.0
000080 00 00 04 42 00 00 00 c2 00 00 70 42 00 00 e0 c1
       33.0 -32.0 60.0 -28.0
000090 00 00 f0 41 00 00 70 42 00 00 c0 c1 00 00 d0 c1
       30.0 60.0 -24.0 -26.0
0000a0 00 00 96 42 00 00 80 41 00 00 a2 42 00 00 50 41
       75.0 16.0 81.0 13.0
0000b0 00 00 00 40 00 00 60 c2 00 00 f0 c1 00 00 e0 40
       2.0 -56.0 -30.0 7.0
0000c0 00 00 1c c2 00 00 60 41 00 00 3c c2 00 00 08 42
       -39.0 14.0 -47.0 34.0
0000d0 00 00 20 42 00 00 f0 c1 00 00 a0 41 00 00 d0 41
       40.0 -30.0 20.0 26.0
0000e0 00 00 98 c1 00 00 14 c2 00 00 38 c2 00 00 80 3f
       -19.0 -37.0 -46.0 1.0
0000f0 00 00 b0 c1 00 00 a0 40 00 00 00 c2 00 00 28 c2
       -22.0 5.0 -32.0 -42.0
000100 00 00 08 42 00 00 90 41 00 00 30 42 00 00 00 c0
       34.0 18.0 44.0 -2.0
000110 00 00 98 41 00 00 78 42 00 00 64 42 00 00 e0 40
       19.0 62.0 57.0 7.0
000120 00 00 40 41 00 00 d8 41 00 00 00 40 00 00 b8 c1
       12.0 27.0 2.0 -23.0
000130 00 00 7c c2 00 00 40 c1 00 00 a0 c0 00 00 48 c2
       -63.0 -12.0 -5.0 -50.0
000140 00 00 d0 c1 00 00 d8 41 00 00 80 3f 00 00 20 42
       -26.0 27.0 1.0 40.0
000150 00 00 10 c2 00 00 00 c1 00 00 a0 41 00 00 60 c1
       -36.0 -8.0 20.0 -14.0
000160 00 00 e8 41 00 00 10 c1 00 00 00 c2 00 00 90 41
       29.0 -9.0 -32.0 18.0
000170 00 00 d0 42 00 00 98 c1 00 00 44 42 00 00 14 42
       104.0 -19.0 49.0 37.0
000180 00 00 e0 41 00 00 24 42 00 00 98 41 00 00 b0 41
       28.0 41.0 19.0 22.0
000190 00 00 d0 41 00 00 a0 40 00 00 70 41 00 00 80 3f
       26.0 5.0 15.0 1.0
0001a0 00 00 78 42 00 00 64 c2 00 00 94 c2 00 00 c8 c1
       62.0 -57.0 -74.0 -25.0
0001b0 00 00 d8 c1 00 00 04 42 00 00 10 42 00 00 10 c1
       -27.0 33.0 36.0 -9.0
0001c0 00 00 34 c2 00 00 00 c1 00 00 30 c2 00 00 98 41
       -45.0 -8.0 -44.0 19.0
0001d0 00 00 82 c2 00 00 44 c2 00 00 80 c1 00 00 58 42
       -65.0 -49.0 -16.0 54.0
0001e0 00 00 88 41 00 00 00 40 00 00 00 c1 00 00 94 42
       17.0 2.0 -8.0 74.0
0001f0 00 00 80 3f 00 00 a8 41 00 00 34 42 00 00 4c 42
       1.0 21.0 45.0 51.0
000200 00 00 00 42 00 00 b0 41 00 00 64 c2 00 00 14 c2
       32.0 22.0 -57.0 -37.0
000210 00 00 10 42 00 00 0c c2 00 00 a4 c2 00 00 b6 c2
       36.0 -35.0 -82.0 -91.0
000220 00 00 48 c2 00 00 00 c0 00 00 f0 41 00 00 b0 41
       -50.0 -2.0 30.0 22.0
000230 00 00 d8 41 00 00 a8 41 00 00 98 41 00 00 40 c2
       27.0 21.0 19.0 -48.0
000240 00 00 60 c1 00 00 94 c2 00 00 00 41 00 00 9c 42
       -14.0 -74.0 8.0 78.0
000250 00 00 54 42 00 00 48 42 00 00 3c 42 00 00 98 41
       53.0 50.0 47.0 19.0
000260 00 00 34 42 00 00 04 42 00 00 14 42 00 00 40 41
       45.0 33.0 37.0 12.0
000270 00 00 98 c1 00 00 30 42 00 00 b8 41 00 00 70 c1
       -19.0 44.0 23.0 -15.0
000280 00 00 30 41 00 00 50 c1 00 00 64 c2 00 00 28 c2
       11.0 -13.0 -57.0 -42.0
000290 00 00 8e c2 00 00 04 c2 00 00 70 41 00 00 98 c1
       -71.0 -33.0 15.0 -19.0
0002a0 00 00 80 3f 00 00 50 c1 00 00 34 c2 00 00 88 c1
       1.0 -13.0 -45.0 -17.0
0002b0 00 00 40 c1 00 00 10 c2 00 00 d8 c1 00 00 e0 41
       -12.0 -36.0 -27.0 28.0
0002c0 00 00 14 c2 00 00 4c 42 00 00 68 42 00 00 98 c1
       -37.0 51.0 58.0 -19.0
0002d0 00 00 40 41 00 00 d8 c1 00 00 a0 40 00 00 80 40
       12.0 -27.0 5.0 4.0
0002e0 00 00 a0 c1 00 00 1c 42 00 00 14 c2 00 00 20 c2
       -20.0 39.0 -37.0 -40.0
0002f0 00 00 a0 40 00 00 f8 41 00 00 20 c2 00 00 86 c2
       5.0 31.0 -40.0 -67.0
000300 00 00 10 c2 00 00 e0 40 00 00 04 c2 00 00 00 c0
       -36.0 7.0 -33.0 -2.0
000310 00 00 00 41 00 00 e0 40 00 00 0c c2 00 00 84 c2
       8.0 7.0 -35.0 -66.0
000320 00 00 10 41 00 00 64 c2 00 00 c0 c0 00 00 e0 c0
       9.0 -57.0 -6.0 -7.0
000330 00 00 e8 c1 00 00 88 41 00 00 00 41 00 00 e0 41
       -29.0 17.0 8.0 28.0
000340 00 00 c0 41 00 00 b8 41 00 00 38 42 00 00 c8 41
       24.0 23.0 46.0 25.0
000350 00 00 10 41 00 00 d0 c1 00 00 28 c2 00 00 6c c2
       9.0 -26.0 -42.0 -59.0
000360 00 00 80 41 00 00 00 c2 00 00 00 c1 00 00 18 c2
       16.0 -32.0 -8.0 -38.0
000370 00 00 98 c2 00 00 4c c2 00 00 e0 41 00 00 a0 40
       -76.0 -51.0 28.0 5.0
000380 00 00 c0 c0 00 00 80 3f 00 00 00 40 00 00 10 c2
       -6.0 1.0 2.0 -36.0
000390 00 00 70 c1 00 00 e0 c0 00 00 80 c0 00 00 18 c2
       -15.0 -7.0 -4.0 -38.0
0003a0 00 00 78 c2 00 00 30 c2 00 00 00 c0 00 00 e0 c0
       -62.0 -44.0 -2.0 -7.0
0003b0 00 00 98 41 00 00 18 42 00 00 30 41 00 00 80 c0
       19.0 38.0 11.0 -4.0
0003c0 00 00 c0 40 00 00 08 c2 00 00 30 c2 00 00 a0 40
       6.0 -34.0 -44.0 5.0
0003d0 00 00 54 c2 00 00 38 c2 00 00 90 c1 00 00 04 c2
       -53.0 -46.0 -18.0 -33.0
0003e0 00 00 a8 c1 00 00 34 c2 00 00 10 c1 00 00 80 c1
       -21.0 -45.0 -9.0 -16.0
0003f0 00 00 d0 41 00 00 80 c1 00 00 40 c1 00 00 38 c2
       26.0 -16.0 -12.0 -46.0

weights f4 [84, 120]
000000 00 00 34 c2 00 00 5c 42 00 00 40 c1 00 00 1c 42
       -45.0 55.0 -12.0 39.0
000010 00 00 60 c1 00 00 00 00 00 00 b6 c2 00 00 8a c2
       -14.0 0.0 -91.0 -69.0
000020 00 00 1c c2 00 00 70 c1 00 00 80 41 00 00 94 c2
       -39.0 -15.0 16.0 -74.0
000030 00 00 88 c2 00 00 10 c2 00 00 6c c2 00 00 0c c2
       -68.0 -36.0 -59.0 -35.0
000040 00 00 a0 40 00 00 c0 c1 00 00 14 42 00 00 0c 42
       5.0 -24.0 37.0 35.0
000050 00 00 34 42 00 00 24 c2 00 00 34 42 00 00 a0 c0
       45.0 -41.0 45.0 -5.0
000060 00 00 48 42 00 00 a8 41 00 00 bc c2 00 00 28 c2
       50.0 21.0 -94.0 -42.0
000070 00 00 08 42 00 00 50 c1 00 00 10 c1 00 00 00 42
       34.0 -13.0 -9.0 32.0
000080 00 00 f0 41 00 00 24 42 00 00 78 c2 00 00 2c c2
       30.0 41.0 -62.0 -43.0
000090 00 00 24 c2 00 00 50 42 00 00 70 c1 00 00 40 42
       -41.0 52.0 -15.0 48.0
0000a0 00 00 9e c2 00 00 30 c2 00 00 20 42 00 00 28 c2
       -79.0 -44.0 40.0 -42.0
0000b0 00 00 30 41 00 00 98 41 00 00 92 c2 00 00 80 c0
       11.0 19.0 -73.0 -4.0
0000c0 00 00 f0 c1 00 00 b0 41 00 00 8e c2 00 00 34 c2
       -30.0 22.0 -71.0 -45.0
0000d0 00 00 4c 42 00 00 10 c1 00 00 24 c2 00 00 20 c2
       51.0 -9.0 -41.0 -40.0
0000e0 00 00 00 41 00 00 f8 41 00 00 80 bf 00 00 00 c1
       8.0 31.0 -1.0 -8.0
0000f0 00 00 a2 c2 00 00 74 c2 00 00 e8 41 00 00 40 40
       -81.0 -61.0 29.0 3.0
000100 00 00 50 41 00 00 58 c2 00 00 f0 41 00 00 80 c0
       13.0 -54.0 30.0 -4.0
000110 00 00 64 42 00 00 30 41 00 00 40 41 00 00 1c 42
       57.0 11.0 12.0 39.0
000120 00 00 8c c2 00 00 8e c2 00 00 60 c2 00 00 40 40
       -70.0 -71.0 -56.0 3.0
000130 00 00 10 c2 00 00 1c 42 00 00 3c 42 00 00 90 c2
       -36.0 39.0 47.0 -72.0
000140 00 00 28 c2 00 00 d8 c1 00 00 34 c2 00 00 98 41
       -42.0 -27.0 -45.0 19.0
000150 00 00 08 c2 00 00 88 c2 00 00 86 c2 00 00 00 c2
       -34.0 -68.0 -67.0 -32.0
000160 00 00 0c 42 00 00 84 c2 00 00 00 00 00 00 74 c2
       35.0 -66.0 0.0 -61.0
000170 00 00 f8 c1 00 00 92 c2 00 00 b0 c1 00 00 9c c2
       -31.0 -73.0 -22.0 -78.0
000180 00 00 48 42 00 00 38 c2 00 00 40 40 00 00 c0 40
       50.0 -46.0 3.0 6.0
000190 00 00 b0 41 00 00 80 c0 00 00 18 42 00 00 58 c2
       22.0 -4.0 38.0 -54.0
0001a0 00 00 04 42 00 00 3c 42 00 00 80 c0 00 00 30 41
       33.0 47.0 -4.0 11.0
0001b0 00 00 d0 41 00 00 a0 c0 00 00 80 c0 00 00 b8 c2
       26.0 -5.0 -4.0 -92.0
0001c0 00 00 90 41 00 00 5c c2 00 00 38 42 00 00 20 41
       18.0 -55.0 46.0 10.0
0001d0 00 00 78 c2 00 00 00 c0 00 00 c8 41 00 00 30 42
       -62.0 -2.0 25.0 44.0
0001e0 00 00 00 41 00 00 20 c2 00 00 40 42 00 00 58 42
       8.0 -40.0 48.0 54.0
0001f0 00 00 00 c0 00 00 48 42 00 00 24 42 00 00 c8 c1
       -2.0 50.0 41.0 -25.0
000200 00 00 70 41 00 00 0c c2 00 00 96 c2 00 00 88 41
       15.0 -35.0 -75.0 17.0
000210 00 00 f8 c1 00 00 70 42 00 00 92 c2 00 00 4c 42
       -31.0 60.0 -73.0 51.0
000220 00 00 b0 c1 00 00 b8 41 00 00 c0 c0 00 00 40 41
       -22.0 23.0 -6.0 12.0
000230 00 00 64 42 00 00 a8 c1 00 00 80 c1 00 00 60 42
       57.0 -21.0 -16.0 56.0
000240 00 00 2c c2 00 00 c8 41 00 00 60 41 00 00 24 c2
       -43.0 25.0 14.0 -41.0
000250 00 00 44 c2 00 00 08 42 00 00 50 41 00 00 a2 c2
       -49.0 34.0 13.0 -81.0
000260 00 00 54 42 00 00 70 c1 00 00 82 c2 00 00 ac c2
       53.0 -15.0 -65.0 -86.0
000270 00 00 80 41 00 00 a8 41 00 00 e0 41 00 00 90 41
       16.0 21.0 28.0 18.0
000280 00 00 64 c2 00 00 20 c2 00 00 80 c2 00 00 50 c2
       -57.0 -40.0 -64.0 -52.0
000290 00 00 b8 41 00 00 40 c2 00 00 86 c2 00 00 00 c0
       23.0 -48.0 -67.0 -2.0
0002a0 00 00 30 c2 00 00 38 c2 00 00 38 c2 00 00 70 c2
       -44.0 -46.0 -46.0 -60.0
0002b0 00 00 80 40 00 00 58 c2 00 00 34 c2 00 00 00 c0
       4.0 -54.0 -45.0 -2.0
0002c0 00 00 14 c2 00 00 a0 c1 00 00 b4 c2 00 00 90 c2
       -37.0 -20.0 -90.0 -72.0
0002d0 00 00 80 bf 00 00 82 42 00 00 60 41 00 00 40 c2
       -1.0 65.0 14.0 -48.0
0002e0 00 00 14 42 00 00 c8 c1 00 00 6c 42 00 00 84 c2
       37.0 -25.0 59.0 -66.0
0002f0 00 00 c8 c1 00 00 40 42 00 00 38 42 00 00 54 c2
       -25.0 48.0 46.0 -53.0
000300 00 00 04 c2 00 00 08 42 00 00 04 42 00 00 88 c2
       -33.0 34.0 33.0 -68.0
000310 00 00 50 c2 00 00 44 42 00 00 84 c2 00 00 28 42
       -52.0 49.0 -66.0 42.0
000320 00 00 50 42 00 00 60 41 00 00 40 c1 00 00 f0 41
       52.0 14.0 -12.0 30.0
000330 00 00 2c 42 00 00 b8 c1 00 00 88 c2 00 00 b8 41
       43.0 -23.0 -68.0 23.0
000340 00 00 58 c2 00 00 68 c2 00 00 00 42 00 00 c0 c0
       -54.0 -58.0 32.0 -6.0
000350 00 00 70 c2 00 00 04 c2 00 00 64 c2 00 00 58 c2
       -60.0 -33.0 -57.0 -54.0
000360 00 00 9c c2 00 00 80 c1 00 00 00 41 00 00 b0 41
       -78.0 -16.0 8.0 22.0
000370 00 00 b8 41 00 00 5c c2 00 00 04 c2 00 00 08 c2
       23.0 -55.0 -33.0 -34.0
000380 00 00 5c c2 00 00 00 c2 00 00 40 c0 00 00 80 40
       -55.0 -32.0 -3.0 4.0
000390 00 00 98 41 00 00 d8 41 00 00 60 c1 00 00 f8 c1
       19.0 27.0 -14.0 -31.0
0003a0 00 00 c0 40 00 00 e8 41 00 00 e0 40 00 00 88 41
       6.0 29.0 7.0 17.0
0003b0 00 00 20 c2 00 00 8a c2 00 00 b2 c2 00 00 10 41
       -40.0 -69.0 -89.0 9.0
0003c0 00 00 d4 c2 00 00 be 42 00 00 00 00 00 00 0c 42
       -106.0 95.0 0.0 35.0
0003d0 00 00 44 42 00 00 b0 c1 00 00 a0 41 00 00 00 42
       49.0 -22.0 20.0 32.0
0003e0 00 00 80 41 00 00 98 41 00 00 08 c2 00 00 d0 c1
       16.0 19.0 -34.0 -26.0
0003f0 00 00 08 42 00 00 40 c0 00 00 00 40 00 00 10 c1
       34.0 -3.0 2.0 -9.0

weights f4 [10, 84]
000000 00 00 e8 c1 00 00 98 41 00 00 68 42 00 00 30 41
       -29.0 19.0 58.0 11.0
000010 00 00 30 c1 00 00 18 42 00 00 10 c1 00 00 9e 42
       -11.0 38.0 -9.0 79.0
000020 00 00 bc 42 00 00 28 c2 00 00 a0 41 00 00 80 41
       94.0 -42.0 20.0 16.0
000030 00 00 80 c0 00 00 a0 c0 00 00 c0 c1 00 00 58 42
       -4.0 -5.0 -24.0 54.0
000040 00 00 14 42 00 00 60 42 00 00 80 c0 00 00 88 c1
       37.0 56.0 -4.0 -17.0
000050 00 00 e0 c0 00 00 00 c1 00 00 a0 c1 00 00 54 42
       -7.0 -8.0 -20.0 53.0
000060 00 00 c8 41 00 00 80 3f 00 00 08 c2 00 00 f0 c1
       25.0 1.0 -34.0 -30.0
000070 00 00 e0 40 00 00 6c 42 00 00 20 c1 00 00 a8 41
       7.0 59.0 -10.0 21.0
000080 00 00 a0 c0 00 00 98 c1 00 00 b0 41 00 00 14 42
       -5.0 -19.0 22.0 37.0
000090 00 00 98 c1 00 00 b8 c1 00 00 e0 40 00 00 80 c0
       -19.0 -23.0 7.0 -4.0
0000a0 00 00 a6 42 00 00 c8 c1 00 00 90 41 00 00 98 41
       83.0 -25.0 18.0 19.0
0000b0 00 00 60 c2 00 00 0c c2 00 00 b8 c1 00 00 30 41
       -56.0 -35.0 -23.0 11.0
0000c0 00 00 c8 c1 00 00 c0 40 00 00 90 41 00 00 88 42
       -25.0 6.0 18.0 68.0
0000d0 00 00 86 42 00 00 80 41 00 00 6c 42 00 00 20 41
       67.0 16.0 59.0 10.0
0000e0 00 00 e8 c1 00 00 80 bf 00 00 80 c1 00 00 00 c2
       -29.0 -1.0 -16.0 -32.0
0000f0 00 00 e0 c0 00 00 10 41 00 00 e8 41 00 00 00 40
       -7.0 9.0 29.0 2.0
000100 00 00 f0 41 00 00 e0 c1 00 00 3c 42 00 00 d0 c1
       30.0 -28.0 47.0 -26.0
000110 00 00 20 c2 00 00 88 41 00 00 80 c1 00 00 70 42
       -40.0 17.0 -16.0 60.0
000120 00 00 c8 41 00 00 a0 40 00 00 10 c1 00 00 30 c1
       25.0 5.0 -9.0 -11.0
000130 00 00 92 42 00 00 80 bf 00 00 1c 42 00 00 20 41
       73.0 -1.0 39.0 10.0
000140 00 00 10 c2 00 00 a0 40 00 00 80 3f 00 00 70 c1
       -36.0 5.0 1.0 -15.0
000150 00 00 00 c0 00 00 c0 40 00 00 10 42 00 00 4c c2
       -2.0 6.0 36.0 -51.0
000160 00 00 a0 c0 00 00 08 42 00 00 aa 42 00 00 a0 c1
       -5.0 34.0 85.0 -20.0
000170 00 00 18 42 00 00 60 c1 00 00 d0 41 00 00 e0 40
       38.0 -14.0 26.0 7.0
000180 00 00 0c 42 00 00 c0 c1 00 00 1c 42 00 00 68 c2
       35.0 -24.0 39.0 -58.0
000190 00 00 a8 c1 00 00 aa 42 00 00 f8 41 00 00 a0 40
       -21.0 85.0 31.0 5.0
0001a0 00 00 3c 42 00 00 58 c2 00 00 40 40 00 00 40 c1
       47.0 -54.0 3.0 -12.0
0001b0 00 00 60 41 00 00 20 c1 00 00 00 00 00 00 c8 41
       14.0 -10.0 0.0 25.0
0001c0 00 00 e0 c1 00 00 d8 41 00 00 48 42 00 00 a0 c0
       -28.0 27.0 50.0 -5.0
0001d0 00 00 f8 41 00 00 38 c2 00 00 96 42 00 00 e0 c0
       31.0 -46.0 75.0 -7.0
0001e0 00 00 60 41 00 00 14 42 00 00 e8 c1 00 00 c0 c1
       14.0 37.0 -29.0 -24.0
0001f0 00 00 58 c2 00 00 e0 c0 00 00 e0 c1 00 00 20 c1
       -54.0 -7.0 -28.0 -10.0
000200 00 00 be 42 00 00 40 42 00 00 88 41 00 00 80 c1
       95.0 48.0 17.0 -16.0
000210 00 00 80 3f 00 00 98 c1 00 00 60 42 00 00 78 42
       1.0 -19.0 56.0 62.0
000220 00 00 3c 42 00 00 14 42 00 00 3c 42 00 00 54 c2
       47.0 37.0 47.0 -53.0
000230 00 00 c8 c1 00 00 04 42 00 00 c0 c0 00 00 c8 c1
       -25.0 33.0 -6.0 -25.0
000240 00 00 28 c2 00 00 10 c2 00 00 82 42 00 00 a0 c2
       -42.0 -36.0 65.0 -80.0
000250 00 00 74 c2 00 00 d0 c1 00 00 98 41 00 00 18 42
       -61.0 -26.0 19.0 38.0
000260 00 00 b4 42 00 00 80 c1 00 00 10 42 00 00 b8 c1
       90.0 -16.0 36.0 -23.0
000270 00 00 9c 42 00 00 00 41 00 00 e0 40 00 00 20 41
       78.0 8.0 7.0 10.0
000280 00 00 24 42 00 00 04 c2 00 00 34 42 00 00 3c c2
       41.0 -33.0 45.0 -47.0
000290 00 00 1c c2 00 00 10 42 00 00 c8 c1 00 00 70 c2
       -39.0 36.0 -25.0 -60.0
0002a0 00 00 70 41 00 00 00 c0 00 00 9c 42 00 00 a0 c1
       15.0 -2.0 78.0 -20.0
0002b0 00 00 50 c2 00 00 40 c0 00 00 80 3f 00 00 88 41
       -52.0 -3.0 1.0 17.0
0002c0 00 00 2c 42 00 00 c8 c1 00 00 f8 c1 00 00 b8 41
       43.0 -25.0 -31.0 23.0
0002d0 00 00 a0 c1 00 00 d0 41 00 00 d0 c1 00 00 30 c2
       -20.0 26.0 -26.0 -44.0
0002e0 00 00 24 42 00 00 90 c1 00 00 e0 41 00 00 b8 41
       41.0 -18.0 28.0 23.0
0002f0 00 00 80 c0 00 00 ac 42 00 00 50 c1 00 00 28 42
       -4.0 86.0 -13.0 42.0
000300 00 00 40 c1 00 00 e0 c1 00 00 c8 c1 00 00 b0 41
       -12.0 -28.0 -25.0 22.0
000310 00 00 a0 c0 00 00 a0 40 00 00 38 c2 00 00 a0 c1
       -5.0 5.0 -46.0 -20.0
000320 00 00 3c 42 00 00 30 c1 00 00 00 40 00 00 30 c1
       47.0 -11.0 2.0 -11.0
000330 00 00 90 41 00 00 48 c2 00 00 b0 41 00 00 28 42
       18.0 -50.0 22.0 42.0
000340 00 00 98 c1 00 00 70 c1 00 00 c0 c1 00 00 6c 42
       -19.0 -15.0 -24.0 59.0
000350 00 00 40 41 00 00 b0 41 00 00 d8 c1 00 00 b8 41
       12.0 22.0 -27.0 23.0
000360 00 00 20 c1 00 00 50 c1 00 00 04 c2 00 00 f0 41
       -10.0 -13.0 -33.0 30.0
000370 00 00 80 bf 00 00 98 c1 00 00 30 42 00 00 d8 42
       -1.0 -19.0 44.0 108.0
000380 00 00 00 c0 00 00 60 41 00 00 f8 c1 00 00 e8 41
       -2.0 14.0 -31.0 29.0
000390 00 00 b8 c1 00 00 7c 42 00 00 a0 40 00 00 a8 41
       -23.0 63.0 5.0 21.0
0003a0 00 00 f8 41 00 00 00 00 00 00 c0 c1 00 00 70 41
       31.0 0.0 -24.0 15.0
0003b0 00 00 20 c2 00 00 d0 41 00 00 30 42 00 00 04 42
       -40.0 26.0 44.0 33.0
0003c0 00 00 82 42 00 00 b8 c1 00 00 00 c1 00 00 80 41
       65.0 -23.0 -8.0 16.0
0003d0 00 00 38 c2 00 00 b0 c1 00 00 c0 40 00 00 3c c2
       -46.0 -22.0 6.0 -47.0
0003e0 00 00 00 00 00 00 60 c1 00 00 00 00 00 00 40 c0
       0.0 -14.0 0.0 -3.0
0003f0 00 00 2c c2 00 00 00 42 00 00 38 c2 00 00 7c c2
       -43.0 32.0 -46.0 -63.0
