LAB/AOC_Lab1_2024/AOC_lab1/N26122246_cifar10_best.ckpt (torch, 789614 bytes, 119 tensors)

total_ops f8 [1]
00000000: 0000 0000 0000 0000
0.0

total_params f8 [1]
00000000: 0000 0000 0000 0000
0.0

conv1.weight f4 [64, 3, 3, 3]
00000000: f96b ad3d 091e 623d 1b3f f93d e899 14be
00000010: ac83 ffbb d901 10bd 1661 023e ac45 ef3d
00000020: 3a86 40be 8ec6 3d3e 9401 d93d c830 c63d
00000030: 975c 77bd 477f 9abd df07 123e 2f20 103e
00000040: 340c 053e 5f2f da3a e182 9abd d07b e43d
00000050: 712d f5bd b2c0 1c3e 9d98 c3bc 5aae 933c
00000060: f9be 753c e8fe 913d cd47 2bbe 50d4 263d
00000070: ae65 7b3c d52a 8fbd 4eaf 29be d45c 27be
00000080: 8c17 fe3d 51b4 e9bd bb3a d1bd 2f36 8abd
00000090: 48bf dbbd 4d25 0e3e 46ab a73c cd25 0dbe
000000a0: ef7b 0d3e bd42 323d 90d9 d93d cd2f 81bd
000000b0: a6ec 143e 1d1d 6a3d 2aab d53d e4a8 3dbe
000000c0: 6012 e7bd 3fdc 403e aa93 10bd e5b9 023e
000000d0: db23 993d 46c9 38be e22d b13d aed0 0b3e
000000e0: b8a3 14be b4bf 283e 70a2 783c b40c e9bd
000000f0: 0503 743c e1b1 e0bd 0c57 103e 6cc0 c2bc
00000100: 5da5 56bd f08b da3d 674b 433e f4a8 1cbc
00000110: 4d16 84bd b083 87bd 3756 073e 2eba f73d
00000120: 9ede 913d 34b2 0fbe 17a0 6c3d d02b 053e
00000130: 22ff 113e a792 4abd fff7 0a3e efa5 da3c
00000140: ab99 09be 3eee 2b3e 9a22 e0bd a6ed 803d
00000150: 4211 bb3d e63d e53d 969a 0c3e 5544 9d3d
00000160: 28fd 42be 132a 323e 353c 733d 4c61 1bbe
00000170: 1f37 443d 9994 dcbc 939d b03c 7063 2f3d
00000180: eb41 32bd 376b c23d 7a20 60bd 6298 85bb
00000190: d1af 463c fdc8 31be 2dd0 97bd f776 933d
000001a0: 5110 3abe 9cf5 d9bc 5925 813d 4800 093e
000001b0: 0d9b fc3d 499b 313e bef7 373d 4a46 3b3d
000001c0: 7692 033e 386c afbd bf75 353d df86 20be
000001d0: 08be 1cbe 9702 703d faf0 c9bd 3582 423e
000001e0: be50 91bd 6f17 063d 6f15 9b3c ca74 9fbb
000001f0: 3f60 23be 0aa3 1b3e 6a88 1a3e 1688 2ebe
00000200: deac f4bd 9f99 963c b0c1 04be 6cb7 343e
00000210: bb72 393d 24ea 8dbd 4343 053e e49f e33d
00000220: 72ca 333e 5465 12bb 2b2d 2dbe 6391 17be
00000230: a04a 28bc b3e6 08be 3a12 7abd f050 893b
00000240: 177d 31bd c26f 9b3d 1908 e93d 03bf 31bc
00000250: 0e7a 623c 7426 193e 87e1 67bd 7b54 083e
00000260: 0e1e af3d cf8c 383e 623e c0bd 487d 62bd
00000270: 323e c6bd 74ff 373e 7487 ce3d 8e6a f53d
00000280: 343e 133e 036c 263e b484 5f3d 0e00 133e
00000290: 971b 1c3d 673f b5bd 0501 eabd b28f 96bd
000002a0: 0ede c1bd 38b6 3bbe 403f 1b3e 6dd4 8ebd
000002b0: 1c51 1cbe 0c9f 41bd 8955 ce3d 67f6 2bbe
000002c0: a7f1 2abd 766d 08be eefd f3bd 7147 38bd
000002d0: d7e8 33be a156 aeba bd71 143e 50cb ff3d
000002e0: ba65 bd3d 2419 6a3d c878 78bd e2b8 9a3d
000002f0: 6b31 4f3c 58c5 21be 0341 14bd af4b bf3d
00000300: 8db0 7e3d 0d5b d4bc ce96 2d3c 9639 003e
00000310: ef04 c73d 1261 633b c97c 24be 70fb a8bc
00000320: 5081 3d3e 5f95 febd a57c f73d 32f6 f8bd
00000330: 59f2 3f3e bbf4 71bc a98b ab3d 62b0 a5bd
00000340: 866d 693c e744 80bd 68e3 27be c82c 27be
00000350: 4ca3 973d 4868 d23d 8954 c73d 5d27 9ebd
00000360: 0bfe 433e cd36 1b3e 86b2 18be 775c fcbd
00000370: 098c 243e ea5a 1c3d 31ce 0cbd f156 103e
00000380: 8fcc 17be 7688 e33d f683 f43d 833f 47bd
00000390: c9d1 e83d 5f54 3b3e 7943 d2bd 0934 cebd
000003a0: efe1 3dbe 048b 053e 8339 383e 7421 2a3d
000003b0: ade9 723d e01e 33be 9509 f93b 4d3d 293e
000003c0: f5a7 eabd a679 d93d b62d 333d 61ea 2cbe
000003d0: 5053 393e 3efa a1ba 041a c03d 5069 8fbc
000003e0: c354 dc3d 9307 943d f8dc c03d a5bd 2c3c
000003f0: 0d23 8ebb dfd9 b73d 5fad 013d 8085 6e3c
0.0846786 0.055204425 0.121702395 -0.14511836 -0.007797679 -0.035158012 0.12732348 0.11683211
-0.18801203 0.18532774 0.10596004 0.09677273 -0.060391035 -0.075438075 0.14260815 0.14074777
0.12992936 0.0016646198 -0.075444944 0.11156428 -0.11971558 0.15307882 -0.023876483 0.018027473
0.014999145 0.07128698 -0.16726609 0.04072982 0.015344067 -0.069905914 -0.1657078 -0.16344005
0.12406835 -0.11411346 -0.1021628 -0.06748616 -0.107298434 0.13881417 0.020467412 -0.13783951
0.13816808 0.043520678 0.106372 -0.063079454 0.14543399 0.05715667 0.104330376 -0.18521458
-0.11282802 0.18834017 -0.035297073 0.12766226 0.07477542 -0.1804553 0.086513296 0.13653824
-0.14515579 0.16479379 0.015175447 -0.11379376 0.014893298 -0.10971428 0.14095706 -0.023773395
-0.052403796 0.10671222 0.19071732 -0.009561766 -0.06449566 -0.06616914 0.13216482 0.12096058
0.07122539 -0.14032823 0.05776986 0.13004994 0.14257482 -0.049456265 0.13571166 0.026690451
-0.13437526 0.16790101 -0.109441 0.06295328 0.09134151 0.11193447 0.13730845 0.07679049
-0.19041884 0.17398863 0.05938359 -0.15173835 0.04790413 -0.026926326 0.021559512 0.04281944
-0.043519896 0.09493106 -0.054718472 -0.0040770033 0.012126879 -0.17361827 -0.07412753 0.07200425
-0.18170287 -0.026606373 0.063059516 0.13379014 0.12334261 0.17344393 0.044914 0.04572133
0.12848839 -0.08565563 0.044301745 -0.15676449 -0.15306866 0.05859622 -0.09860416 0.18994983
-0.070954785 0.03273719 0.018931119 -0.0048662173 -0.15954684 0.15198913 0.150911 -0.170441
-0.11947034 0.0183838 -0.12964511 0.17648095 0.04527543 -0.069294244 0.1301394 0.11114481
0.17557696 -0.0022338228 -0.16911761 -0.14801554 -0.010271698 -0.13369255 -0.06105254 0.0041905567
-0.043332186 0.075896755 0.11378498 -0.010848763 0.013823045 0.14956075 -0.056611564 0.13313477
0.08550654 0.18022464 -0.093868986 -0.05529526 -0.096798316 0.17968541 0.100844294 0.11983214
0.14379197 0.1625214 0.054569915 0.1435549 0.03811225 -0.08849984 -0.11425976 -0.073516265
-0.09466182 -0.1833123 0.15160847 -0.06974111 -0.15265316 -0.04727082 0.10074908 -0.16793214
-0.041734364 -0.13323006 -0.119136676 -0.044990007 -0.1756929 -0.0013300964 0.14496513 0.12489951
0.092479184 0.057152882 -0.06066206 0.07554795 0.0126460595 -0.15797937 -0.036194813 0.093406074
0.06218009 -0.025922323 0.010595037 0.12521967 0.09717738 0.003469531 -0.16063227 -0.020627707
0.1850636 -0.12430834 0.12084321 -0.12156333 0.18744792 -0.014767821 0.083762474 -0.08090283
0.014247304 -0.06263142 -0.16395342 -0.16325676 0.07404193 0.10273796 0.09732921 -0.07722352
0.19139878 0.15157624 -0.14911851 -0.12322324 0.16069044 0.03817264 -0.034376327 0.14095666
-0.14824127 0.11110012 0.11939232 -0.048644554 0.11368138 0.18293904 -0.10266776 -0.10068519
-0.18543218 0.13041312 0.17990689 0.04153581 0.05930488 -0.17492247 0.007600019 0.1652729
-0.114578165 0.10618906 0.043744765 -0.16886283 0.18098187 -0.0012357903 0.09379962 -0.017506272
0.107583545 0.07228007 0.094171464 0.010543262 -0.0043376745 0.089771025 0.03165948 0.014558196

bn1.weight f4 [64]
00000000: 8afb 7f3f 0000 803f aefb 7f3f 2d00 803f
00000010: ddf9 7f3f 0b00 803f 9dfb 7f3f f4fb 7f3f
00000020: e305 803f 16fc 7f3f fdfe 7f3f 9bfe 7f3f
00000030: f509 803f 7f00 803f 0300 803f 10fe 7f3f
00000040: 0200 803f 1af8 7f3f dffe 7f3f 0f00 803f
00000050: f3fe 7f3f 4900 803f 0a00 803f 81ff 7f3f
00000060: 6d00 803f 0000 803f 4c00 803f d3fb 7f3f
00000070: a900 803f b3ff 7f3f 25fe 7f3f a6ff 7f3f
00000080: 1bff 7f3f 0000 803f a600 803f 93fc 7f3f
00000090: 8600 803f 01fe 7f3f 3d01 803f b6f4 7f3f
000000a0: 0000 803f 0100 803f f4fe 7f3f 0100 803f
000000b0: d3f7 7f3f 6502 803f 5e03 803f 0700 803f
000000c0: 58ff 7f3f 14fe 7f3f 1d00 803f 30ff 7f3f
000000d0: cbfe 7f3f 74fc 7f3f 8709 803f 0e00 803f
000000e0: 82ff 7f3f a3fe 7f3f 0100 803f 83fe 7f3f
000000f0: 0100 803f d0f8 7f3f d7f4 7f3f 5e01 803f
0.99993193 1.0 0.9999341 1.0000054 0.99990636 1.0000013 0.99993306 0.99993825
1.0001796 0.9999403 0.99998456 0.9999787 1.0003039 1.0000151 1.0000004 0.99997044
1.0000002 0.9998795 0.9999828 1.0000018 0.99998397 1.0000087 1.0000012 0.99999243
1.000013 1.0 1.0000091 0.9999363 1.0000201 0.9999954 0.9999717 0.99999464
0.99998635 1.0 1.0000198 0.9999477 1.000016 0.99996954 1.0000378 0.99982774
1.0 1.0000001 0.999984 1.0000001 0.99987525 1.0000731 1.0001028 1.0000008
0.99999 0.9999707 1.0000035 0.9999876 0.9999816 0.9999459 1.0002908 1.0000017
0.9999925 0.9999792 1.0000001 0.9999773 1.0000001 0.9998903 0.9998297 1.0000417

bn1.bias f4 [64]
00000000: d264 76b7 bc17 b337 1e72 b1b6 0382 f237
00000010: 6f33 79b7 13d4 a8b7 c3c3 2eb8 7c3d 82b8
00000020: f6e4 f638 bb60 24b8 743a 3db7 b94e 16b8
00000030: a581 2f39 78b4 3638 a06c cbb7 caf3 82b8
00000040: afd2 3238 a3b0 05b9 2576 adb7 5b57 5f38
00000050: 83d8 8cb7 535f c438 9f6b 9037 545d 92b7
00000060: d2af 5438 043f 21b8 3296 e538 959b 3ab8
00000070: c4da cc37 9bbb 89b6 a958 d5b7 6808 e535
00000080: 1228 7cb8 d3b6 4238 ad71 2139 b3b4 8ab7
00000090: 1dde ad38 ba71 e9b7 851f 3438 374b b7b8
000000a0: 851a 9a36 530e 6b38 07cb aeb7 2358 3b38
000000b0: 5eb0 efb8 2474 f338 c66c 3739 a694 0e38
000000c0: 5061 83b7 dc45 2637 aa1c a537 500f 06b8
000000d0: 8a06 f4b7 0906 8db8 6fc2 2839 5454 d338
000000e0: 55fe a0b7 493a d0b7 b4fb 9335 58d5 24b8
000000f0: 9ee8 1338 0821 34b8 c400 c5b8 8af4 7937
-1.4686217e-05 2.1349515e-05 -5.288296e-06 2.890919e-05 -1.4853532e-05 -2.0125915e-05 -4.166715e-05 -6.2103354e-05
0.000117728414 -3.9190734e-05 -1.12788875e-05 -3.5836103e-05 0.00016737597 4.3560256e-05 -2.4250068e-05 -6.244292e-05
4.263472e-05 -0.0001274967 -2.0678222e-05 5.32487e-05 -1.6790122e-05 9.363764e-05 1.7216253e-05 -1.7448016e-05
5.0708484e-05 -3.844408e-05 0.00010947547 -4.4490753e-05 2.4420566e-05 -4.1047583e-06 -2.5432864e-05 1.7064276e-06
-6.01188e-05 4.6423473e-05 0.00015396504 -1.6535027e-05 8.290655e-05 -2.7828723e-05 4.29447e-05 -8.74013e-05
4.592645e-06 5.6041707e-05 -2.0836958e-05 4.4666358e-05 -0.00011429259 0.00011608776 0.00017492761 3.3993878e-05
-1.5661732e-05 9.910636e-06 1.968288e-05 -3.196235e-05 -2.9090112e-05 -6.724528e-05 0.0001609416 0.000100769714
-1.9191919e-05 -2.4822673e-05 1.1025609e-06 -3.929934e-05 3.5264173e-05 -4.2946107e-05 -9.3938346e-05 1.4898493e-05

bn1.running_mean f4 [64]
00000000: a56d b1bc c4ef 8bbb 7e9c 13bd 3e66 d73b
00000010: 59a5 0bbc 94ee 8ebd 2d48 7bba 0bc4 703c
00000020: 2997 1abd 877e b4bc 3fe4 bcbc 573f f2bc
00000030: 4a41 30bd 08a9 49bd 6170 193d 53c9 b73c
00000040: 6f91 4e3d 05dd a8bc 3f8f f0bb eaab b53c
00000050: 34ba 53bd 1693 93bc 61a1 ecbc 650c ef3c
00000060: 0b7a a0bd aa51 bf3c c84f 093d d019 ad3c
00000070: cf6d b2bc d3d3 063d 78ca d23c b750 b1bc
00000080: 9d64 093d 1a3e 713c 7d36 313d e251 18bd
00000090: bed3 f53c 67d7 7abc 2c3c 3fbd 5c3c 2bbd
000000a0: f3d8 88bb 80c7 dbbc 4b69 9ebc d71e f53c
000000b0: 03aa 53bc e022 c73c 9c07 cc3c b09a 8fbc
000000c0: ab58 6f3c d528 60bc 2a69 193c cb94 fdbb
000000d0: 8ec6 b2ba 025e e53b baf6 90bd dc88 8a3d
000000e0: 5d45 7a3c 9a21 baba 009c 763c a20c 5eb9
000000f0: eb13 6e3c ad49 10bd e652 26bd 3e4e e3bc
-0.021658728 -0.0042705256 -0.036037914 0.0065734675 -0.008523309 -0.06979099 -0.0009585645 0.014695178
-0.037741814 -0.02203299 -0.023058055 -0.029571218 -0.043031015 -0.049233466 0.03746069 0.022434866
0.050431665 -0.020613203 -0.007341295 0.022176702 -0.05169125 -0.018014472 -0.028885545 0.029180715
-0.07835778 0.02335437 0.03352335 0.021130472 -0.021780876 0.032916855 0.02573131 -0.021644933
0.033543218 0.014724279 0.043264855 -0.037187465 0.030008193 -0.015310145 -0.046688244 -0.04180561
-0.004176253 -0.026828527 -0.019337317 0.029921932 -0.012918952 0.024308622 0.024905972 -0.017529815
0.014608542 -0.01368161 0.009363452 -0.007738685 -0.0013639496 0.006999732 -0.07078309 0.06764385
0.015275327 -0.0014200688 0.015051842 -0.00021176276 0.014531116 -0.035226513 -0.0406064 -0.02774727

bn1.running_var f4 [64]
00000000: 205c fa3d e146 8d3c 171a ff3d 83e4 053d
00000010: ef84 e03c f5ad 383e 2c03 9c3d ad57 f33c
00000020: 70ce 0f3e 6545 d33d 6143 093d d14a c13d
00000030: 2595 293d b65f af3d be76 4a3e 60a1 0e3d
00000040: 8083 e23d 6c36 8e3c b533 d73c b4ef b83c
00000050: 226b 733e 502d 9f3c bf0b 503e e962 2e3d
00000060: c9ac b43d de88 f43d 9ecf 023d cd6c 8d3c
00000070: d3db 033d dcbb 623d f271 8c3d b132 593e
00000080: d1a8 9c3d e6bd f83c 2ac1 723d 9194 f63d
00000090: f45d 0c3d 44f1 093d 0325 d03d f807 0d3e
000000a0: 8a9c e13c 5dcc d33c 545d 033d 0de4 063d
000000b0: 3d9c ac3c 56cc 4e3d 70a1 b93c 5f88 e93c
000000c0: 0d83 213d f2b2 ba3d 1fe7 f43c 05cd 253d
000000d0: 1ef4 873c dadd 253c 1ac7 203e a9a2 1b3e
000000e0: 8bbf 293c d13d 863c e9a6 d93c f1ff bb3c
000000f0: 1687 0f3d fbc9 933d b04c 213d a06c 2b3e
0.12224603 0.017245712 0.12456148 0.03268863 0.027407138 0.1803511 0.076177925 0.029704893
0.14043593 0.1031597 0.033511523 0.09438098 0.041402 0.08563177 0.19771859 0.034821868
0.11060238 0.017359935 0.026269773 0.022575237 0.23771337 0.019430786 0.20316981 0.042574797
0.08822019 0.11940168 0.03193628 0.017263794 0.032192063 0.055354938 0.06857671 0.21210743
0.07649387 0.030363988 0.059266247 0.120400555 0.03426929 0.033677354 0.101633094 0.13772571
0.027540464 0.025854284 0.032071427 0.03293233 0.021070594 0.05048784 0.022659987 0.02850741
0.03943162 0.09116162 0.029895363 0.040478725 0.016595896 0.010123694 0.15700951 0.15198769
0.010360609 0.016386898 0.026568847 0.02294919 0.035040937 0.07216259 0.039379776 0.16740656

conv2.weight f4 [64, 64, 3, 3]
00000000: 236f 263b e99c 5c3c c321 c2bc db64 c73c
00000010: 8f95 c53c fbb8 213d a8fe 31bc 47a4 183d
00000020: 8ca0 243c 6dbd b9bc f6c0 033d f6e0 54bb
00000030: d487 b33c 4303 b73b 59f4 bdbc fef5 4f3b
00000040: 78ef 85bc 8996 e5bc fdaf 2a3d 88d5 243d
00000050: 8331 09bd 3bff 043d 7b27 8d3c 9443 ee3b
00000060: 2def 35bc 9068 273d 4982 28bd b52a 38bb
00000070: f3d7 0f3b 34ec 1d3d 9e43 8cba 1bfe 6c3c
00000080: b95c 263d 3e2f 133c e822 993c 64de 273c
00000090: 1184 f13b 66ef 2ebc 6d00 1ebc 9d80 f1bc
000000a0: 5804 b03b b7be 4e3c af73 bdbc fd2b 973b
000000b0: daf6 5abb 0dba f53c 8b4e 7a3c 7985 c6bc
000000c0: cf3c 813c f312 86bc 0a93 0d3c c287 f3b9
000000d0: 1bb1 65bc 3971 f83c e157 033d 813c a53a
000000e0: 9393 393c 54bd 11bd 2a8a ea3c 995c b93b
000000f0: 4a06 81bc f04d de3c f6ec 923c eb7f a1bc
00000100: a7b7 41bc ff26 893c e393 28bd cbee 93bc
00000110: c4cc a63c f68e cebc 55ff 273d 2079 7f3c
00000120: 39cc b13b 57a4 e53c cebc 12bd dd34 72bc
00000130: 9cd3 043c ff24 15bd cd99 eeba 914b 0f3c
00000140: f4ec c3bc 87f2 37bc 81c1 8fbc d29e 1abb
00000150: 3d22 04bd 9f15 9cbc 7cb4 293d 3807 eabc
00000160: 397a 11bb f66d dc3c 8875 013d adc4 26bd
00000170: 1c84 10bd f54c 293d 6640 1fbb 3821 043c
00000180: c6fc 873c ea15 20bc f804 72bc dac8 093c
00000190: 9b7e 06bd 3cca b9bb e855 163c 777a d53a
000001a0: 2dc1 44bc 7df3 073d 8bab 683b 6de3 48bc
000001b0: 07a0 c83c 73dc 0cbd 925c 28bd a8ed 79b9
000001c0: 22fe 24bd b6e6 d7bc 25c3 403b 0050 1fbc
000001d0: 8235 0d3d b07e 233d 0034 903c 5eaa 1b3d
000001e0: 0aec 15bd 826d 0dbd 9644 d23c 5ba1 0c3c
000001f0: 4c5e 50bb 6c91 83bc fc8f ccbc 0e66 d83c
00000200: ed33 b0bc ff81 a2bc 071b 203d 3639 bf3b
00000210: 8d11 14bd 0fc8 28bb 5e35 a2bc 00c1 edbb
00000220: a19f 203c ba02 bc3c ff4a 9cbc c39e 1ebd
00000230: 218a 00bd f0ff bcbc f0f5 b3bb 89d2 9cbc
00000240: 7c03 243c 3895 123d 3de6 ff3c a76c a3bc
00000250: 858d 1dbd 83f6 f03c b8bf acbb 1023 923c
00000260: b85f da3c 61fe 62bc e1da fb3c 8fa1 1cbd
00000270: ba39 97bc f272 69bc 2c38 24bd 9968 1cbc
00000280: 4f37 03bc 539d 6d3c 8573 d0bc b342 213d
00000290: 2caa cf3c 5358 443c 7411 f5bc f8bb 243d
000002a0: 8a74 c93c 9b5c 1b3d 1c44 84bc d1f9 d6bc
000002b0: d9d4 a1bc 3b67 bdbb be9d abbc e329 72bc
000002c0: 4e37 1b3d e34e 18bd 9dd9 6b3b 5a77 263d
000002d0: 5882 1ebd f9c5 e9bc 0106 503c da64 f7bc
000002e0: cf3a 8dbc 8623 cc3c c705 8b3c 80a8 f03c
000002f0: 2e28 06bc 0d97 f53c 3cbe 01bd 1db2 eab9
00000300: 4da7 533c 772e a0bc 77f0 ef3b 60a3 70bc
00000310: a498 a7bc 1fe3 853c 2795 273d ecc5 1cbc
00000320: c018 10bd 1278 9b3c 7104 c33c 4979 51bc
00000330: 9cfb dabc 9fb7 9bbc e952 333c f9ba 5bbc
00000340: 54de a73b 2a87 2bbd 023d 64bc 63ef 023d
00000350: d2ad f33a 2264 4d3c f57a 3a3c 0a6b 8dbc
00000360: a593 a6bc 2705 c33c 5558 a6bc 479f 16bd
00000370: 3780 ecbc 5b19 5bbc 5fc4 85bc 510a e8bb
00000380: a732 94bc b53c 8c3b a509 dd3c b00c aebc
00000390: 766e 00bd b94d 13bc 5e30 293d 1958 223c
000003a0: 0dd3 6b3c 7bb1 29bc 1303 5a3c 4e8e b6ba
000003b0: 2c28 56bb 283e 46bc 45d3 893c 5184 0b3d
000003c0: f6e9 c3bc d3c7 18bd 7bc1 6fbc 8c41 563c
000003d0: 3f22 0bbd aec7 203c d72a 103d 7752 0ebd
000003e0: 5f1d 12bd 7c81 d3bc cd8e babc 279a a8bc
000003f0: 068e c83c 0ddb 26bd a847 26bd d217 33bb
0.0025395832 0.013465145 -0.02369774 0.024340084 0.024119167 0.03948305 -0.010863937 0.037266042
0.010048043 -0.022673333 0.032166444 -0.003248272 0.021915354 0.0055851056 -0.023187803 0.0031732316
-0.01634954 -0.028025882 0.04167174 0.0402427 -0.033494484 0.03246997 0.01723074 0.0072712395
-0.011104387 0.040871203 -0.041139875 -0.0028101627 0.0021948784 0.03855534 -0.0010701304 0.01446488
0.04061577 0.008983431 0.018693402 0.010245893 0.00737048 -0.010677194 -0.009643656 -0.029480273
0.0053716116 0.012618712 -0.023126451 0.004613398 -0.0033411295 0.029995942 0.015277515 -0.024233567
0.015776066 -0.016366458 0.008641014 -0.0004644972 -0.014019276 0.030327426 0.03206623 0.0012606533
0.011326688 -0.035580948 0.028630335 0.0056567905 -0.01575007 0.027136773 0.017935257 -0.019714316
-0.011823571 0.016742228 -0.04115666 -0.018058201 0.020361312 -0.025214653 0.041014988 0.015592843
0.0054259566 0.028032465 -0.03582459 -0.014783111 0.008107092 -0.036412235 -0.0018203795 0.008746044
-0.023916699 -0.011227257 -0.017548325 -0.00235932 -0.032259215 -0.019053278 0.04143189 -0.028567895
-0.0022198095 0.026907902 0.031606227 -0.04071491 -0.03528224 0.041333158 -0.002429986 0.008064561
0.016600024 -0.00977085 -0.014771692 0.008409703 -0.032835584 -0.00566986 0.009175755 0.0016287108
-0.012008947 0.033191193 0.0035502638 -0.012261254 0.02449037 -0.034389924 -0.041103907 -0.00023835024
-0.040281422 -0.026355129 0.002941319 -0.009723663 0.034474857 0.03991574 0.01760292 0.03800427
-0.036602058 -0.034528263 0.02566747 0.008583392 -0.0031794487 -0.016060553 -0.024971 0.026415851
-0.021509135 -0.019837378 0.039088275 0.0058356775 -0.03614955 -0.002575401 -0.019800838 -0.0072556734
0.0098036835 0.022950519 -0.01907873 -0.038725626 -0.03138173 -0.02307126 -0.0054919645 -0.01914336
0.010010596 0.035786837 0.031237716 -0.01994927 -0.03846504 0.029414421 -0.005271878 0.017838985
0.02665697 -0.013854594 0.030744018 -0.03824001 -0.018460143 -0.0142485965 -0.040092632 -0.009546422
-0.008008792 0.014502841 -0.025445709 0.03937025 0.025349699 0.011983949 -0.029915549 0.040218323
0.024591703 0.037930112 -0.016145758 -0.026242169 -0.019754814 -0.0057801283 -0.02094924 -0.014780494
0.03789454 -0.037184607 0.0035987862 0.040641166 -0.038698524 -0.028536784 0.012696744 -0.030199457
-0.017239956 0.024919283 0.016970528 0.029377222 -0.0081882905 0.029979253 -0.031675562 -0.00044764663
0.012918306 -0.019553406 0.007322367 -0.014687389 -0.020458527 0.016343651 0.040913727 -0.009568673
-0.035179853 0.018978152 0.023805829 -0.012785264 -0.026731305 -0.019008456 0.01094506 -0.013411277
0.005122939 -0.04187695 -0.013930561 0.03196658 0.0018591231 0.012536081 0.011381854 -0.017262954
-0.020334074 0.023806168 -0.020305792 -0.036772992 -0.028869731 -0.013372744 -0.016328989 -0.007081308
-0.01809056 0.004279698 0.026982138 -0.021246284 -0.031355344 -0.0089906985 0.041305892 0.009908699
0.01439358 -0.010357256 0.013306397 -0.0013927908 -0.0032677753 -0.01209978 0.016824374 0.034061734
-0.023915272 -0.037299942 -0.014633532 0.013077151 -0.033968206 0.009813232 0.035197105 -0.034746613
-0.03567254 -0.025818579 -0.02277317 -0.020581318 0.024481785 -0.040736247 -0.04059568 -0.002732743

bn2.weight f4 [64]
00000000: 0200 803f 0000 803f f6ff 7f3f e6ff 7f3f
00000010: 0000 803f 0400 803f f0ff 7f3f 0000 803f
00000020: 0000 803f 0000 803f 0000 803f 0000 803f
00000030: 0000 803f d4ff 7f3f 0000 803f 84fd 7f3f
00000040: 0000 803f 3a00 803f adff 7f3f 0000 803f
00000050: 0000 803f 0000 803f 0000 803f eeff 7f3f
00000060: cbff 7f3f 0000 803f 0000 803f c6ff 7f3f
00000070: 0000 803f 0000 803f 0000 803f 0000 803f
00000080: f9ff 7f3f 0000 803f 0000 803f f9ff 7f3f
00000090: 0000 803f 0000 803f 0000 803f faff 7f3f
000000a0: 0000 803f fdff 7f3f 0000 803f 0000 803f
000000b0: ddff 7f3f 0000 803f 0000 803f 68ff 7f3f
000000c0: fdff 7f3f 0000 803f 92ff 7f3f 0000 803f
000000d0: 0100 803f 0300 803f e8fe 7f3f eaff 7f3f
000000e0: f9ff 7f3f 0000 803f 15fe 7f3f 0000 803f
000000f0: 0000 803f 0000 803f abff 7f3f 0000 803f
1.0000002 1.0 0.9999994 0.99999845 1.0 1.0000005 0.99999905 1.0
1.0 1.0 1.0 1.0 1.0 0.9999974 1.0 0.9999621
1.0 1.0000069 0.99999505 1.0 1.0 1.0 1.0 0.9999989
0.99999684 1.0 1.0 0.99999654 1.0 1.0 1.0 1.0
0.9999996 1.0 1.0 0.9999996 1.0 1.0 1.0 0.99999964
1.0 0.9999998 1.0 1.0 0.9999979 1.0 1.0 0.99999094
0.9999998 1.0 0.99999344 1.0 1.0000001 1.0000004 0.9999833 0.9999987
0.9999996 1.0 0.99997073 1.0 1.0 1.0 0.99999493 1.0

bn2.bias f4 [64]
00000000: 0569 4a37 82d4 1338 24df d5b6 d81b 1ab7
00000010: 21bb 4d38 4d47 3c37 10ac 2436 e996 9ab6
00000020: 1a6b b3b7 180a 3f38 16a0 aab6 c086 fbb7
00000030: a14e 8cb6 ed3c 93b7 9fa0 7737 e04c 58b8
00000040: a907 a235 4517 9138 2cfe 06b7 8748 ea37
00000050: 31a1 e737 178a 2838 90dc 0a38 d86f deb6
00000060: 35ef 60b7 ff10 f536 0730 f637 0e5b eab7
00000070: 27e4 deb6 951a d037 e07f b4b5 07d0 8337
00000080: 6255 adb7 12f4 1338 56b0 cc37 73ac 0ab7
00000090: 5785 aeb6 8e25 aeb7 fe77 da37 8d5a ecb7
000000a0: a8db a4b4 3106 ef36 e515 1438 5219 8538
000000b0: 8e57 e1b7 ec31 bc37 4bcd 5336 1547 66b7
000000c0: b54d 17b7 6ba7 5635 f083 d5b7 7645 e3b6
000000d0: a941 2138 51f9 4038 4a33 0eb8 5d0f 25b8
000000e0: 8829 49b8 35ec de37 2b19 2cb8 513e f937
000000f0: a5b7 4936 3b98 b436 122e 3fb8 a94d 5a37
1.206459e-05 3.5245444e-05 -6.3738717e-06 -9.185598e-06 4.9050086e-05 1.1222274e-05 2.4538058e-06 -4.607126e-06
-2.1388336e-05 4.554735e-05 -5.0850313e-06 -2.998428e-05 -4.1814787e-06 -1.7552136e-05 1.4759745e-05 -5.157001e-05
1.207217e-06 6.918473e-05 -8.046201e-06 2.7928747e-05 2.7612406e-05 4.0182927e-05 3.310718e-05 -6.629136e-06
-1.3407135e-05 7.3035476e-06 2.934785e-05 -2.7937374e-05 -6.642676e-06 2.480791e-05 -1.3448262e-06 1.5713287e-05
-2.0662967e-05 3.527484e-05 2.4400808e-05 -8.265592e-06 -5.201127e-06 -2.0759904e-05 2.60435e-05 -2.8175558e-05
-3.07072e-07 7.123476e-06 3.530634e-05 6.3466505e-05 -2.6862861e-05 2.2434593e-05 3.1560946e-06 -1.3725618e-05
-9.018394e-06 7.996484e-07 -2.5453017e-05 -6.7732135e-06 3.8446542e-05 4.600856e-05 -3.3903205e-05 -3.9353374e-05
-4.7960813e-05 2.6574455e-05 -4.1031435e-05 2.9712131e-05 3.005823e-06 5.38214e-06 -4.5580855e-05 1.3011894e-05

bn2.running_mean f4 [64]
00000000: 45ca c73c 2c4f bebe b2a0 8ebe 7bdc 453d
00000010: 027a 8ebe 5fd6 ad3d bf47 4e3e 3c42 d5bc
00000020: 55f0 4dbe ccf6 5b3d a82b ae3e 8bb2 213d
00000030: 3eb4 5cbe 535c 7f3e 1092 1abe 9bc1 6d3d
00000040: 1e04 b6bd bac5 803d 1f2b d83d 5eb4 f8bd
00000050: b48d 15be cc4a c53c 7dfa 6f3e 249e 4f3e
00000060: ff2d 793e 3095 21be 86c6 4a3e acc8 243e
00000070: a53b adbd 80d6 16be dc8c 183e 3f23 fd3c
00000080: ccd3 833e 41e5 673d dd74 96bc 3e24 e13c
00000090: e173 2cbe a8f2 0dbd e68b 7bbd 3a0c a8bd
000000a0: a374 c43d a700 13bd 45aa 0cbf f7f6 c4bd
000000b0: eae3 0f3e 9828 d0be 0c05 c6bc 276b 5d3e
000000c0: cfb6 5f3e 120c 2abe 855e 893d 6ac5 c5be
000000d0: 926a 39be 0cfa b33e 2feb a03e 4ccb 92be
000000e0: f3b2 f0bd 9634 fe3d b4bc d93e ec46 03be
000000f0: 48b1 8dbe 3fc9 503b ca43 883d d0c1 11be
0.024388442 -0.37169778 -0.27856976 0.04830597 -0.2782746 0.08488154 0.20144556 -0.02603256
-0.2011121 0.05370216 0.34017682 0.039476912 -0.21553132 0.24937563 -0.15094781 0.058045965
-0.08887504 0.06287713 0.105551 -0.12143777 -0.14604837 0.024083517 0.23435397 0.2027517
0.24333952 -0.15779567 0.19802293 0.16092175 -0.08458642 -0.14730263 0.14897484 0.030900596
0.25747526 0.056615118 -0.018366272 0.027483102 -0.1684108 -0.034655243 -0.061412714 -0.08205457
0.09592559 -0.035889294 -0.5494731 -0.09617417 0.14051786 -0.4065597 -0.024172328 0.21622907
0.2184708 -0.16606167 0.06707481 -0.38627177 -0.1810706 0.35151708 0.3142943 -0.28670728
-0.11752882 0.12412374 0.42526782 -0.12820023 -0.27674317 0.0031858233 0.06653555 -0.1423409

bn2.running_var f4 [64]
00000000: f9c6 f03d a1c2 2a3e c697 c63d 7b9a 6a3e
00000010: e277 453d 6596 a93d 8a2e b53d a01c 0c3e
00000020: a837 3f3d dff5 753d c970 c13d 6732 2c3e
00000030: 46e4 3f3e b19d 843d d05f c53d a034 8e3d
00000040: dca3 0d3e ab75 5f3d 20f0 733d 4f9e 433d
00000050: 24a8 883e 2415 713d 65d5 ab3d 3d8d ac3d
00000060: fd1a c23d 844c e73d 35a4 8d3d ca6b fd3d
00000070: 1ec8 813e 7525 8e3d 939e 713d c204 c03d
00000080: c42c 163e a41f bb3d a30c 873d e8d1 913d
00000090: 1fc8 a43d e08a 5a3d 0486 823d 43ca 313e
000000a0: 91c9 713d cbcc 383e a786 1b3e 9612 d73d
000000b0: 8408 963d 0973 633e 98e7 153e 3088 0c3e
000000c0: 2220 033e 45fe 853d 9048 3d3d 8f9a 093e
000000d0: a494 e43d e43c e23d 1e46 083e 5d2d 9e3d
000000e0: f607 f43d c416 f63d b9db bf3d 4b7c cc3d
000000f0: 9030 1d3e 6a19 083e f959 9a3d ac6a d73d
0.11756701 0.16675808 0.09696917 0.22910492 0.048210032 0.082806386 0.08846767 0.13682795
0.046683937 0.060048934 0.0944534 0.16816102 0.18739423 0.0647539 0.096374154 0.06943631
0.13832039 0.054555576 0.059555173 0.047758397 0.2669078 0.058858052 0.08390311 0.084253766
0.09477804 0.11293891 0.06916086 0.12374075 0.2534799 0.06940738 0.05898912 0.093759075
0.14665514 0.09136894 0.06594207 0.071201146 0.080459826 0.053355098 0.06373218 0.17362313
0.05903012 0.18046872 0.15188085 0.10501592 0.07325843 0.22211851 0.14639127 0.13723826
0.12805226 0.06542639 0.04621178 0.13437866 0.111611634 0.1104677 0.13307998 0.07723496
0.11915581 0.12016061 0.09368081 0.099846445 0.15350556 0.13290945 0.07536692 0.10518393

conv3.weight f4 [64, 64, 3, 3]
00000000: 5d5e f9bc ef43 f1bc f765 12bd d0ef 4abb
00000010: 40aa 24bd 41b9 d839 5341 dbbb 7983 f4bb
00000020: 0401 bebb a0f4 49bc 3a67 3e3c c7ae 0cbd
00000030: 10cf 173d dfa4 64bc feb5 acbb 185a 8bbb
00000040: b7a3 22bd 4e36 a23c a45f f03c 78ed 7ebc
00000050: 1da0 8cbc c049 86bc 6025 23bd fa8a ccbc
00000060: a046 a63c 263e 0dbd 78ad 173d 7974 833b
00000070: 7342 d4bc 0caf 533c 4302 df3c 5928 ccbb
00000080: be6f 223d 0ff4 b8bc be8d 05bd 5359 b53c
00000090: 6777 c7bc f36e a9bb 8bc7 c83c f0e1 0fbd
000000a0: e513 413c 596f d7bc d0f9 08bd d97a 7bbc
000000b0: 8013 d83b 9e58 aebc db7e 863c 7223 183d
000000c0: 2055 c5ba c7f8 223d 57ba 87bc 4277 dfbb
000000d0: 89c1 043d 1922 bbbc 4d35 293d e9fc 053d
000000e0: 348a e6bb f509 e83c de84 853a ebd0 533c
000000f0: 3313 22bd bf83 d4bc d414 09bd 1782 4d3c
00000100: 206d e13c 520c abbb 9ed0 42bc d0a3 75bc
00000110: bea6 0bbc b0ee 993c afe9 6d3c 7569 9c3c
00000120: 18ba 5ebc 8bdf 153b 023a 8dbb 17ef 943c
00000130: 8b6c 873c 8fef 3ebc a4c9 d33c 422a b73c
00000140: ed3d 21bc 7a1e 2c3c 6408 033c a394 6b3c
00000150: 0c63 4c3a cf88 773c 059c 863c 078e 21bd
00000160: 4193 e63c 038e f7bc 53ab b53c fc83 8b3c
00000170: 5ec8 e73b 7113 febc 2788 01bc 543e 11bd
00000180: 94f7 d8bc ac16 22bd fb71 8f3b 08b3 a4bb
00000190: 7b50 96bc 5d6b 043d e9a2 6abc 3fcf a2bc
000001a0: 7076 0f3d 4f9d 97bc 7141 b83c 6605 043d
000001b0: ac04 83bc 0607 7dbb 8353 b4bc 63f2 25bc
000001c0: a846 1b3d bef7 1fbc 793b 2b3a 10d5 1a3c
000001d0: 842a 9fbc cb00 e53c 5ff7 b33c ebe5 8dbc
000001e0: e40e 91bc d8d2 0fbd 3926 023d 3610 b6bb
000001f0: a5a5 293d 113d 443c 765d d2bc d502 083d
00000200: a95b 213d 70b1 d7bb 9ea4 fabc c39e 293d
00000210: 9c64 f2bc 4389 1bbd 1d19 e9bc 1f55 a339
00000220: d33c db3c 7877 f73c 8327 8abc 4e8d 16bd
00000230: 8c7f c9ba e93f 353c 7315 ff3b 0af3 68bc
00000240: ed2a f8bc ecb4 adbc 6153 abba 6c0f f3ba
00000250: 8ac0 233b 3b9e 893c 7c8f 853c 9210 8f3c
00000260: 9366 0cbd 4fda 7b3c 3d96 04bd b2d9 04bd
00000270: 6660 01bc 8313 173d 1467 913c 227c fd3c
00000280: 06d7 fb3b 402c 8fbb 86e3 1c3d 34e8 d33c
00000290: 4076 00bd 66d0 58bc a16d 083d 3c10 6b3b
000002a0: 2637 23bd 7645 083d ddab f9bc 644b 143d
000002b0: 25db 9e3c fd26 96bb 6fa0 90bc b800 203d
000002c0: 9195 aa3c a4a6 c63c 43f8 253d 5fe2 233d
000002d0: 7417 00bd 03c9 f1bc 9be5 243d c162 303c
000002e0: f8c8 e43b be45 27bd c4dc ff3b f277 03bc
000002f0: a409 f63c 4f6b eebb 0c8d c6bc a457 803c
00000300: 73ac ff3c 526d 9fbb 4ae9 0f3d fd81 f9bc
00000310: d01c ccbc b2e2 03bd 75c8 1fbd 8eb3 193d
00000320: c675 7abc 34d2 173d f675 0d3d c78b 2ebc
00000330: 5a6e 553c 47f7 c4bc 920c 9e3c bc5a 0e3d
00000340: 9938 acbc 0578 d7bc 757e d93c bef3 033d
00000350: bf0e a83c b106 1cbd 3707 1d3c 71f1 013d
00000360: 06dc b73c 38ec 083d 4894 463c 70ad c0bc
00000370: 729f d8bc 4e2e ea3b e366 0f3d 638e 36bc
00000380: d405 183c 9f04 04bc d545 ef3c 7888 013d
00000390: 823d 0c3d 4bb1 aabc b834 0b3c eae3 ca3c
000003a0: 8bfe 67ba 515b e1bc 7341 a93b 267b 713c
000003b0: 0696 1c3d bbec 5fbc 385e 29bd f306 ffbb
000003c0: 3c4f d53c 9873 94bc 0401 f3bc bb8c f1bc
000003d0: 277c dcbc 7589 2abc 2e42 92bc 9f53 84bb
000003e0: 3c8a c9bc eda9 013d b818 0c3c 1d72 79bc
000003f0: 9ae5 d4bc 56af 623c 06a0 633c b7a0 0e3d
-0.030440504 -0.029451339 -0.035741773 -0.0030965693 -0.040201426 0.00041336755 -0.006691137 -0.007461962
-0.005798461 -0.01232639 0.011621291 -0.03434637 0.037062705 -0.013955324 -0.0052707186 -0.0042526834
-0.039706912 0.019801285 0.02934248 -0.015559547 -0.017166192 -0.016392589 -0.039830565 -0.024968613
0.020297348 -0.034483097 0.037030667 0.0040116874 -0.025910592 0.012920152 0.027222758 -0.0062303958
0.039657347 -0.022577314 -0.03260588 0.02213732 -0.024348928 -0.005170697 0.024509212 -0.03512758
0.011784528 -0.026298212 -0.033441365 -0.015349113 0.0065941215 -0.02128249 0.016417911 0.03714318
-0.0015055276 0.039788034 -0.016568346 -0.0068196366 0.032411132 -0.022843407 0.041310597 0.032711897
-0.007035518 0.02832506 0.0010186692 0.012928228 -0.03956909 -0.025941728 -0.03346713 0.012543223
0.027517855 -0.0052199746 -0.0118905585 -0.014992669 -0.008523641 0.018790573 0.014521047 0.019093255
-0.013594173 0.0022868838 -0.0043098936 0.018180413 0.01653125 -0.011653795 0.025852986 0.022359017
-0.009841424 0.010505313 0.007997606 0.0143786995 0.00077967416 0.015108301 0.016431818 -0.03944209
0.028146388 -0.030219084 0.02217642 0.017030708 0.007073446 -0.03101513 -0.007905996 -0.03545983
-0.026485242 -0.039572403 0.004377601 -0.005026225 -0.018348923 0.032328952 -0.014321067 -0.019874213
0.03502506 -0.018507628 0.022492142 0.03223171 -0.015993439 -0.0038608923 -0.022012478 -0.01012859
0.03790918 -0.009763656 0.00065319944 0.009450212 -0.019429453 0.02795448 0.021968542 -0.017321547
-0.017707296 -0.035113186 0.031774733 -0.0055561317 0.041417737 0.01197745 -0.025679331 0.033205826
0.039394055 -0.0065824315 -0.030596074 0.041411173 -0.02958899 -0.0379727 -0.028454358 0.00031153203
0.026762402 0.030208334 -0.016864544 -0.036755852 -0.0015373095 0.011062601 0.0077845394 -0.014218101
-0.030293906 -0.021204434 -0.0013071113 -0.0018544025 0.0024986588 0.016799083 0.01630377 0.017463956
-0.03427751 0.015371873 -0.03236984 -0.032434173 -0.007896518 0.036883842 0.017749347 0.03094298
0.007685545 -0.0043692887 0.03830292 0.025867559 -0.031362772 -0.01323328 0.033307675 0.003586783
-0.039847516 0.033269368 -0.030477459 0.03620471 0.019391606 -0.0045822845 -0.017654626 0.039063185
0.020823272 0.024249382 0.040519964 0.040010806 -0.031272367 -0.029514795 0.04025803 0.010765732
0.006981965 -0.040837996 0.0078082997 -0.008024203 0.030033894 -0.007275976 -0.024237178 0.01566679
0.03121016 -0.004865327 0.03513459 -0.030457491 -0.024916083 -0.032198615 -0.03900953 0.037524752
-0.015286868 0.0370657 0.034536324 -0.010653443 0.013026798 -0.024043692 0.019293103 0.0347545
-0.021023082 -0.026302347 0.026549557 0.032214873 0.020514844 -0.03809232 0.00958424 0.031724397
0.022443783 0.0334284 0.012120314 -0.023520201 -0.026443217 0.007146633 0.03501023 -0.011142346
0.009278733 -0.008057742 0.029208103 0.031624287 0.034238346 -0.020836493 0.008496456 0.024766881
-0.00088498805 -0.027509363 0.005165273 0.0147388335 0.03822901 -0.013667281 -0.04134962 -0.007782811
0.026038758 -0.018121526 -0.02966357 -0.02948605 -0.02691467 -0.010408749 -0.017853823 -0.0040382887
-0.024602048 0.031656194 0.008550815 -0.015224961 -0.025988389 0.013835749 0.013893133 0.03482124

bn3.weight f4 [64]
00000000: 0000 803f 0000 803f 0000 803f a8ff 7f3f
00000010: 0000 803f 0000 803f 0000 803f feff 7f3f
00000020: 9eff 7f3f 0000 803f 0000 803f a2fb 7f3f
00000030: 0000 803f 0000 803f ffff 7f3f bfff 7f3f
00000040: b8ff 7f3f 0000 803f f9ff 7f3f 0000 803f
00000050: fcff 7f3f 0000 803f 0000 803f 0000 803f
00000060: fdff 7f3f 0000 803f 0000 803f e8ff 7f3f
00000070: 0000 803f 0000 803f 0000 803f f4ff 7f3f
00000080: 0000 803f 0000 803f 0000 803f 0000 803f
00000090: 0000 803f 0000 803f faff 7f3f 0100 803f
000000a0: 0000 803f 0000 803f 0000 803f c8ff 7f3f
000000b0: 0000 803f feff 7f3f 1a00 803f 0000 803f
000000c0: 94fa 7f3f 0000 803f f9ff 7f3f feff 7f3f
000000d0: 0000 803f 0000 803f 0000 803f 0000 803f
000000e0: 0000 803f 0000 803f 14fb 7f3f 0000 803f
000000f0: 0000 803f 0000 803f 0000 803f 0000 803f
1.0 1.0 1.0 0.99999475 1.0 1.0 1.0 0.9999999
0.99999416 1.0 1.0 0.99993336 1.0 1.0 0.99999994 0.9999961
0.9999957 1.0 0.9999996 1.0 0.99999976 1.0 1.0 1.0
0.9999998 1.0 1.0 0.99999857 1.0 1.0 1.0 0.9999993
1.0 1.0 1.0 1.0 1.0 1.0 0.99999964 1.0000001
1.0 1.0 1.0 0.99999666 1.0 0.9999999 1.0000031 1.0
0.99991727 1.0 0.9999996 0.9999999 1.0 1.0 1.0 1.0
1.0 1.0 0.9999249 1.0 1.0 1.0 1.0 1.0

bn3.bias f4 [64]
00000000: 8125 e136 0957 ac35 146f 9037 2718 93b7
00000010: 6bcd f837 c718 6ab6 933d 0838 b95b 51b5
00000020: 1bcc 80b7 6c76 ecb5 a8ed b237 c21d a9b8
00000030: 8fc1 5b38 d32f eb36 b9a2 30b7 b1bb 9ab7
00000040: 9fee 0db8 37b1 5f38 534b 81b6 cd69 fa37
00000050: 992e 12b8 6e71 1938 d428 1937 6c61 0ab7
00000060: 3c16 7bb6 3cc8 65b7 8aec 0cb7 a162 b6b7
00000070: 0645 3f37 44f5 30b6 d617 87b7 b1ea 21b6
00000080: 0e54 8437 3dea 1c35 213d 8fb6 e35b 5837
00000090: d160 7137 f9aa a737 e527 1936 bf23 2138
000000a0: f3a8 66b7 e9a5 1cb5 e624 9937 e7a4 b8b7
000000b0: 5242 eb37 cd28 81b6 f2f6 b538 512f 6037
000000c0: 28ee 4ab8 66d9 ebb5 6d7b 9db6 aa3c 9fb7
000000d0: fa9d ee33 a9ab 9537 d0fb 8c37 f1d7 b537
000000e0: f9e6 9436 c562 ca37 3896 03b8 c6bf b7b7
000000f0: 16be 11b7 ab76 7b36 eff0 10b7 9210 3637
6.7098886e-06 1.2840329e-06 1.7217862e-05 -1.7535012e-05 2.9659559e-05 -3.488314e-06 3.2482272e-05 -7.799204e-07
-1.5353833e-05 -1.7617836e-06 2.132992e-05 -8.064091e-05 5.2393934e-05 7.0091132e-06 -1.0528304e-05 -1.8445631e-05
-3.3839253e-05 5.3332387e-05 -3.8532685e-06 2.985159e-05 -3.485251e-05 3.6583682e-05 9.129017e-06 -8.248124e-06
-3.7414857e-06 -1.3696084e-05 -8.399724e-06 -2.1742018e-05 1.1400558e-05 -2.6368807e-06 -1.6104354e-05 -2.4127478e-06
1.5774767e-05 5.845539e-07 -4.2688484e-06 1.2895997e-05 1.4387261e-05 1.9987567e-05 2.2821998e-06 3.8418682e-05
-1.3748405e-05 -5.835596e-07 1.8256203e-05 -2.2011298e-05 2.8045066e-05 -3.8492494e-06 8.67675e-05 1.3362457e-05
-4.8382353e-05 -1.7572136e-06 -4.6933333e-06 -1.8982526e-05 1.11114744e-07 1.784212e-05 1.680656e-05 2.1677437e-05
4.4376325e-06 2.412627e-05 -3.1372736e-05 -2.1904601e-05 -8.686931e-06 3.7470988e-06 -8.639166e-06 1.0851903e-05

bn3.running_mean f4 [64]
00000000: 1880 2f3e f9cc 03be f5ed b2bc f240 a23d
00000010: d3bc 0d3c b573 b5bd 553c 60be 392a 603d
00000020: 9b4c 483e cd21 57be c7c2 95bd f91b 23be
00000030: 7776 5eba 29d7 dbbd 484b b7bd 7e41 223e
00000040: 3d6f 443e 8469 04be 89b4 0f3e 98d1 823c
00000050: 621b fc3c 1ad2 9dbe 60ca 003e 2368 85be
00000060: 8d29 63be c8ce 1fbe 42e8 37be f132 453c
00000070: ba06 253d d8cd 063e 450b 46be bcd6 9a3d
00000080: 5894 f9bd 3662 583d af2d 36bd 8b20 21bd
00000090: 5103 9bbd 95dd e63c 04df a2bc 345a 5f3d
000000a0: 8300 14be 5590 643e 331b bebc d011 0d3e
000000b0: 4559 a3bc 8b35 e8bd a3cc fe3d ac1a 94bd
000000c0: 1eca 3c3e fa1e 9f3d 8ead 193c d7d2 e1bc
000000d0: acfa 9ebe 6b1b fd3c 5031 8cbe 3d17 113e
000000e0: 5908 c5bd 4135 fbbd 8b10 06bc 89a5 73bd
000000f0: 59d4 e9bd 14d2 7abd ab04 8a3b af0c 1abe
0.17138708 -0.1287116 -0.021841982 0.079225436 0.008650976 -0.0885996 -0.21898015 0.054727767
0.19560473 -0.21008988 -0.073125415 -0.1592864 -0.00084862806 -0.10734398 -0.08949906 0.15845296
0.19183059 -0.12930876 0.14033712 0.015969083 0.030774776 -0.30824357 0.125772 -0.26056013
-0.22183819 -0.15606225 -0.17959693 0.012036071 0.040289618 0.1316446 -0.19340236 0.075604886
-0.121864974 0.052828036 -0.04447716 -0.039337676 -0.07568992 0.02818183 -0.019881733 0.054529384
-0.1445332 0.22320683 -0.023206329 0.13776326 -0.019940028 -0.113383375 0.12441375 -0.0723165
0.18436477 0.0776958 0.009379758 -0.027566357 -0.31050622 0.030896863 -0.27381372 0.14169021
-0.09620733 -0.12266017 -0.008182655 -0.05948404 -0.11417455 -0.061235502 0.0042119822 -0.15043901

bn3.running_var f4 [64]
00000000: 56c2 863d 8c21 bc3d 5d5d 813d 2de1 033e
00000010: 7e71 963d 666a a63d 0e96 8e3d fe04 913d
00000020: 98d7 ea3d 32d5 083e 4344 963e dd74 a03d
00000030: 2aa4 0b3e 2514 e23d cf60 d63d 3f79 ad3d
00000040: 9a58 b53d ee03 053e 6313 033e 48ee d73d
00000050: ff5c b73d 83ea 073e 2d6f 013e 34c3 8f3d
00000060: 1f8c 8a3e b5ae 373e 1c90 203e d8a8 913d
00000070: ddc6 4c3d 5e5a a33d c42c 893d e31f ea3d
00000080: b69d 183e 40f6 bf3d c1a2 963d 75e1 db3d
00000090: 715d d93d 010a cf3d d0b7 ab3d 412f 353e
000000a0: b875 ee3d c1ba d73d b56c 893d d3e6 6e3d
000000b0: e394 f23d 05ed 253e 8e26 b83d 76fa e83d
000000c0: 186a aa3d 8904 8b3d 5c48 7f3d b5b1 083e
000000d0: dcd7 a53d 25ca f93d 29f6 063e c3a4 bb3d
000000e0: b408 053e b609 e13d 4600 b83d 04e7 fe3d
000000f0: f67f 5c3d f220 0e3e 25be 3f3d 0ba7 2d3e
0.065800354 0.09186086 0.06316636 0.12878866 0.07345866 0.08125763 0.069622144 0.0708103
0.114669025 0.13362578 0.29348955 0.0783479 0.13636842 0.110389985 0.104676835 0.084703915
0.0885479 0.1298978 0.12800364 0.105434954 0.089532845 0.13273053 0.12640066 0.07019654
0.2706003 0.17937739 0.15679973 0.071122825 0.04999434 0.079762205 0.066979915 0.11431863
0.14903912 0.0937314 0.073552616 0.10736362 0.10613526 0.1010933 0.08384669 0.17693807
0.11643547 0.10533667 0.06710187 0.0583256 0.11844804 0.16203697 0.08991729 0.11375897
0.08321017 0.067879744 0.062324867 0.1334904 0.080978125 0.12196759 0.1317984 0.09162285
0.12991601 0.1098818 0.08984427 0.124464065 0.05383297 0.13879755 0.046812195 0.16958253

conv4.weight f4 [32, 64, 3, 3]
00000000: 4a44 01bd b1e9 0fbd d5c2 1e3d c50d cbbc
00000010: 4e51 243d 1ccc d53c d2e0 febc 957a 93bc
00000020: 039d 8e3c fdf8 cf3c 5d28 053d cd45 aebc
00000030: 5fe6 1b3d 1923 c7bc 8678 f1bc db8e b43a
00000040: 5a2a 48bc bafa 0b3d 1f1b 4dbc f659 17bd
00000050: dcec 0dbc bb97 2bbc 1f31 0abd e502 76bb
00000060: 8e48 13bd 0c07 b13c 8680 e2bc 1898 80bb
00000070: ecfc a03c 5813 07bd bf74 2bbb 9974 e2ba
00000080: 02dd 60ba ca84 153d 84d5 e93b 6089 9f3b
00000090: 7e7b e73c 52c5 2c3c d5f9 e8bb 182f fb3c
000000a0: 0294 163d 0705 04bd 4a44 0cbd a285 11bc
000000b0: 2bde 053d 20a3 e6bc 8023 c33b 891e 12bd
000000c0: 6cac 8abc a72f e03c 042c d6bc 003c b73b
000000d0: 16d2 fcbc 5a39 bd3c cb8b 113d d35b b43c
000000e0: 209b 59bc 35ea d23c 0ce8 a43b 261c 9abc
000000f0: 1a0a 413c d3c3 18bd 992c f33c d65a d5bc
00000100: 47fb c5bb 5cb3 58bc 574c 9bbc 562d 8d3c
00000110: f51e a13c 7b28 90bb 9ac2 c5bc 3832 113d
00000120: 5e04 bd3c 4cc6 a83b bce0 84bc 68e9 74bc
00000130: 98b4 f73c 7553 183d e05d 3dbc 53ed fdbc
00000140: a357 853c 78c9 c2bc d892 cfbc c7c9 213d
00000150: ab49 203d c68e 143d bc2b 133d 80a3 93bc
00000160: a0ef de3c a98e 9cbc 34c4 22bd c565 083d
00000170: cffd 8f3c ac12 293d f418 f0bc 60ec c63c
00000180: 5f39 8cbc af8c 5b3c 672e cdbc 7972 cebb
00000190: 81d9 24bd 9971 e7bc f9c0 ea3c c9d8 4dbc
000001a0: 9a33 a73c fb84 ca3b 8fea 93ba 5b04 1c3d
000001b0: ac1f 2a3d f894 e3bc 3f28 773c 926a 83bb
000001c0: c920 14bc 4bab 0ebd 8167 07bd 2dcc 503c
000001d0: c5db e23c 8b94 c9bc 5f5b af3c 0299 dabc
000001e0: 609f 193c 1855 bbbc 0805 453c ea5d ffbc
000001f0: 47c8 af3c 81e2 2dbb 99e2 82bb 3d88 253c
00000200: 6ab4 fc3c 5921 90bb bd71 143d 2917 7fbc
00000210: 2e9d cd3c 94bc 5cbc ef04 b4bc fdfe f63a
00000220: c6d2 11bd 926e 6f3c bd8a 083d 2be2 32bb
00000230: c9ac a83b 28b7 e1bc d4a9 3a3c 409f b93c
00000240: 45d1 1f3d 70c8 ba3c 303b 923c 1a0c 803c
00000250: 6121 bcbc d198 153d b2d8 17bc a43f 27bd
00000260: 492d c0bc a070 ae3b 9b57 22bc 2896 ddbc
00000270: e2b3 20bd e7bb 8c3c 8cec c73c 4d11 e33c
00000280: 2dd2 223d 3553 24bd 5bd7 8c3c 27f7 1bbd
00000290: 9b14 293d d1f5 5cbc 1bca 563b 9a6a f13c
000002a0: ed77 3fbc 6918 e6bb 51ef fa3c 811f ebbb
000002b0: fcd9 993b 3ca6 f9bc 6b50 08bc 7edc c4bc
000002c0: 3883 05bd 4fa9 253c 88bf a1bc c751 dcbb
000002d0: 2214 f5bb 0857 9a3a 8747 d5bc 3600 9ebb
000002e0: b9ed 283d 9a7f d13c e19f 42bc 63b8 d8bc
000002f0: c480 933c 6984 b13c 413d 23bd 7849 00bd
00000300: 3540 ec3b 6fb6 773c 988f 7cbb b4e4 eabc
00000310: 47b0 eb3c 61e9 a7bc 63cf 063d e62b 1d3d
00000320: d40b 1cbd d9ad a5bc 3763 23bd 4d5b 283d
00000330: 5927 b2bc 4882 143d b670 323c e995 fdbb
00000340: 6431 623c dfa8 de3c b280 0f3d a78f c9b9
00000350: 01c2 ae3c 6f99 4fbc 5d57 babc 306e cfbb
00000360: 7890 29bd 4ac1 43bb 40d5 6cbc 7504 f4bc
00000370: 1795 49bb 0f29 d33c d89b c3bc 2a3a a73c
00000380: 6c9a a23b 46a2 ad3c 3a39 f6bc 11e8 03bd
00000390: 5bb2 303c 9833 1a3d d888 a83c df34 963c
000003a0: 005f fabb 44e3 493b 60ba d2bb c1f2 9f3c
000003b0: 2c06 973c cbc4 3d3c cd1c 85bc 0f99 e1bb
000003c0: 04e7 3dbc 6fcd f03c f27f bb3b 0650 fdbc
000003d0: 6e76 f23c d9ce 133d 8cff 24bd 518f 023c
000003e0: 11a8 4d3c e934 cebb bdb7 943c bd80 cb3b
000003f0: 8660 853c d91c e53c 67b4 163d 1077 e4bc
-0.031559266 -0.035134975 0.038760025 -0.02478684 0.0401166 0.026098303 -0.031113062 -0.018002788
0.017408853 0.025387282 0.032509197 -0.021273518 0.038061496 -0.024308728 -0.029476415 0.0013775484
-0.012217129 0.03417466 -0.012518673 -0.036951028 -0.008662429 -0.010473187 -0.03373825 -0.0037538346
-0.035957865 0.021609806 -0.027649175 -0.003924381 0.019651853 -0.032977432 -0.0026162115 -0.001727718
-0.00085778546 0.03650359 0.0071360487 0.0048686713 0.028257128 0.010545092 -0.0071098604 0.030662104
0.036762245 -0.032231357 -0.034244813 -0.008881958 0.03268258 -0.028153956 0.0059551597 -0.03567365
-0.01692792 0.027366472 -0.026144035 0.0055918694 -0.030861896 0.023098636 0.035533708 0.022016441
-0.013281614 0.025746444 0.005032545 -0.01881225 0.011782194 -0.037296128 0.029684352 -0.02604429
-0.0060419175 -0.013226356 -0.0189573 0.017233532 0.019668082 -0.004399357 -0.024140645 0.035448283
0.023073371 0.005150592 -0.016220443 -0.0149482265 0.030237481 0.037188966 -0.011558026 -0.030996954
0.01627714 -0.023777708 -0.025338575 0.03949907 0.039132755 0.03626897 0.03593038 -0.018022299
0.027213871 -0.019110994 -0.039737895 0.03330018 0.01757708 0.041277573 -0.029308774 0.024282634
-0.0171172 0.013400241 -0.02504654 -0.0063002673 -0.04024649 -0.02825241 0.02865647 -0.012563893
0.020410348 0.0061804033 -0.0011285114 0.03809009 0.04153411 -0.027780995 0.015085279 -0.004010507
-0.00904102 -0.034831326 -0.033057693 0.012743992 0.027692685 -0.024606964 0.021405874 -0.026684288
0.009376377 -0.022867724 0.012025125 -0.031172711 0.021457804 -0.0026532712 -0.0039942977 0.0101032825
0.030847747 -0.0043985066 0.03624128 -0.015569487 0.025099363 -0.013472695 -0.021975009 0.0018844303
-0.0356014 0.014613764 0.033335436 -0.002729545 0.0051475507 -0.027553156 0.011393029 0.022658944
0.039017934 0.022800654 0.017850488 0.01563077 -0.022965135 0.03652269 -0.009267973 -0.040832177
-0.023459094 0.0053234845 -0.009908582 -0.02704914 -0.03923405 0.017179443 0.024404787 0.02771821
0.03975122 -0.040118415 0.017192533 -0.0380775 0.041279417 -0.013486342 0.0032774273 0.029469777
-0.011686307 -0.007021953 0.030631693 -0.0071753864 0.004695175 -0.030474775 -0.008319954 -0.02403092
-0.032595843 0.010111167 -0.01974465 -0.006723616 -0.0074792067 0.0011775205 -0.026035083 -0.0048218025
0.041242335 0.02557354 -0.011878938 -0.02645511 0.018005736 0.021669583 -0.03985334 -0.031320065
0.0072098025 0.015119179 -0.0038537737 -0.028673507 0.028770579 -0.020497026 0.032912623 0.038371943
-0.038097218 -0.020224499 -0.03988954 0.041102696 -0.021747278 0.03625706 0.01089113 -0.007738818
0.013805721 0.027180133 0.035034843 -0.00038444737 0.021332743 -0.012670859 -0.022746736 -0.006330274
-0.04139754 -0.0029869848 -0.01445514 -0.029787282 -0.003075903 0.025776414 -0.023878023 0.020413477
0.004962256 0.021195542 -0.030056585 -0.032203738 0.010784711 0.03764686 0.020573065 0.018335758
-0.0076407194 0.0030805627 -0.006430909 0.019524934 0.01843556 0.011582564 -0.016249085 -0.006884701
-0.011590723 0.029394833 0.0057220394 -0.030921947 0.029597487 0.036085937 -0.04028277 0.00796874
0.012552277 -0.0062929285 0.01815402 0.006210415 0.016281378 0.027967857 0.03679314 -0.027888805

bn4.weight f4 [32]
00000000: 0000 803f 0000 803f 0000 803f 0000 803f
00000010: f5ff 7f3f 0000 803f 0000 803f 4dfe 7f3f
00000020: 56fe 7f3f f7ff 7f3f 0000 803f f4ff 7f3f
00000030: 0000 803f 81ff 7f3f 2702 803f e0ff 7f3f
00000040: 6600 803f 0000 803f c2ff 7f3f 44fe 7f3f
00000050: 0000 803f aaff 7f3f 10f9 7f3f 0000 803f
00000060: 0000 803f 0000 803f 0000 803f 60fe 7f3f
00000070: faff 7f3f 0000 803f 0000 803f 0000 803f
1.0 1.0 1.0 1.0 0.99999934 1.0 1.0 0.9999741
0.9999746 0.99999946 1.0 0.9999993 1.0 0.99999243 1.0000657 0.9999981
1.0000122 1.0 0.9999963 0.99997354 1.0 0.9999949 0.99989414 1.0
1.0 1.0 1.0 0.9999752 0.99999964 1.0 1.0 1.0

bn4.bias f4 [32]
00000000: 070f 3637 365e 2838 1d91 9537 4509 a337
00000010: 67b0 5f36 331e 87b5 91e2 5c37 9331 92b7
00000020: ac9e 4bb7 44d5 d935 fe65 7337 00d1 8c36
00000030: 84ec 81b4 346f 3ab7 f3f6 2b39 dae1 bf36
00000040: 890a c837 f85e bc37 c864 8eb7 bf8b 64b8
00000050: 164f 5738 0f58 27b7 6b00 c5b8 3233 39b6
00000060: e72a 5837 a9fe a536 10c3 8e37 11b1 c3b7
00000070: 9d3b 2b37 3a81 ef36 80ca ab37 33b1 8937
1.0851544e-05 4.0142062e-05 1.7829758e-05 1.943543e-05 3.333227e-06 -1.0067073e-06 1.3165773e-05 -1.7427641e-05
-1.2136687e-05 1.6229828e-06 1.4507676e-05 4.196656e-06 -2.420021e-07 -1.1112355e-05 0.00016399827 5.718536e-06
2.3846764e-05 2.245557e-05 -1.6974649e-05 -5.4489585e-05 5.133365e-05 -9.974478e-06 -9.39377e-05 -2.7596948e-06
1.2884592e-05 4.9470295e-06 1.7018552e-05 -2.3328264e-05 1.0206274e-05 7.137799e-06 2.0479085e-05 1.6414187e-05

bn4.running_mean f4 [32]
00000000: 7e14 543e 0584 41be 9abc 40bc 7f65 ec3c
00000010: 6ba6 2c3e dee0 cfbd 65a2 4d3d 46f8 fe3d
00000020: c578 7f3e 12d4 b5bd 8270 b3bd ae0b 143d
00000030: 9bcb b9bd 160a 47bd 7e2d 02be 0b2d cd3d
00000040: a8dc 8ebd 2c3a 0abe 7cfc 1d3d d334 e6bd
00000050: 7cb9 9fbd f4fc 683b 2f6f 043c fdd7 0f3d
00000060: 5795 c73d e272 adbb f337 3a3d 5639 62bd
00000070: 1728 86bd adc0 143c f5b2 2abd 8287 63bd
0.20710942 -0.18898018 -0.011763716 0.02885699 0.16860358 -0.10150312 0.0502037 0.12449698
0.24948414 -0.0887834 -0.087616935 0.03614395 -0.09072038 -0.048593603 -0.12712666 0.10018357
-0.069756806 -0.13498753 0.038570866 -0.11240544 -0.0779905 0.0035551162 0.008083149 0.03511809
0.09745281 -0.005293236 0.045463514 -0.05523046 -0.06550615 0.009079141 -0.041674573 -0.055549152

bn4.running_var f4 [32]
00000000: 3000 fc3d fd6d f93d 1fee c33d 18f6 163e
00000010: cd9a cb3d a94c bc3d 8353 db3d 8903 ca3d
00000020: 688b 043e 9f33 bd3d 6b6c c03d f9b4 023e
00000030: df5c da3d 0104 343e 97ac ef3d d1d2 203e
00000040: 02c7 253e 5e16 bc3d fd68 953d fee7 b43d
00000050: cec9 063e cd1f a33d 1370 b43d 3b85 ab3d
00000060: 06dc 673d 1f3a ad3d 13ff 203e f229 243e
00000070: dfba a83d e847 953d e6b5 213e 93cb 373e
0.12304723 0.12179182 0.09566902 0.14742315 0.09941635 0.09194309 0.10709288 0.098639555
0.12943804 0.092383616 0.09395679 0.12764348 0.10662245 0.17579652 0.11702841 0.1570542
0.16189197 0.09183954 0.072954156 0.088333115 0.1316292 0.0796505 0.08810439 0.08375021
0.056606315 0.08458351 0.15722303 0.16031626 0.08238768 0.07289106 0.15792045 0.17948751
