LAB/AOC_Lab1_2024/AOC_lab1/N26122246_fashion_mnist.onnx (onnx, 600541 bytes, 65 tensors)

conv2.weight f4 [64, 64, 3, 3]
0	0xbd4b99c7	-0.0497072
1	0xbd91ce1b	-0.071193896
2	0xbd8eba47	-0.06969123
3	0xbd321f14	-0.04348667
4	0xbcbafa7a	-0.022824515
5	0xbd96e3cd	-0.07367668
6	0xbd87886c	-0.06617817
7	0xbd050d0f	-0.032483157
8	0xbdbef63f	-0.093243115
9	0xbdb2e4f1	-0.08735073
10	0xbd2f7671	-0.042837564
11	0xbd179d3a	-0.037015177
12	0xbcc3b98f	-0.023892192
13	0xbd7795b8	-0.060445517
14	0xbdda93a4	-0.106726915
15	0xbd272987	-0.040811088
16	0xbd73e989	-0.05954889
17	0xbddd27f1	-0.10798634
18	0xbd86ffdb	-0.06591769
19	0xbdd276e2	-0.10276581
20	0xbdbc68f0	-0.09199703
21	0xbd9921fb	-0.074771844
22	0xbd666799	-0.056251142
23	0xbcb53463	-0.022119706
24	0xbcda288c	-0.026630662
25	0xbd80e22d	-0.062931396
26	0xbdb507b9	-0.088393636
27	0xbd937a94	-0.07201114
28	0xbd34d899	-0.044151876
29	0xbb2c2b03	-0.0026270754
30	0xbc99f704	-0.018794544
31	0xbd7bfa40	-0.061517954
32	0xbae7ef27	-0.0017695174
33	0xbc40a7ee	-0.011758788
34	0xbccee8ea	-0.025257546
35	0xbcec5fab	-0.028854212
36	0xbd0ae2c4	-0.033907667
37	0xbd3d20b8	-0.04617378
38	0xbcf453da	-0.02982514
39	0xbd9655ec	-0.07340607
40	0xbdaae8d9	-0.083451934
41	0xbdbdfd24	-0.09276798
42	0xbda91ef3	-0.08257856
43	0xbd8d0034	-0.06884804
44	0xbd111606	-0.035421394
45	0xbd29022f	-0.041261848
46	0xbd6a60d6	-0.057221256
47	0xbdbb1ee0	-0.09136748
48	0xbd8cc8ae	-0.06874214
49	0xbdf8d1d8	-0.121493995
50	0xbdc06311	-0.093938954
51	0xbdd45769	-0.10368235
52	0xbdd65b5b	-0.104666434
53	0xbda40596	-0.08008878
54	0xbd81fe2f	-0.0634731
55	0xbdad05ff	-0.08448409
56	0xbd2c9a50	-0.04213935
57	0xbdbf00b6	-0.093263075
58	0xbd812a10	-0.06306851
59	0xbd13bf74	-0.036071256
60	0xbdc6c764	-0.097059995
61	0xbcea7ea4	-0.02862484
62	0xbda4a5e7	-0.08039456
63	0xbdb25da0	-0.08709264
64	0xbc80f011	-0.015739473
65	0xbb9bc18a	-0.0047532963
66	0xbcfa4c1a	-0.030553866
67	0xbcf5abe3	-0.029989189
68	0xbd0ed87c	-0.034874424
69	0xbd84d1d8	-0.06485337
70	0xbd6c40de	-0.05767905
71	0xbd445245	-0.04793002
72	0xbdc5aa78	-0.09651655
73	0xbd9251b7	-0.07144492
74	0xbd8387d9	-0.06422395
75	0xbdadc11f	-0.084841006
76	0xbd97860c	-0.07398614
77	0xbda7c4ec	-0.08191857
78	0xbd8196ef	-0.063276164
79	0xbdc0e238	-0.09418148
80	0xbd4ae96f	-0.049539026
81	0xbd45da2b	-0.048303764
82	0xbd8d56b6	-0.069013044
83	0xbd8078e0	-0.06273055
84	0xbdf8dd5f	-0.12151598
85	0xbdfdbd94	-0.12389675
86	0xbd87efa5	-0.066375054
87	0xbdd698c7	-0.10478359
88	0xbd87140f	-0.06595623
89	0xbd399800	-0.045310974
90	0xbd3c5365	-0.04597797
91	0xbd84f28a	-0.06491573
92	0xbdc971d7	-0.09836166
93	0xbdc416c5	-0.095746554
94	0xbdde640f	-0.108589284
95	0xbd670eaf	-0.056410488
96	0xbdb8a7b4	-0.09016362
97	0xbd44b889	-0.04802755
98	0xbdaabae6	-0.08336429
99	0xbda33e63	-0.07970884
100	0xbda996c9	-0.08280713
101	0xbd207c7a	-0.03918121
102	0xbdc011d3	-0.093784
103	0xbd57582d	-0.052574325
104	0xbd1cec14	-0.03831108
105	0xbd94f564	-0.07273367
106	0xbd3fd83b	-0.046837073
107	0xbcb62de0	-0.022238672
108	0xbd829bd1	-0.06377376
109	0xbcbc8f61	-0.023017587
110	0xbcc14ad1	-0.023595246
111	0xbd528052	-0.051391907
112	0x3a1950f6	0.0005848551
113	0x3aee2d71	0.0018171502
114	0xbcde540c	-0.027139686
115	0xbbdc5ff8	-0.0067253076
116	0xbb50c7ff	-0.0031857488
117	0xbd8f196e	-0.06987272
118	0xbd5e9e34	-0.054350093
119	0xbdb51315	-0.0884153
120	0xbd968553	-0.07349648
121	0xbd61c733	-0.05512161
122	0xbdc103af	-0.09424531
123	0xbdc1f5b1	-0.0947069
124	0xbdde420a	-0.1085244
125	0xbd83051b	-0.06397458
126	0xba9d821d	-0.0012016926
127	0xbd5c68ff	-0.05381107
128	0xbd52abc3	-0.051433336
129	0xbd43d3c7	-0.04780939
130	0xbd424b34	-0.047435
131	0xbd1f3ebc	-0.038878188
132	0xbd8d172c	-0.06889185
133	0xbd69ff95	-0.057128508
134	0xbcec43dd	-0.028840953
135	0xbcc4209a	-0.023941327
136	0xbd8becc1	-0.068322666
137	0xbd194a7c	-0.03742455
138	0xbccb4aae	-0.024815883
139	0x3ba21170	0.0049459264
140	0xbd4c1042	-0.049820192
141	0xbd8efd5a	-0.06981917
142	0xbc0fad83	-0.008769396
143	0xbd29b1ca	-0.04142932
144	0xbcd0ca09	-0.025486963
145	0xbd89a0c1	-0.067201145
146	0xbd3e3e20	-0.046445966
147	0xbd8af94e	-0.06785832
148	0xbd9100b8	-0.07080215
149	0xbd1d2d5b	-0.038373332
150	0xbd58cd61	-0.05293024
151	0xbdabdc44	-0.08391622
152	0xbd12172f	-0.03566664
153	0xbd82ad83	-0.06380751
154	0xbd0806f2	-0.03320975
155	0xbd639112	-0.05555827
156	0xbd00ca98	-0.03144321
157	0xbdbdd10b	-0.092683874
158	0xbd391ca7	-0.04519334
159	0xbd61edb0	-0.055158317
160	0xbdc50d4a	-0.09621675
161	0xbd9cd8d2	-0.07658543
162	0xbd4d8346	-0.05017402
163	0xbdb59152	-0.08865608
164	0xbc3ce5a9	-0.011529365
165	0xbd1d30ca	-0.038376607
166	0xbca9638f	-0.020677356
167	0xbd95aeed	-0.07308755
168	0xbca340a0	-0.019928277
169	0xbcf31d59	-0.02967708
170	0xbd2569bd	-0.040384043
171	0xbdec222c	-0.11529955
172	0xbdd31da7	-0.1030839
173	0xbd9efaa8	-0.07762653
174	0xbd73d709	-0.059531245
175	0xbdb133c2	-0.0865245
176	0xbd76caec	-0.060252115
177	0xbddbbc31	-0.10729254
178	0xbd9ba067	-0.07598954
179	0xbd83269d	-0.06403849
180	0xbd70733f	-0.058703657
181	0xbd8b88ef	-0.068132274
182	0xbddd93f7	-0.10819238
183	0xbdafb4d3	-0.08579411
184	0xbdc0fbcb	-0.09423026
185	0xbd9622db	-0.07330867
186	0xbd93c7b3	-0.07215824
187	0xbd99e8ee	-0.07515131
188	0xbd51493c	-0.051095232
189	0x39386854	0.00017586473
190	0xbd8f5afc	-0.06999776
191	0xbd26daf5	-0.040736157
192	0xbd512cea	-0.051068224
193	0xbd6c35a2	-0.057668336
194	0xbc8d2d3d	-0.017233485
195	0x3c1fd15f	0.009754508
196	0xbc9fb5db	-0.019495895
197	0xbbf0d540	-0.00734964
198	0xbd0aaa76	-0.03385397
199	0xbd45bdcd	-0.04827671
200	0xbceb2705	-0.02870513
201	0xbd3f3947	-0.046685483
202	0xbdc622e4	-0.096746236
203	0xbd12af4f	-0.03581172
204	0xbdcea0f7	-0.10089295
205	0xbdaa856d	-0.0832623
206	0xbdd10dde	-0.10207723
207	0xbda225c8	-0.079173625
208	0xbd129ccf	-0.035794076
209	0xbda5ee34	-0.08102074
210	0xbce3ae4a	-0.027793068
211	0xbd79d16e	-0.060990743
212	0xbd26d866	-0.040733717
213	0xbd196ea4	-0.03745903
214	0xbd84b339	-0.064794965
215	0xbceee37d	-0.02916121
216	0xbd99b985	-0.07506088
217	0xbd35e238	-0.044405192
218	0xbca14d5b	-0.019690206
219	0xbd136226	-0.035982274
220	0xbd91d887	-0.071213774
221	0xbd39903f	-0.04530358
222	0xbd8d2a9e	-0.06892894
223	0xbd46ffe9	-0.0485839
224	0xbd1f5484	-0.03889896
225	0xbd68a721	-0.05680001
226	0xbdbb9234	-0.091587454
227	0xbcb8e439	-0.022569763
228	0xbd67d597	-0.05660018
229	0xbd6b7940	-0.05748868
230	0xbdc83dfd	-0.09777448
231	0xbd20e7d3	-0.039283585
232	0xbdc0b44c	-0.09409389
233	0xbd0bad4e	-0.034100823
234	0xbd1fc46f	-0.039005693
235	0xbcc572c2	-0.024102572
236	0xbdb6d7cd	-0.089278795
237	0xbd784ba0	-0.060618997
238	0xbd4ade65	-0.0495285
239	0xbd133362	-0.035937674
240	0xbdbd0e29	-0.092312165
241	0xbd6dbf26	-0.05804362
242	0xbde1cd12	-0.11025442
243	0xbdaffc79	-0.08593077
244	0xbdcc2068	-0.099671185
245	0xbdc0b123	-0.09408786
246	0xbd98ebb2	-0.0746683
247	0xbccde47e	-0.025133368
248	0xbdbd3ddf	-0.092403166
249	0xbd767f61	-0.06018007
250	0xbd02a359	-0.03189406
251	0xbd33a930	-0.04386252
252	0xbc50c669	-0.012742617
253	0xbc9fd852	-0.01951233
254	0xbd0ffdfd	-0.03515433
255	0xbdb8d673	-0.09025278

bn2.weight f4 [64]
0	0x3f91f632	1.1403258
1	0x3f6d8cb8	0.92792845
2	0x3f82b04f	1.0210055
3	0x3f81d5d0	1.0143375
4	0x3f8c4af4	1.0960374
5	0x3f850b3f	1.0394057
6	0x3f8b3475	1.0875384
7	0x3f8775ba	1.0582802
8	0x3f7e54f1	0.9934836
9	0x3f81111b	1.0083345
10	0x3f8c3964	1.0955014
11	0x3f808a54	1.0042214
12	0x3f828a41	1.0198442
13	0x3f76b9a9	0.96377045
14	0x3f7dc482	0.9912797
15	0x3f902610	1.1261616
16	0x3f84c187	1.037156
17	0x3f8cf8ed	1.1013466
18	0x3f84eff3	1.0385727
19	0x3f8aa9fd	1.0833126
20	0x3f83e10a	1.0303051
21	0x3f80a9eb	1.0051855
22	0x3f7ebcf5	0.99507076
23	0x3f8ee9a5	1.1165053
24	0x3f888f70	1.0668774
25	0x3f8db284	1.1070104
26	0x3f8c57ea	1.0964329
27	0x3f8d0152	1.1016028
28	0x3f979244	1.1841512
29	0x3f92dde5	1.1473967
30	0x3f90223d	1.1260449
31	0x3f7b0201	0.9804993
32	0x3f8402cf	1.0313357
33	0x3f841400	1.0318604
34	0x3f983101	1.1889955
35	0x3f8c44bc	1.0958476
36	0x3f95477d	1.1662441
37	0x3f886861	1.0656854
38	0x3f8f98cc	1.1218505
39	0x3f893e1d	1.072208
40	0x3f895043	1.0727619
41	0x3f7b3a9a	0.98136294
42	0x3f8b9a44	1.0906453
43	0x3f8d03af	1.1016749
44	0x3f830272	1.0235121
45	0x3f80e448	1.0069666
46	0x3f83c8f7	1.0295705
47	0x3f800826	1.0002487
48	0x3f7eb36c	0.99492526
49	0x3f846a5e	1.0344961
50	0x3f783d54	0.9696858
51	0x3f7c64ee	0.98591506
52	0x3f8c1ee6	1.094693
53	0x3f862424	1.0479779
54	0x3f827aba	1.0193703
55	0x3f8ba855	1.0910746
56	0x3f8ac58a	1.0841534
57	0x3f9410d2	1.1567633
58	0x3f7e71b8	0.9939227
59	0x3f84ba3f	1.0369338
60	0x3f81d437	1.0142888
61	0x3f783012	0.9694835
62	0x3f88265c	1.0636706
63	0x3f8bf11f	1.0932959

bn2.bias f4 [64]
0	0x3dea5238	0.11441463
1	0xbcfeb9c0	-0.031094432
2	0xbdf290af	-0.118440025
3	0x3d64ff88	0.055907756
4	0x3deea083	0.11651709
5	0x3d95f151	0.07321418
6	0xbd147204	-0.036241546
7	0xbd67f769	-0.056632433
8	0x3bda7b40	0.0066675246
9	0x3cf5fc60	0.030027568
10	0x3de32d43	0.11092617
11	0x3d722852	0.059120484
12	0x3d279472	0.040913053
13	0xbdcf95fa	-0.10136028
14	0xbdacc7dc	-0.08436558
15	0x3ddd82d1	0.10815967
16	0x3d88cf56	0.06680171
17	0x3dce2542	0.100657
18	0xbd89bdaa	-0.06725629
19	0x3de9a640	0.11408663
20	0xbdd773e4	-0.10520151
21	0x3cea5148	0.028603211
22	0xbd884b4f	-0.06654989
23	0x3dc8cbe0	0.09804511
24	0xbd4fc606	-0.05072596
25	0x3de353e5	0.11099986
26	0x3c4312d0	0.011906341
27	0xbd55b1b7	-0.052171435
28	0x3e168048	0.14697373
29	0x3ddc1cc3	0.10747673
30	0x3de6b513	0.11265006
31	0xbc14c14e	-0.009079291
32	0xbd8fb293	-0.07016482
33	0xbdb6cc69	-0.08925707
34	0x3e09f840	0.13473606
35	0x3dd355a8	0.10319072
36	0x3deabbfa	0.11461635
37	0x3d3e0ef2	0.04640097
38	0x3dff9722	0.12479998
39	0xbd3195fd	-0.04335593
40	0x3da6c0a7	0.08142214
41	0x3acf044e	0.001579413
42	0x3dd2ea60	0.1029861
43	0x3ddab4a9	0.106789894
44	0xbdee0c79	-0.11623473
45	0xbdffde9f	-0.124936335
46	0xbd801454	-0.06253877
47	0xbe0c858e	-0.13722822
48	0xbd8018cf	-0.06254732
49	0xbd4319ad	-0.04763191
50	0xbcaae1c1	-0.020859601
51	0x3d094cd0	0.03352052
52	0x3dc62d5b	0.096766196
53	0xbda97d3e	-0.08275841
54	0xbe010918	-0.12601125
55	0x3debfb56	0.11522548
56	0x3dad71ce	0.08468972
57	0x3dea4dc2	0.114406124
58	0xbd82476b	-0.06361278
59	0x3db18d34	0.086695105
60	0xbdcb460d	-0.099254705
61	0xbe058ae7	-0.13041268
62	0xbd9841cf	-0.07434427
63	0x3da838b4	0.0821394

bn2.running_mean f4 [64]
0	0xc1421c2e	-12.13188
1	0xbe8cc7a8	-0.27496076
2	0x3f6c0ef1	0.922103
3	0xc1181866	-9.505957
4	0xc13b59c1	-11.709413
5	0xc13f7e2a	-11.968302
6	0x40b038f7	5.5069537
7	0x411c100f	9.753921
8	0xc079f5bf	-3.9056242
9	0xc097df43	-4.7460036
10	0xc1419de1	-12.101045
11	0xc1451b12	-12.319109
12	0xc149d167	-12.613624
13	0x3fb46c01	1.409546
14	0x3dc7854f	0.097422235
15	0xc1330a14	-11.1899605
16	0x4113bd07	9.233649
17	0xc13b0d07	-11.6906805
18	0x40914645	4.539828
19	0x409e6533	4.9498534
20	0x3f919091	1.1372243
21	0xc133aec3	-11.230166
22	0x3f70c796	0.94054544
23	0xc1371237	-11.441947
24	0x40eade7c	7.3396587
25	0xc1399711	-11.599381
26	0xc1245d1a	-10.27273
27	0x40e689e3	7.204332
28	0xc1420755	-12.12679
29	0xc13e289b	-11.884913
30	0xc13bca93	-11.736957
31	0x411627fe	9.384764
32	0x3fa06872	1.2531874
33	0x3f92855f	1.1446952
34	0xc14d9f1f	-12.851348
35	0xc14cfd9d	-12.811917
36	0xc1474d8d	-12.456433
37	0x413bb7c8	11.732368
38	0xc1303676	-11.013296
39	0x41187189	9.527719
40	0xc13ef18f	-11.933974
41	0xbffb06f0	-1.9611492
42	0xc1544f92	-13.269426
43	0xc13d15a8	-11.817787
44	0x3fd17dae	1.6366479
45	0x3f7c7c27	0.9862694
46	0x401ddf82	2.4667668
47	0x3fa429dc	1.2825274
48	0x3ee2063f	0.4414539
49	0xc08f4c00	-4.4780273
50	0xc09e0894	-4.938547
51	0xc130eed2	-11.058306
52	0xc1612826	-14.072302
53	0x3f9e4f4f	1.2367953
54	0x3fbfa6a3	1.4972728
55	0xc14197df	-12.099578
56	0xc1364f19	-11.394311
57	0xc139d7c2	-11.615175
58	0xbfd479a9	-1.6599628
59	0xc13ed2f5	-11.926503
60	0x3dc9e622	0.098583475
61	0x3fcddc9b	1.6082948
62	0x411f6cd2	9.964067
63	0xc14c3a7a	-12.7642765

bn2.running_var f4 [64]
0	0x428fde9d	71.93479
1	0x424c46ca	51.06913
2	0x408d3f8a	4.414006
3	0x42166097	37.594326
4	0x42869eb9	67.310005
5	0x4262b773	56.67915
6	0x41b0664d	22.049952
7	0x4236745c	45.613632
8	0x41c5a0ee	24.703579
9	0x41eb72c8	29.431046
10	0x42950c1b	74.52364
11	0x428a9ac7	69.3023
12	0x42b44a66	90.14531
13	0x41040126	8.25028
14	0x408a1c85	4.3159814
15	0x42547d0d	53.12212
16	0x4211fe92	36.498604
17	0x428b1b5d	69.553444
18	0x41c51778	24.63646
19	0x410fa463	8.977633
20	0x409c5880	4.885803
21	0x425dcc1e	55.449333
22	0x40dfd6ec	6.9949856
23	0x425ff89d	55.992786
24	0x41dd6c5e	27.677914
25	0x428e8c34	71.273834
26	0x42694776	58.319786
27	0x41cce88b	25.613546
28	0x429a2dc4	77.089386
29	0x4290d439	72.4145
30	0x4293bd21	73.86939
31	0x41fe526e	31.790249
32	0x411f102e	9.94145
33	0x40efa19c	7.4884777
34	0x4299f447	76.977104
35	0x42961118	75.03339
36	0x4294fa41	74.48878
37	0x422fca8f	43.94781
38	0x427068ed	60.102467
39	0x4223f633	40.99043
40	0x428bd37d	69.91306
41	0x4058279f	3.3774183
42	0x429fd2c6	79.91167
43	0x42993636	76.60588
44	0x40c78297	6.234691
45	0x40d0942f	6.518089
46	0x40e6c9c7	7.212131
47	0x41176181	9.461305
48	0x40b1cb46	5.5560637
49	0x4116762a	9.403849
50	0x4122a971	10.166368
51	0x4272e0ce	60.719536
52	0x42aa2e83	85.09084
53	0x4113c7ba	9.236261
54	0x4109ee84	8.620731
55	0x429fa5ec	79.824066
56	0x425f2298	55.783783
57	0x428b8123	69.75222
58	0x402e646f	2.72488
59	0x429a13c2	77.03859
60	0x40a48b4b	5.1420035
61	0x413d1cea	11.819559
62	0x42220f09	40.514683
63	0x4293b7c6	73.85893

conv3.weight f4 [64, 64, 3, 3]
0	0xbd8c9676	-0.06864636
1	0xbd294273	-0.041323137
2	0xbcac4a34	-0.021031477
3	0xbdc0504d	-0.09390316
4	0xbccf7745	-0.025325427
5	0xbd6e2bee	-0.058147363
6	0xbda119db	-0.0786626
7	0xbd13e7b0	-0.036109626
8	0xbddf2dab	-0.10897382
9	0x3b9ce892	0.0047884667
10	0x3d22ccb9	0.03974602
11	0x3d1f3faf	0.038879093
12	0xbc83a223	-0.016068524
13	0xbc84d0c3	-0.016212827
14	0x3c9e8b54	0.019353546
15	0xbd2d4e24	-0.04231085
16	0x3c303d3f	0.01075679
17	0xbd1f7fab	-0.038940113
18	0xbca72c85	-0.02040697
19	0xbc301f47	-0.010749645
20	0x3d48c0ac	0.04901187
21	0x3cd5dba8	0.026105717
22	0x3cca9163	0.024727529
23	0x3d00877e	0.031379215
24	0x3b642938	0.0034814607
25	0xbcd201ac	-0.025635563
26	0x3c30c15b	0.010788287
27	0xbd2831fa	-0.041063286
28	0xbd5fb443	-0.05461527
29	0xbd56ee8d	-0.052473594
30	0xbd361f39	-0.04446337
31	0xbd8ad6ff	-0.067792885
32	0xbd83f6f5	-0.06443588
33	0xbdb56b1d	-0.08858321
34	0xbdb4b01f	-0.08822655
35	0xbdcbc92c	-0.0995048
36	0xbddaa0a9	-0.10675175
37	0xbd36f0dd	-0.0446633
38	0xbca96ee9	-0.020682769
39	0xbda8a4df	-0.08234572
40	0xbd80ef0d	-0.06295595
41	0xbd885437	-0.06656688
42	0xbde00377	-0.10938161
43	0xbd83161b	-0.06400701
44	0xbda43021	-0.08016992
45	0xbdabf575	-0.083964266
46	0xbc510ee3	-0.012759897
47	0xbc49b8a6	-0.01231209
48	0xbd9ec527	-0.077524476
49	0xbcf81ab3	-0.030286169
50	0xbd848c70	-0.06472099
51	0xbd36af79	-0.044600938
52	0xbc2ca36b	-0.010537009
53	0xbba6c668	-0.00508957
54	0x3d333f4a	0.04376153
55	0x3d5cc9ec	0.053903505
56	0xbc7a8aef	-0.015291913
57	0x3d1d1714	0.038352087
58	0x3d126701	0.035742763
59	0x3c540d53	0.01294263
60	0xbc0db1e2	-0.008648368
61	0x3ca128e0	0.019672811
62	0x3cdaa838	0.026691541
63	0x3d7a50ba	0.061112143
64	0x3e00e292	0.1258643
65	0x3d726fe2	0.05918873
66	0x3df34cd5	0.11879889
67	0x3d9814cb	0.07425841
68	0x3d510ddd	0.05103861
69	0x3dc7483b	0.09730574
70	0x3de2a08b	0.110657774
71	0x3d5885d6	0.05286201
72	0xbc8c7fa9	-0.017150717
73	0xbbb995f9	-0.00566363
74	0x3d58d495	0.05293711
75	0xbcb0e706	-0.021594536
76	0x3ce352a7	0.027749373
77	0x3be6dfa1	0.0070457016
78	0x3ccc483c	0.024936788
79	0xbc15050a	-0.00909544
80	0xbc92e5ae	-0.017931785
81	0x3c0004d8	0.007813655
82	0xba5cb217	-0.00084188714
83	0x3d7e00b2	0.06201238
84	0x3a95096f	0.0011370609
85	0x3cc4537a	0.023965586
86	0x3cbec1db	0.023285797
87	0x3cc4953b	0.02399694
88	0x3cfa6e37	0.030570133
89	0x3d732e74	0.059370473
90	0xbdb1c122	-0.08679415
91	0xbdc12a83	-0.094319366
92	0xbdafa089	-0.085755415
93	0xbd92fc2e	-0.07177006
94	0xbd8dc485	-0.06922249
95	0xbcae9076	-0.021309119
96	0xbdcce6ac	-0.10004935
97	0xbdc69cbe	-0.09697865
98	0xbd9967ea	-0.07490523
99	0xbda03657	-0.078228645
100	0xbbec0a14	-0.00720335
101	0xbd40a96c	-0.047036573
102	0xbd02f6f3	-0.03197379
103	0xbd530d8a	-0.051526584
104	0xbd730f76	-0.059340917
105	0xbcf4c301	-0.029878141
106	0xbd27aac9	-0.040934358
107	0xbd363f67	-0.04449406
108	0xbd80e9e3	-0.0629461
109	0xbdb262ec	-0.08710274
110	0xbd9c406f	-0.07629477
111	0xbd5958a4	-0.05306305
112	0xbcc4a3e4	-0.02400393
113	0xbd4fa7e4	-0.050697222
114	0xbce5d806	-0.02805711
115	0xbc76bd68	-0.015059806
116	0xbd56114a	-0.052262582
117	0xbcf0ad33	-0.029379463
118	0x3cc5f4a9	0.024164515
119	0xbcbd3689	-0.023097293
120	0xbd7012c8	-0.05861166
121	0x3c31f695	0.010862012
122	0xbcf8edbe	-0.030386802
123	0xbb209aee	-0.0024506408
124	0xbd44b4c2	-0.048023947
125	0xbc646f68	-0.013942577
126	0xbccd1e5d	-0.025038892
127	0xbd1ee237	-0.038789954
128	0x3c8eca83	0.01743055
129	0x3cf82bad	0.030294264
130	0xbd61f3f9	-0.05516431
131	0xbc813312	-0.015771423
132	0xbd26ea0d	-0.040750552
133	0xbd09dc80	-0.03365755
134	0xbc9f3fb4	-0.019439556
135	0xbd641960	-0.055688262
136	0xbd9321b1	-0.071841605
137	0xbdc6efe4	-0.09713724
138	0xbe132cc0	-0.1437254
139	0xbddb5bd1	-0.10710872
140	0xbd6b8ced	-0.057507444
141	0xbdf5b426	-0.11997251
142	0xbddd83a4	-0.10816124
143	0xbe041226	-0.12897548
144	0x3c3953c3	0.011311474
145	0x3bc39b02	0.005969406
146	0xbb5dc425	-0.0033838835
147	0x3cd82974	0.026386954
148	0x3bb47361	0.0055069183
149	0xbc8a38fd	-0.016872877
150	0x3d146b8f	0.03623539
151	0x3d19b345	0.03752448
152	0x3d95dbaf	0.07317292
153	0xbd1ad47e	-0.037800305
154	0xbdc1589a	-0.094407275
155	0xbd31ccaa	-0.043408073
156	0xbda0da4c	-0.07854137
157	0xbd734908	-0.05939582
158	0xbd5ae80c	-0.053443953
159	0xbdc89056	-0.09793155
160	0xbce5d91b	-0.028057626
161	0xbd6ea2e4	-0.058260813
162	0xbd3dfcca	-0.046383657
163	0xbd3c32fb	-0.045947056
164	0xbcd1f350	-0.025628716
165	0xbd0e52d3	-0.034746956
166	0xbc8f2150	-0.01747194
167	0xbca7d232	-0.020485971
168	0x3d098ba9	0.033580456
169	0xbc0245dd	-0.007951227
170	0x3d07817e	0.033082478
171	0x3d00d9bd	0.03145765
172	0x3d6f32fe	0.05839824
173	0x3bd19d67	0.0063969376
174	0x3ccdbb7a	0.02511381
175	0x3d43c6ce	0.047797017
176	0x3d27ef7e	0.040999882
177	0x3cdee33b	0.027207961
178	0x3d8099cf	0.06279337
179	0x3cf7e623	0.030261105
180	0x3c6fbd77	0.014632574
181	0x3cdf8425	0.027284691
182	0x3ca1b99f	0.019741831
183	0xbcec22a7	-0.028825117
184	0x3ce93dc5	0.028471837
185	0x3cd80e35	0.026373962
186	0xbc4772e6	-0.01217339
187	0x3bc34392	0.0059589827
188	0xbbafab71	-0.0053610136
189	0xbd6042a7	-0.054751065
190	0xbc54d4ef	-0.01299022
191	0xbd59370f	-0.053031024
192	0xbd03d56a	-0.03218595
193	0xbcc2987f	-0.023754356
194	0xbc52a61c	-0.012856986
195	0xbd29e4f1	-0.0414781
196	0xbd2df218	-0.042467207
197	0xbcfbf54a	-0.030756611
198	0xbca31c7f	-0.019911049
199	0xbc567248	-0.01308877
200	0x3c9fb0ee	0.019493546
201	0x3cd21338	0.02564393
202	0x3a651a95	0.0008739618
203	0xbc84fd1d	-0.016233975
204	0x3c40d9ed	0.011770708
205	0xbd3a8e9f	-0.04554617
206	0x39ee804c	0.00045490486
207	0xbdb84eea	-0.08999427
208	0xbd1bdb4e	-0.038050942
209	0xbdcf3b84	-0.101187736
210	0xbdca8ff7	-0.0989074
211	0xbdf5da7b	-0.120045625
212	0xbddf276b	-0.1089619
213	0xbdd78eb4	-0.10525265
214	0xbdadb346	-0.08481459
215	0xbdf576a4	-0.119855195
216	0x3d90dde8	0.07073575
217	0x3db66910	0.08906758
218	0x3d44e3c7	0.048068788
219	0x3dc57f5b	0.09643432
220	0x3daeff04	0.08544734
221	0x3cf5d484	0.030008562
222	0x3d34337a	0.043994404
223	0x3d16a8cf	0.036782082
224	0x3db2d754	0.08732477
225	0xbd9c2ad3	-0.076253556
226	0xbdadb535	-0.08481828
227	0xbcd88628	-0.026431158
228	0xbdae242f	-0.08502995
229	0xbd9ccd0b	-0.07656296
230	0xbc3093f4	-0.010777462
231	0xbce16e18	-0.027518317
232	0xbcc0c02a	-0.023529131
233	0xbd69bd83	-0.057065498
234	0xbdc0f1ab	-0.094210945
235	0xbdea757e	-0.11448191
236	0xbd9bf49c	-0.07615015
237	0xbd969111	-0.07351888
238	0xbdf13b4f	-0.1177889
239	0xbd960b66	-0.07326393
240	0xbd392b37	-0.04520723
241	0xbd968ee0	-0.0735147
242	0xbd1d372f	-0.038382705
243	0x3b4355bc	0.002980574
244	0xbc482f26	-0.012218272
245	0x3d5e74f7	0.054310765
246	0x3d5a6a00	0.053323746
247	0x3d8199e0	0.063281775
248	0x3d903363	0.07041051
249	0x3d36c022	0.044616826
250	0x3c1c5894	0.009542603
251	0x3d8a74e1	0.06760574
252	0xbd473353	-0.04863293
253	0xbc532a22	-0.012888463
254	0xbd0cfef3	-0.034422826
255	0xbd1229b5	-0.035684306

bn3.weight f4 [64]
0	0x3f87a94c	1.059854
1	0x3f8ba5cf	1.0909976
2	0x3f8a5eb4	1.0810151
3	0x3f8d8a9a	1.1057923
4	0x3f8863d8	1.065547
5	0x3f8be20b	1.0928358
6	0x3f8d1a53	1.1023659
7	0x3f8f26c2	1.1183703
8	0x3f86d86a	1.0534794
9	0x3f84faf9	1.0389091
10	0x3f8c9e21	1.0985757
11	0x3f87e58e	1.061693
12	0x3f8b93c8	1.0904474
13	0x3f8a7f7b	1.0820154
14	0x3f84f0ca	1.0385983
15	0x3f886ced	1.0658242
16	0x3f88d43b	1.0689768
17	0x3f82d33a	1.0220711
18	0x3f831d82	1.024338
19	0x3f870106	1.0547187
20	0x3f853652	1.0407202
21	0x3f78e835	0.9722932
22	0x3f8c789b	1.0974306
23	0x3f85837f	1.0430754
24	0x3f7dff63	0.99217814
25	0x3f84cc6e	1.0374887
26	0x3f880efd	1.0629574
27	0x3f7e3e95	0.9931424
28	0x3f8b1ea1	1.0868722
29	0x3f8839ef	1.064268
30	0x3f8b57bf	1.0886153
31	0x3f836788	1.026597
32	0x3f7cdfa0	0.98778725
33	0x3f888a0d	1.066713
34	0x3f8ab5c5	1.0836722
35	0x3f85fe5e	1.0468252
36	0x3f8a0f6a	1.0785954
37	0x3f774cfc	0.96601844
38	0x3f85d820	1.0456581
39	0x3f84cf4e	1.0375764
40	0x3f8b78b4	1.0896211
41	0x3f86babf	1.052574
42	0x3f8a3f2f	1.0800532
43	0x3f889ab5	1.0672213
44	0x3f85b954	1.0447183
45	0x3f650bc7	0.89471096
46	0x3f865b19	1.0496551
47	0x3f86a9f9	1.0520622
48	0x3f89eb95	1.0775019
49	0x3f844dd3	1.033625
50	0x3f8a0362	1.0782282
51	0x3f84b46a	1.0367558
52	0x3f86e038	1.0537176
53	0x3f870ac4	1.055016
54	0x3f873414	1.0562768
55	0x3f8bc82c	1.0920463
56	0x3f8737a5	1.0563856
57	0x3f8c7e49	1.0976039
58	0x3f8cb989	1.0994121
59	0x3f86774b	1.0505155
60	0x3f7b775b	0.98228997
61	0x3f8c5dc0	1.096611
62	0x3f87c400	1.060669
63	0x3f8a067a	1.0783226

bn3.bias f4 [64]
0	0xbcf0b170	-0.029381484
1	0x3d95c826	0.07313566
2	0xbc6a755b	-0.014310206
3	0x3da87f82	0.08227445
4	0xbcb48956	-0.022038143
5	0x3b87de7b	0.004146395
6	0x3d984e16	0.07436769
7	0x3d99109b	0.0747387
8	0xbd3dc30f	-0.0463286
9	0xbd2b0309	-0.04175094
10	0xbcad0a37	-0.021123035
11	0xbca2e12d	-0.019882763
12	0xbc09def7	-0.008414975
13	0x3da3d6b2	0.07999934
14	0xba98720c	-0.0011630668
15	0xbca167a7	-0.019702746
16	0xbc96ecae	-0.018423405
17	0x3c721c39	0.014777237
18	0xbd383ddf	-0.04498088
19	0xbcfbe144	-0.030747063
20	0xbc5fbf37	-0.013656429
21	0xbd64506e	-0.055740766
22	0xbc07e1a4	-0.008293543
23	0xbd313cc0	-0.043270826
24	0x3d0e84c6	0.03479459
25	0xbd30455e	-0.043034904
26	0x3d4f95e0	0.05068004
27	0xbbb35311	-0.005472549
28	0x3d867323	0.06564929
29	0xbcbd8d05	-0.023138532
30	0xbcbb3196	-0.022850793
31	0xbd759062	-0.059952147
32	0xbd127553	-0.03575642
33	0xbd050e8b	-0.032484572
34	0x3a3f9457	0.0007308176
35	0x3d26fd9d	0.04076921
36	0x3d857789	0.0651694
37	0xbc994094	-0.018707551
38	0xbd2712d5	-0.040789444
39	0x3cfe1191	0.031014236
40	0x3d8c0e06	0.06838612
41	0xbd353a3e	-0.044244997
42	0x3d52bd55	0.051450092
43	0xbccfe5da	-0.025378156
44	0x3cc44ba0	0.023961842
45	0xbd8c648d	-0.06855116
46	0xbd7db40d	-0.061939288
47	0xbcf3d0e5	-0.029762695
48	0x3d89188a	0.066941336
49	0xbd3e4574	-0.046452954
50	0x3d7193cf	0.058978852
51	0xbd37abc7	-0.044841554
52	0x3c920a4b	0.017827174
53	0x3a93073c	0.0011217366
54	0xbd0fa477	-0.035068955
55	0xbc4bf85c	-0.01244935
56	0xbc62ca8b	-0.013842235
57	0x3b660781	0.0035099688
58	0x3db31a9c	0.0874531
59	0x3d370826	0.044685505
60	0xbbc45712	-0.005991825
61	0xbbb3a4e2	-0.005482302
62	0x3d51cdd3	0.05122168
63	0x3d8f8858	0.070084274

bn3.running_mean f4 [64]
0	0x436abe2b	234.74284
1	0xc38e0c71	-284.0972
2	0x43608873	224.533
3	0xc39afa6c	-309.95642
4	0x4309ab4c	137.66913
5	0x43420c7a	194.04874
6	0xc39ca0e1	-313.25687
7	0xc38760f5	-270.75748
8	0x432f13d5	175.07747
9	0x430dcaab	141.79167
10	0x431d88cd	157.53438
11	0x43869bc6	269.21698
12	0x433f7e71	191.49391
13	0xc3682e1c	-232.18011
14	0xc35e0695	-222.02571
15	0x4354cc1b	212.79729
16	0x43836a2f	262.82956
17	0xc1672c38	-14.448296
18	0x43598056	217.50131
19	0x43191b76	153.10727
20	0xc383fb8a	-263.96515
21	0x43918449	291.03348
22	0x429d509a	78.657425
23	0x42cd9af0	102.80261
24	0xc3066587	-134.39659
25	0x433ed9b8	190.85046
26	0xc35c24a1	-220.14308
27	0x42f365ff	121.69921
28	0xc38a0ba4	-276.09094
29	0x436460a2	228.37747
30	0x4341a9f1	193.66383
31	0x416c3458	14.762779
32	0x42e96940	116.70557
33	0x436f42db	239.26115
34	0x43466777	198.40416
35	0xc35c78f4	-220.47247
36	0xc38c2ff2	-280.37457
37	0xc33e9956	-190.59897
38	0x42daf20e	109.47276
39	0xc3638604	-227.5235
40	0xc38ec3b2	-285.52887
41	0x431e97e5	158.59334
42	0xc340ee63	-192.9312
43	0x43114211	145.25807
44	0xc3375ace	-183.3547
45	0xc2b5c232	-90.87929
46	0xc0829604	-4.0808125
47	0x4357340a	215.20328
48	0xc385c94d	-267.57266
49	0x434783e2	199.51517
50	0xc37da85d	-253.65767
51	0x43180d03	152.05083
52	0xc3685f9d	-232.37349
53	0x43880172	272.0113
54	0x43794ef8	249.30847
55	0x42afa5aa	87.82356
56	0x42de08b4	111.017
57	0x42c7b3fb	99.851524
58	0xc396c8e3	-301.56943
59	0xc34bd49d	-203.83052
60	0xc2bf54f9	-95.66596
61	0x4372506f	242.3142
62	0xc3663871	-230.22047
63	0xc3907efd	-288.9921

bn3.running_var f4 [64]
0	0x46dcb02b	28248.084
1	0x4720921e	41106.117
2	0x46c77aac	25533.336
3	0x473f1abf	48922.746
4	0x462fe8e0	11258.219
5	0x46ab0b1d	21893.557
6	0x474293bc	49811.734
7	0x470f12e6	36626.9
8	0x46567d2b	13727.292
9	0x466a6d57	15003.335
10	0x464e5359	13204.837
11	0x470b696f	35689.434
12	0x468e6c98	18230.297
13	0x46d72bc7	27541.889
14	0x46bf5bc9	24493.893
15	0x46af93d1	22473.908
16	0x470134b4	33076.703
17	0x454cba5a	3275.647
18	0x46bbbbc8	24029.89
19	0x466e64d1	15257.204
20	0x4703cae9	33738.91
21	0x47207797	41079.59
22	0x45d740cf	6888.101
23	0x4583bd34	4215.6504
24	0x46128403	9377.003
25	0x46af4cd9	22438.424
26	0x46bf5fd4	24495.914
27	0x45bc2319	6020.387
28	0x47153ea6	38206.65
29	0x46d41184	27144.758
30	0x469c25d5	19986.916
31	0x45b6d083	5850.064
32	0x459d8906	5041.128
33	0x46d375cd	27066.9
34	0x46af72ba	22457.363
35	0x46c11430	24714.094
36	0x471b4dfa	39757.977
37	0x468a868a	17731.27
38	0x45adaf53	5557.9155
39	0x46c85a9c	25645.305
40	0x471fc946	40905.273
41	0x462fd4d1	11253.204
42	0x4696af49	19287.643
43	0x46551bbb	13638.933
44	0x46826199	16688.799
45	0x454ec5a9	3308.3538
46	0x4542633d	3110.2024
47	0x46a35258	20905.172
48	0x470c7502	35957.008
49	0x46898d9f	17606.81
50	0x46f5a523	31442.568
51	0x46536041	13528.063
52	0x46d798f7	27596.482
53	0x470f955d	36757.363
54	0x46ea9637	30027.107
55	0x45a93d4e	5415.663
56	0x45c76527	6380.644
57	0x45a9a002	5428.001
58	0x47353d74	46397.453
59	0x46aa78f5	21820.479
60	0x45a5f7bc	5310.967
61	0x46dcf5b3	28282.85
62	0x46cee804	26484.008
63	0x47239a71	41882.44

conv4.weight f4 [32, 64, 3, 3]
0	0x3d3dc27d	0.046328057
1	0xbcfe0853	-0.031009829
2	0xbd89e561	-0.06733204
3	0x3d0df828	0.03466049
4	0x3b99d724	0.004694836
5	0xbd19e0d8	-0.037567943
6	0x3d1f1adb	0.03884397
7	0xbcb22b53	-0.021749174
8	0xbd3036c4	-0.04302098
9	0x3cab0b36	0.02087937
10	0x3cff7b65	0.031186769
11	0x3d5ee8fa	0.054421403
12	0x3d2149c1	0.039376978
13	0xbcae3f9e	-0.02127057
14	0x3d6dec32	0.05808658
15	0x3afa8483	0.0019112978
16	0x3d1868af	0.03720921
17	0x3cf30653	0.029666102
18	0xbd38230c	-0.0449553
19	0x3d30cc95	0.043163855
20	0xbcd9ff92	-0.026611123
21	0xbccd528a	-0.025063772
22	0xbc7bf850	-0.0153790265
23	0x3bf63d34	0.00751462
24	0x3c5ef7e0	0.013608903
25	0xbc3c4f18	-0.011493467
26	0x3bd209d3	0.0064098625
27	0x3da769f0	0.08174503
28	0x3d740f29	0.05958477
29	0x3d775bf6	0.060390435
30	0x3d7ed4e1	0.062214736
31	0x3d1d8c30	0.03846377
32	0x3d05f09d	0.03270017
33	0x3d9faaa8	0.07796222
34	0x3d87b3da	0.06626101
35	0x3d8617f8	0.065475404
36	0xbb940e15	-0.0045182803
37	0x3ce59848	0.028026715
38	0xbb4bc833	-0.003109467
39	0x3d26d3c0	0.040729284
40	0x3d0fe80d	0.03513341
41	0x3cd76301	0.026292326
42	0x3ce969b7	0.028492792
43	0xbcd2c64c	-0.025729321
44	0xbc64e85e	-0.013971416
45	0xbcc6bed5	-0.024260918
46	0x3ac9197c	0.0015342678
47	0xbd1ab474	-0.03776975
48	0x3c6ed036	0.014576009
49	0x3c7ae6a2	0.015313776
50	0x3d97fb38	0.07420963
51	0x3d217703	0.03942014
52	0x3dae6d09	0.085168906
53	0x3c67d071	0.014148817
54	0x3d673ebd	0.056456316
55	0x3d7b1809	0.06130222
56	0x3ceed898	0.029156014
57	0x3d9c2cc9	0.076257296
58	0x3c94eedd	0.018180305
59	0x3cdf122f	0.02723035
60	0x3de8714b	0.11349734
61	0x3de25b79	0.11052603
62	0x3db650e9	0.08902151
63	0x3cc8e68e	0.024524
64	0x3d07e41b	0.033176523
65	0x3dd8abca	0.10579641
66	0x3d790d3b	0.060803633
67	0x3d671459	0.05641589
68	0x3daa4d35	0.08315507
69	0x3da64ac6	0.08119731
70	0x3d82ec55	0.06392733
71	0x3df8e3af	0.12152802
72	0xbd32e49c	-0.04367505
73	0xbc2162cf	-0.009850218
74	0xbd5cf0d8	-0.053940624
75	0x3d3692d2	0.044573613
76	0x3cdffbd7	0.027341766
77	0x3d4f5b96	0.050624453
78	0xbd117cc9	-0.035519395
79	0xbcdfd372	-0.027322505
80	0xbcbe45c4	-0.023226626
81	0xbc05fa69	-0.008177378
82	0x3d375d12	0.044766493
83	0x3d18513f	0.037186857
84	0x3d634472	0.055485196
85	0x3daf4e7a	0.0855989
86	0x3d38130b	0.044940036
87	0xbb93c0f0	-0.004509084
88	0x3c4d2a4b	0.01252229
89	0x3d818ef3	0.063260935
90	0xbbb0a5b3	-0.0053908466
91	0x3d5e825c	0.05432354
92	0xbc8a0cb3	-0.016851759
93	0x3d85d64d	0.06535015
94	0x3ce99b8f	0.028516559
95	0x3d07cdb0	0.033155143
96	0xbd051892	-0.032494135
97	0x3c9a72c7	0.018853558
98	0x3ca0d7d2	0.019634161
99	0xbca90b0a	-0.020635147
100	0x3d2d65d1	0.042333428
101	0xbc4f79d7	-0.012663326
102	0x3cedbf74	0.029021956
103	0x3c29c5c4	0.010362092
104	0xbcf71cce	-0.030165102
105	0xbcce6a59	-0.025197195
106	0xbc7a7c7c	-0.015288468
107	0xbd8d06e1	-0.06886078
108	0x3d0ea9fb	0.034830075
109	0xbc6554c5	-0.013997261
110	0xbd660384	-0.056155697
111	0x3c2e17b1	0.010625766
112	0x3b8b0bfa	0.004243371
113	0x3d37e9b2	0.044900604
114	0xbc21d998	-0.009878539
115	0x3d3b4cf0	0.04572767
116	0xbc97e2cd	-0.018540764
117	0x3d1c0f0f	0.0381003
118	0x3d6c7977	0.057733025
119	0x3cefc732	0.029269788
120	0xbd2d73d1	-0.04234678
121	0xbcce3ab2	-0.025174472
122	0xbab95324	-0.0014139158
123	0xbd32a61b	-0.04361544
124	0xbab8e421	-0.0014106074
125	0xbca7156c	-0.020395957
126	0x3cb2f794	0.02184657
127	0xbcb485f1	-0.022036524
128	0x3d7b912a	0.061417736
129	0xbcfde9b5	-0.03099523
130	0x3c222fec	0.009899121
131	0x3abbb34d	0.0014320404
132	0xbc40ac4f	-0.011759832
133	0x3ced59c4	0.028973468
134	0xbc8c546d	-0.017130101
135	0x3ca159f2	0.01969621
136	0x3c101018	0.0087929
137	0x3c850fad	0.016242826
138	0xbd21fdaf	-0.039548572
139	0x3b492bf6	0.0030696369
140	0xbc8c6f7d	-0.017143006
141	0xbae3c492	-0.0017377308
142	0x3d011ceb	0.03152172
143	0x3c01056a	0.007874826
144	0xbd379272	-0.044817396
145	0xbcfca26a	-0.030839164
146	0x3c840f7c	0.016120665
147	0xbd081c06	-0.03322985
148	0xba1f0cee	-0.00060672953
149	0xbd1bbeec	-0.038023874
150	0xbd4c316d	-0.049851824
151	0xbd1dbc38	-0.038509578
152	0x3d529008	0.05140689
153	0x3d40d4c7	0.04707792
154	0x3dc1536e	0.09439741
155	0x3da26667	0.07929688
156	0x3d5f3353	0.054492306
157	0x3c7d96aa	0.015477816
158	0x3d8df535	0.06931535
159	0x3d8fb92e	0.07017742
160	0x3db50ee0	0.08840728
161	0x3db6546f	0.08902823
162	0xbd004ffb	-0.031326275
163	0x3c2006de	0.009767262
164	0x3ccf9a5b	0.025342157
165	0x3d984886	0.07435708
166	0x3d38a960	0.045083404
167	0x3cf002ac	0.029298149
168	0x3d0e383b	0.034721594
169	0x3d286ddc	0.041120395
170	0x3c0a0da8	0.0084261075
171	0xbc25dbd5	-0.010123213
172	0x3d0f927c	0.035051808
173	0xbca1cb5b	-0.019750288
174	0x3d9249b4	0.07142964
175	0x3d5aa353	0.053378414
176	0x3db3f397	0.087866955
177	0x3d0b051d	0.033940423
178	0x3dda91bd	0.106723286
179	0x3d7758fc	0.060387596
180	0xbc034e23	-0.008014235
181	0x3c688eb5	0.01419418
182	0xbcaaec41	-0.020864608
183	0x3da67124	0.081270486
184	0x3d3ed9e8	0.04659453
185	0xbbfe3845	-0.0077581727
186	0x3dbb2db6	0.09139578
187	0xbb712263	-0.0036794178
188	0x3c17a429	0.009255447
189	0x3c52d62f	0.012868448
190	0xbc0ebb8b	-0.008711706
191	0xbd27084c	-0.040779397
192	0xbd7c06e1	-0.061529998
193	0xbd5619d7	-0.052270737
194	0xbd8d8b9d	-0.06911395
195	0xbdb7a599	-0.08967132
196	0xbd94ad10	-0.072595716
197	0x3ca9fcf5	0.020750502
198	0x3d6a9baf	0.057277378
199	0x3d10279d	0.03519403
200	0x3ccda1c3	0.025101548
201	0x3db87b27	0.090078644
202	0x3db16120	0.08661103
203	0x3d9e7571	0.07737244
204	0x3d96c59b	0.07361909
205	0x3dc7f945	0.09764341
206	0x3d33038d	0.04370456
207	0xbd2a26dc	-0.041540965
208	0xbca90a68	-0.020634845
209	0xbb21c3de	-0.0024683396
210	0x3ca2a69d	0.019854838
211	0x3d15254f	0.036412533
212	0x3b71d80f	0.0036902463
213	0xbcd5b35f	-0.026086507
214	0x3cc9d243	0.024636393
215	0xbc8c0c00	-0.017095566
216	0xb95f0774	-0.00021269714
217	0x3cea4930	0.028599352
218	0xbd177162	-0.036973365
219	0xbcb60ac7	-0.022221936
220	0xbbea0358	-0.007141512
221	0x3c145e74	0.0090557225
222	0x3c4169b2	0.011804985
223	0xbd100a75	-0.035166223
224	0x3ca106cb	0.01965656
225	0xbc892e0c	-0.01674559
226	0x3bbe0bb2	0.005799734
227	0x3d623f0b	0.055235904
228	0x3c830a1a	0.015996028
229	0x3c38ae38	0.011272006
230	0x3daba8bf	0.08381795
231	0x3cbf8ab1	0.023381563
232	0xbc5da19e	-0.013527302
233	0x3d80734e	0.062719926
234	0x3c026be2	0.007960292
235	0x3d0575fa	0.032583214
236	0xbbf596b6	-0.007494773
237	0x3beb21c2	0.007175655
238	0xbd4ca5c0	-0.04996276
239	0xbd5e6ceb	-0.05430309
240	0xbd00bb8b	-0.031428855
241	0xbd371a74	-0.044702962
242	0xbc6f937b	-0.014622564
243	0xbd8ba380	-0.068182945
244	0xbd9675f5	-0.07346717
245	0xbd6a04f2	-0.057133622
246	0xbdfb097d	-0.12257669
247	0xbddb8b81	-0.10719968
248	0xbd969c00	-0.073539734
249	0xbe039d47	-0.12852965
250	0xbd9b964d	-0.07597027
251	0xbdc5ab5d	-0.096518256
252	0x3cb965bd	0.02263152
253	0x3d1d76c6	0.03844335
254	0x3ce1cad5	0.027562538
255	0xbaa9d3ec	-0.0012956834

bn4.weight f4 [32]
0	0x3f8bd464	1.0924191
1	0x3f8b56ee	1.0885904
2	0x3f866a02	1.0501101
3	0x3f865161	1.0493585
4	0x3f87fda4	1.062428
5	0x3f78e9ba	0.9723164
6	0x3f89c0b2	1.0761931
7	0x3f876d56	1.0580242
8	0x3f715216	0.9426588
9	0x3f88ac7a	1.0677636
10	0x3f735f24	0.9506705
11	0x3f7683c3	0.962948
12	0x3f8ad435	1.084601
13	0x3f82cd21	1.021885
14	0x3f89c182	1.0762179
15	0x3f79bbb4	0.9755204
16	0x3f886b48	1.065774
17	0x3f869641	1.0514604
18	0x3f801edc	1.0009418
19	0x3f879f1a	1.0595429
20	0x3f80079d	1.0002323
21	0x3f7dbb24	0.9911368
22	0x3f81bbd8	1.013545
23	0x3f83a3cf	1.0284365
24	0x3f84db22	1.0379374
25	0x3f81048d	1.0079514
26	0x3f859899	1.0437194
27	0x3f816b6c	1.0110908
28	0x3f83d0be	1.0298078
29	0x3f76ae65	0.96359855
30	0x3f717815	0.94323856
31	0x3f8cf5a8	1.1012468

bn4.bias f4 [32]
0	0x3d8606fa	0.065442994
1	0x3da3a04d	0.07989559
2	0xbd1a0608	-0.037603408
3	0xbd0d70a9	-0.03453127
4	0xbc0e9cb3	-0.008704352
5	0xbd065600	-0.03279686
6	0x3d9278ef	0.071519725
7	0x3c9a8585	0.018862495
8	0xbdc82a2e	-0.0977367
9	0xbd016622	-0.031591542
10	0xbd83c1e0	-0.06433463
11	0xbc815b91	-0.015790733
12	0x3ccc5b6b	0.024945935
13	0x3a42c96a	0.0007430526
14	0x3d0aec9e	0.033917062
15	0xbd451cbb	-0.048123103
16	0x3bfb4354	0.0076679382
17	0x3d4c15e7	0.049825575
18	0xbcf3a353	-0.029740965
19	0x3da5754e	0.08079015
20	0x3c4e87b8	0.0126056
21	0xbce959c5	-0.028485188
22	0xbd3e01b0	-0.046388328
23	0xbc76e8c9	-0.015070149
24	0xbd43d767	-0.047812846
25	0xbd6b33df	-0.057422515
26	0xbcd78ffa	-0.02631377
27	0x3c430572	0.011903154
28	0x3cd5263a	0.026019204
29	0xbc621c74	-0.013800729
30	0xbd8e62e2	-0.06952454
31	0x3d47e003	0.04879762

bn4.running_mean f4 [32]
0	0xc4abbcb7	-1373.8973
1	0xc5417b00	-3095.6875
2	0xc3d88667	-433.05002
3	0x44b9d855	1486.7604
4	0xc4f31c4e	-1944.8845
5	0xc4c48b9c	-1572.3628
6	0xc4fda6d6	-2029.2136
7	0x429ce65d	78.44993
8	0x447c6b93	1009.68085
9	0x4535ed80	2910.8438
10	0x42c127f7	96.57806
11	0x445d6ef4	885.73364
12	0x448fc6ad	1150.2086
13	0x440fe266	575.5375
14	0x44cc6233	1635.0687
15	0x442d8c2b	694.1901
16	0x4507cd4f	2172.8318
17	0xc5073121	-2163.0706
18	0xc3a66d0d	-332.85196
19	0xc4944ed3	-1186.4633
20	0xc497c46e	-1214.1384
21	0x44b61ade	1456.8396
22	0xc44d1e68	-820.4751
23	0x4548bd07	3211.8142
24	0x4509e2d4	2206.1768
25	0xc307d8d7	-135.84703
26	0xc48316b7	-1048.7098
27	0x43815fce	258.74847
28	0x449aec4d	1239.3844
29	0x448109d2	1032.3069
30	0x44a94189	1354.048
31	0x451dae73	2522.903

bn4.running_var f4 [32]
0	0x493a5ace	763308.9
1	0x4a828ab8	4.277596e+06
2	0x4894ca51	304722.53
3	0x495dd34c	908596.75
4	0x49e2063f	1.8515919e+06
5	0x497e6f18	1.0421615e+06
6	0x49d351f7	1.7311349e+06
7	0x487b6462	257425.53
8	0x4951216e	856598.9
9	0x4a6b594c	3.855955e+06
10	0x4871e12d	247684.7
11	0x48b8bfbf	378365.97
12	0x49798d43	1.0221642e+06
13	0x48293689	173274.14
14	0x498b9ab8	1.143639e+06
15	0x4866838c	236046.19
16	0x49fafa06	2.0560008e+06
17	0x49f549e9	2.0094051e+06
18	0x48439c71	200305.77
19	0x490a82f6	567343.4
20	0x49841daf	1.0822939e+06
21	0x49602461	918086.06
22	0x4916cbb7	617659.44
23	0x4a8f0cb2	4.687449e+06
24	0x4a0028ff	2.0997758e+06
25	0x491e0af2	647343.1
26	0x492423dd	672317.8
27	0x484a5b0a	207212.16
28	0x494dcd3d	842963.8
29	0x48ebc6f9	482871.78
30	0x493d1195	774425.3
31	0x4a365093	2.9870448e+06

conv5.weight f4 [32, 32, 3, 3]
0	0xbc9d9f49	-0.019240992
1	0x3d4fe3b9	0.050754283
2	0x3d648945	0.055794973
3	0x3c064abe	0.008196531
4	0xbce5150d	-0.02796414
5	0x3cdc3bda	0.026884008
6	0x3db7c4a2	0.089730516
7	0x3d29ce54	0.041456535
8	0x3ce9bea3	0.028533285
9	0x3d0c1554	0.034200028
10	0x3db4bbb4	0.08824864
11	0x3dedda2f	0.11613881
12	0x3d90bbc7	0.07067066
13	0x3dae55b5	0.08512441
14	0x3de32215	0.11090485
15	0x3c9148ea	0.017734963
16	0x3da97eb6	0.08276121
17	0x3e083a0a	0.1330339
18	0xbcc81b8a	-0.024427194
19	0x3b02036e	0.001983847
20	0xbdbe41fa	-0.09289928
21	0xbd93cbbb	-0.07216593
22	0x3ab26b07	0.0013612219
23	0x3cea4980	0.0285995
24	0xbd9aab18	-0.07552165
25	0x3cad6bad	0.021169508
26	0xbd48f49d	-0.049061406
27	0x3ceca2e3	0.028886264
28	0x3b8c4d10	0.0042816475
29	0xbd778c89	-0.06043676
30	0xbcd8d43d	-0.02646839
31	0xbd242938	-0.04007837
32	0x3cb11903	0.021618372
33	0xbd89ef40	-0.067350864
34	0xbd2a38d1	-0.04155809
35	0xbd66ca49	-0.056345258
36	0xbd0f788d	-0.035027076
37	0x3c447158	0.011989914
38	0xbd0d7a63	-0.034540545
39	0x3d8bcac5	0.068257846
40	0x3d4dbbdb	0.05022798
41	0x3d717250	0.058946908
42	0x3dfd035b	0.12354156
43	0x3e09148b	0.13386743
44	0x3d963132	0.07333602
45	0x3d78f27d	0.06077813
46	0xbd5d3c01	-0.054012302
47	0xbcbc364a	-0.022975106
48	0xbd487e43	-0.048948538
49	0x3d51e9ba	0.05124829
50	0x3b17b1de	0.0023146789
51	0xbbc83294	-0.006109545
52	0xbcc8fa42	-0.024533395
53	0x3d1efd35	0.038815696
54	0x3b9676c4	0.0045917947
55	0x3d9480ef	0.07251155
56	0x3d683408	0.056690246
57	0x3991200a	0.00027680426
58	0x3d39518e	0.045243792
59	0x3d9a59e8	0.075366795
60	0x3ccfde52	0.025374565
61	0x3d96eaa4	0.07368973
62	0x3cf50751	0.029910715
63	0xbc89c778	-0.016818747
64	0x3a6b401d	0.0008974092
65	0x3d01540b	0.03157429
66	0x3cd5f88a	0.02611949
67	0x3da85367	0.08219033
68	0x3c7f54e5	0.015584205
69	0x3dacdb22	0.08440234
70	0x3e1e45ff	0.15456389
71	0x3dbce113	0.09222617
72	0x3d0324f6	0.03201767
73	0x3d842748	0.06452805
74	0x3d69ff0a	0.05712799
75	0x3d0110b3	0.031510066
76	0x3d0ffad5	0.03515132
77	0x3d7e1e59	0.06204066
78	0x3da23dca	0.079219416
79	0x3d8a17c8	0.06742817
80	0x3e210dbe	0.15727898
81	0xbd3dae3c	-0.04630874
82	0xbb39b69e	-0.0028337608
83	0xbd9a5924	-0.075365335
84	0x3d5064b3	0.050877284
85	0xbc9957a8	-0.018718556
86	0xbcd59db2	-0.026076172
87	0xba52637b	-0.0008025688
88	0xbc8dba39	-0.017300712
89	0x3b58800a	0.0033035302
90	0x3d9c69e6	0.07637386
91	0x3b067729	0.0020517802
92	0x3d0fdc41	0.03512216
93	0x3d07cbcc	0.03315334
94	0x3afe1427	0.0019384668
95	0x3d679c69	0.05654565
96	0x3c44a315	0.012001772
97	0xbc93e61c	-0.01805406
98	0x3bf37179	0.0074292985
99	0xbda36a6d	-0.079792835
100	0xbd1de810	-0.03855139
101	0x3ca7a33f	0.020463584
102	0xbd0651cf	-0.032792863
103	0x3d1b9b2c	0.03798978
104	0xbc0a950d	-0.008458388
105	0x3c14ea8a	0.009089122
106	0xbc2c64b4	-0.010522056
107	0x3d904f6b	0.07046398
108	0xbcccca24	-0.024998732
109	0x3d0a8495	0.033817846
110	0xbc0d1a18	-0.008612178
111	0xbde05ef9	-0.109556146
112	0xbdc1843c	-0.0944905
113	0x3c17f05c	0.009273615
114	0xbe2748a3	-0.16336302
115	0xbe251651	-0.16121794
116	0xbd9a7e4e	-0.07543622
117	0xbcea0b75	-0.028569916
118	0xbd8298c1	-0.06376792
119	0xbcff046e	-0.031130042
120	0x3bded3a0	0.00680013
121	0xbcfc57cc	-0.030803584
122	0xbd81454f	-0.06312048
123	0xbdeba2d0	-0.115056634
124	0xbbd98942	-0.006638677
125	0xbdcabbfb	-0.09899136
126	0x3b46c566	0.003033006
127	0x3c07ba7d	0.008284208
128	0xbc5449a2	-0.012957009
129	0xbd3911b5	-0.045182902
130	0x3c53f1f1	0.012936101
131	0xbcd22823	-0.025653904
132	0xbb9a04a4	-0.0047002602
133	0xbd2d26d4	-0.042273358
134	0xbd859d98	-0.06524199
135	0xbc44c61d	-0.0120101245
136	0xbd1eb888	-0.0387502
137	0x3c139663	0.009008023
138	0xbcd4fc55	-0.025999228
139	0xbce6cabd	-0.028172845
140	0x3d326ba9	0.043559704
141	0xbd24034a	-0.0400422
142	0x3cdc338a	0.026880044
143	0x3cb7ae31	0.022421928
144	0xbdb1f092	-0.08688463
145	0xbd90afdb	-0.07064792
146	0xbd03344f	-0.032032307
147	0x3bfa6306	0.007641199
148	0x3c1aeee9	0.009456375
149	0xbba70f33	-0.0050982474
150	0xbd4b1c0b	-0.04958729
151	0xbcc9e5b9	-0.024645673
152	0xbdbd53f9	-0.09244532
153	0x3d4d9d33	0.050198745
154	0xbca9e178	-0.020737395
155	0x3d83d397	0.06436842
156	0xbbe2eab0	-0.0069249496
157	0x3d1ab934	0.03777428
158	0x3d94af1d	0.07259963
159	0x3c62a864	0.013834093
160	0xbc149eb1	-0.009071038
161	0x3d86e4be	0.06586598
162	0xbd27c56c	-0.04095976
163	0xbd007c4e	-0.031368546
164	0xbb444d0b	-0.0029953148
165	0x3bb8f04c	0.00564388
166	0x3c73d744	0.014882866
167	0x3a3b48f6	0.0007144356
168	0xbd97acff	-0.07406043
169	0x3d1c3b5d	0.03814255
170	0xbd3b48dc	-0.04572378
171	0x3d8a6aed	0.06758676
172	0x3d219486	0.039448284
173	0x3daac57f	0.08338451
174	0x3d3a7f40	0.04553151
175	0x3d215e7a	0.03939674
176	0x3cb84fe2	0.022499029
177	0x3d86b284	0.06577018
178	0x3dba2b3b	0.09090277
179	0x3afe13e2	0.0019384588
180	0xbb5062b4	-0.0031797113
181	0xba85a647	-0.0010196649
182	0x3b9fe17d	0.004879175
183	0xbe08dd03	-0.1336556
184	0xbe08a97a	-0.133459
185	0xbdf3b9f6	-0.119007036
186	0xbdce9897	-0.10087698
187	0xbd2ed6a9	-0.042685185
188	0xbd336698	-0.043799013
189	0xbd59f355	-0.053210575
190	0xbd33fa1a	-0.043939687
191	0xbd2d090c	-0.042244956
192	0xbd319462	-0.0433544
193	0x3c8da409	0.017290132
194	0xbd4c4c61	-0.049877528
195	0xbd8483d0	-0.06470454
196	0xbd027251	-0.031847302
197	0xbcd08a0f	-0.025456456
198	0xbcf77f12	-0.030211959
199	0xbd3875e0	-0.04503429
200	0xbd7f8e46	-0.062391542
201	0x3da8eb77	0.08248036
202	0x3de14595	0.109996
203	0x3d58ca8b	0.052927535
204	0x3d90930e	0.070592985
205	0x3de0eab9	0.1098227
206	0x3db23579	0.08701605
207	0xbc896736	-0.016772848
208	0xbcee1e7e	-0.029067274
209	0xbd188678	-0.037237614
210	0xbd5850ca	-0.05281142
211	0x3bd02556	0.006352107
212	0x3cede560	0.029040039
213	0xbd96805e	-0.07348703
214	0xbd960e05	-0.07326893
215	0x3c964933	0.018345451
216	0xbd9ca293	-0.07648196
217	0xbd58de87	-0.052946594
218	0xbd8bb0e1	-0.06820846
219	0xbd3ec362	-0.04657305
220	0xbd432825	-0.047645707
221	0xbd5a8764	-0.053351775
222	0xbde03e45	-0.10949377
223	0xbdae5999	-0.08513183
224	0xbdf0ccc5	-0.11757807
225	0xbcef74a0	-0.029230416
226	0x3d02cd45	0.03193404
227	0xbcf4c8a6	-0.029880833
228	0x3d73e0cd	0.05954056
229	0x3e01e160	0.1268363
230	0x3c83057b	0.015993824
231	0x3e427c76	0.1899279
232	0x3df132c7	0.11777263
233	0x3e114f58	0.14190423
234	0x3cba2b29	0.022725658
235	0xbd809471	-0.06278313
236	0xbcd85f92	-0.026412759
237	0x3d8d3207	0.068943076
238	0x3d56803d	0.05236839
239	0x3d28c1c8	0.04120043
240	0x3d9e8145	0.077395
241	0x3e105c84	0.14097792
242	0x3dd23a6f	0.102650516
243	0xbd8eabb1	-0.06966341
244	0xbd29ce2b	-0.041456383
245	0x3d87fe7c	0.06640336
246	0xbd1ac598	-0.037786096
247	0xbd721b44	-0.059108034
248	0xbbaaa068	-0.00520711
249	0xbd2f07b5	-0.04273196
250	0xbdb636d3	-0.08897176
251	0xbd6c808c	-0.05773978
252	0x3d57e579	0.052709077
253	0x3d0d625e	0.03451764
254	0x3d2238f9	0.039605115
255	0xbcd27bcb	-0.025693795

conv6.weight f4 [16, 32, 3, 3]
0	0xbd62acd6	-0.05534061
1	0xbdc3ce17	-0.09560793
2	0xbd01743e	-0.031604998
3	0xbd4478bc	-0.047966704
4	0xbd151ab2	-0.03640241
5	0xbdab8736	-0.08375399
6	0xbd0a7318	-0.03380117
7	0xbdceb6dd	-0.10093472
8	0xbdb71f77	-0.08941548
9	0x38a2506e	7.739743e-05
10	0x3c85d8b4	0.016338684
11	0x3c6298b8	0.013830356
12	0x3d4d15dd	0.05006968
13	0x3c94d2a2	0.018166844
14	0x3d0c088a	0.03418783
15	0x3d38f695	0.045157034
16	0x3d8ddadc	0.0692651
17	0xbcfe776d	-0.031062806
18	0xbd439259	-0.04774699
19	0xbdc480c3	-0.09594872
20	0xbc0ac084	-0.008468751
21	0xbc3cdb50	-0.011526898
22	0xbd1bd013	-0.038040232
23	0xbdb44f25	-0.08804158
24	0xbd18a58c	-0.037267253
25	0xbd769c12	-0.060207434
26	0xbe00e93e	-0.12588975
27	0x3c9a4b33	0.018834686
28	0xbda75061	-0.08169628
29	0x3c5041f8	0.012711041
30	0xbd44787d	-0.04796647
31	0xbd387b30	-0.045039356
32	0xbd3c0cf1	-0.04591078
33	0xbd793a57	-0.060846653
34	0xbdd7fc4d	-0.105461694
35	0xbddb1c52	-0.10698761
36	0xbd5cd9b6	-0.053918563
37	0x3cb48d85	0.022040138
38	0x3b86bd91	0.0041119535
39	0xbcde26c3	-0.027118092
40	0xbc4a0a8a	-0.012331614
41	0x3da3ce65	0.07998351
42	0x3c687e87	0.014190323
43	0x3cd7246b	0.026262483
44	0x3d56fcd4	0.05248721
45	0x3dc91da6	0.09820108
46	0x3c83886b	0.01605626
47	0x3dd72b10	0.105062604
48	0x3c3e1ca3	0.011603507
49	0x3d238c81	0.039928917
50	0x3dacf327	0.08444815
51	0x3d89e7a3	0.06733634
52	0x3dcabca3	0.09899261
53	0x3d8bed7f	0.06832408
54	0xbca6d259	-0.020363973
55	0xbbd5146f	-0.00650268
56	0xbd684b8b	-0.05671267
57	0xbd819fe0	-0.06329322
58	0xbdecfd90	-0.11571801
59	0xbd8705f1	-0.0659293
60	0xbe0a7042	-0.13519385
61	0xbda10c9a	-0.07863732
62	0xbdc7eb7c	-0.09761712
63	0x3bfb4ea3	0.0076692863
64	0x3dc1baed	0.094594814
65	0x3ce1705e	0.027519401
66	0x3c68398e	0.014173878
67	0x3dba6182	0.091006294
68	0x3db6bf83	0.08923247
69	0x3d82f95b	0.06395217
70	0x3dd835f6	0.10557167
71	0x3d718f5a	0.0589746
72	0xbd918d69	-0.0710705
73	0xbc7e72d3	-0.015530306
74	0xbd7c27e0	-0.061561465
75	0xbccb2425	-0.024797508
76	0xbd94fc10	-0.072746396
77	0xbcdbe119	-0.026840733
78	0xbdbad997	-0.09123533
79	0xbdf4ecbd	-0.11959217
80	0xbe05bd4a	-0.1306049
81	0xbd9ee04b	-0.07757624
82	0x3c98e7da	0.018665243
83	0xbd446127	-0.047944214
84	0xbe013fbb	-0.12621967
85	0xbcd93bdd	-0.026517803
86	0xbdef6146	-0.11688475
87	0xbe0179f6	-0.1264418
88	0xbcbe4226	-0.023224901
89	0xbd6d008f	-0.05786186
90	0x3d81c477	0.06336301
91	0x3d238c4e	0.039928727
92	0x3c986f7a	0.018607844
93	0x3d60990a	0.05483345
94	0x3d2a6604	0.041601196
95	0x3db9caa0	0.09071851
96	0x3dcc971a	0.09989758
97	0x3d5e239a	0.05423317
98	0x3d862cac	0.06551489
99	0xbd7a2436	-0.06106969
100	0xbc73705c	-0.0148583315
101	0xbd2aba37	-0.041681495
102	0xbd227f2a	-0.039672054
103	0xbc25336f	-0.0100830635
104	0xbdd97ddb	-0.10619708
105	0xbd1b2ef7	-0.037886586
106	0xbdc87b4b	-0.09789141
107	0xbd1c2c45	-0.038128156
108	0x3d58a4e8	0.05289164
109	0x3de6d10d	0.11270342
110	0x3d6fba7d	0.05852746
111	0x3dbab5a2	0.09116675
112	0x3ce93fb0	0.028472751
113	0x3e01ab58	0.12663019
114	0x3d868d2e	0.06569897
115	0x3da5f933	0.081041716
116	0x3c8eec58	0.017446682
117	0xbdeca414	-0.11554733
118	0xbdeacc7e	-0.11464785
119	0xbd6ccbf4	-0.057811692
120	0xbc62d363	-0.013844344
121	0xbd950afc	-0.07277486
122	0xbcbcf442	-0.02306569
123	0xbcf471a7	-0.02983935
124	0xbd08efc2	-0.033431776
125	0xbcc9dd14	-0.024641551
126	0xbd1546ad	-0.036444355
127	0xbd8b0980	-0.06788921
128	0xbd521105	-0.051285762
129	0xbd1842cc	-0.037173077
130	0xbd45bd5f	-0.0482763
131	0xbcc6a46e	-0.024248328
132	0xbd4279a7	-0.047479298
133	0xbda25b85	-0.07927612
134	0xbde62221	-0.11236978
135	0xbdf47839	-0.11936993
136	0xbddaf700	-0.10691643
137	0xbddb8188	-0.107180655
138	0xbdbf0682	-0.09327413
139	0xbdafbdfb	-0.08581158
140	0xbd1901a6	-0.037355088
141	0xbca37ad1	-0.019956024
142	0xbcd36f6b	-0.025809964
143	0xbd49826e	-0.049196653
144	0x3cd92fac	0.02651199
145	0x3dc1115d	0.0942714
146	0x3da3235a	0.07965727
147	0x3d9c4a29	0.076313324
148	0x3d7ea43e	0.062168352
149	0x3dd85b6a	0.10564311
150	0x3db0debd	0.08636234
151	0x3d9edfdb	0.07757541
152	0x3def6364	0.11688879
153	0x3e02e54f	0.12782787
154	0x3e144951	0.14481093
155	0x3d3d7977	0.046258416
156	0x3cfb783e	0.030696984
157	0xbce62e3e	-0.028098222
158	0xbcc6a167	-0.024246885
159	0xbc844939	-0.016148197
160	0x3d014414	0.031559065
161	0x3d19d9bf	0.037561174
162	0x3da9e5c4	0.082957774
163	0x3d267557	0.040639248
164	0x3c983b64	0.018583007
165	0x3c312ed9	0.010814392
166	0x3dcbc982	0.09950544
167	0x3d9220d3	0.07135167
168	0x3dccfbce	0.100089654
169	0x3e0cd52b	0.13753192
170	0x3df593a8	0.11991054
171	0x3c859908	0.016308323
172	0x3d9c6962	0.07637288
173	0x3d5e7dcb	0.054319184
174	0x3dd7d256	0.10538165
175	0x3c8ea28a	0.017411489
176	0x3bb01bd5	0.0053744116
177	0x3ceb3e88	0.02871634
178	0x3d3fe74c	0.04685144
179	0x3de6a94a	0.11262758
180	0x3d37c563	0.044865977
181	0x3d465acf	0.048426446
182	0x3c470beb	0.012148838
183	0x3d7cce38	0.061720103
184	0x3d31849b	0.043339353
185	0x3dd61678	0.10453504
186	0x3e0c86fb	0.13723366
187	0x3dfc5606	0.12321095
188	0x3e00c781	0.12576105
189	0x3d136c3b	0.03599189
190	0xbd40b6a6	-0.047049187
191	0x3d40d172	0.047074743
192	0xbbfe4ccc	-0.0077606197
193	0x3d8586c0	0.06519842
194	0xbc61985b	-0.0137692345
195	0xbc86f52e	-0.016474333
196	0x3d961496	0.07328145
197	0xbd03596a	-0.032067694
198	0xbde7a681	-0.11311055
199	0xbc4bfd4c	-0.012450527
200	0xbdd1d168	-0.10245019
201	0xbe0046ba	-0.1252698
202	0xbd8c22de	-0.06842588
203	0xbcc342ca	-0.023835558
204	0xbe05c01d	-0.13061567
205	0xbd3d786f	-0.046257433
206	0xbd9a1da4	-0.07525185
207	0xbda6fe87	-0.08154016
208	0xbd1c1243	-0.038103353
209	0xbdce3c96	-0.100701496
210	0xbcb3f49d	-0.021967227
211	0xbd564a45	-0.052316923
212	0xbd895a9a	-0.06706734
213	0xbd2c7ee5	-0.042113204
214	0xbdae4b43	-0.08510449
215	0xbd9ce1a5	-0.07660226
216	0xbd6b6e8c	-0.057478473
217	0xbc92b937	-0.017910583
218	0xbd1872a0	-0.03721869
219	0xbd98f5b6	-0.07468741
220	0xbd8555dc	-0.06510517
221	0xbcfa6ad3	-0.030568516
222	0xbd7bd6b8	-0.06148407
223	0xbd4c38a9	-0.049858723
224	0xbe14fdbc	-0.14549917
225	0x3c40aed8	0.011760436
226	0xbd2a925f	-0.041643497
227	0xbc504dd7	-0.012713871
228	0xbd0c421f	-0.034242745
229	0xbda6e2e6	-0.08148746
230	0xbdc07ab9	-0.093984075
231	0xbd11cb74	-0.03559442
232	0xbde2afb8	-0.11068672
233	0xbcc477d4	-0.02398292
234	0x3c8b15a0	0.016978085
235	0x3a8beb20	0.0010674931
236	0x3d37b33c	0.044848666
237	0x3c8475c1	0.01616943
238	0xbcef78ac	-0.029232346
239	0xbcb2fd62	-0.021849338
240	0x3c8fe34d	0.01756444
241	0x3d285cfc	0.0411043
242	0xbb8bf809	-0.0042715115
243	0xbd85eab9	-0.065389104
244	0x3bdb05e2	0.006684051
245	0xbd7f3363	-0.062304866
246	0xbd33b60c	-0.043874785
247	0xbd3b161e	-0.04567539
248	0xbbef3535	-0.007300044
249	0xbd0aabc1	-0.033855204
250	0xbd30eafc	-0.04319285
251	0xbde852ca	-0.11343916
252	0x3e02bb6c	0.12766808
253	0x3dfb5e44	0.12273839
254	0x3db528aa	0.08845647
255	0x3c3eb96a	0.011640886
