LAB/AOC_Lab1_2024/AOC_lab1/N26122246_Cifar10.onnx (onnx, 600554 bytes, 65 tensors)

conv2.weight f4 [64, 64, 3, 3]
0	0x3b923737	0.0044621485
1	0xbcdf1de4	-0.027235933
2	0xbc8043b2	-0.01565728
3	0xbcab329d	-0.020898158
4	0x3d281db1	0.04104394
5	0x3ccf1fa2	0.025283638
6	0x3cee2ba9	0.029073553
7	0x3ca44249	0.020051138
8	0xbc30ae5e	-0.01078376
9	0x3cd790f5	0.026314238
10	0xba8de32b	-0.0010825148
11	0x3c2b3753	0.010450202
12	0x3c55c3ae	0.013047142
13	0xbc447d2c	-0.011992734
14	0xbc25ec10	-0.0101270825
15	0x3c312a62	0.0108133275
16	0xbc8e2d03	-0.017355448
17	0x3cc52e86	0.024070036
18	0xbbc0a846	-0.0058794348
19	0xbc5c7604	-0.0134558715
20	0x3cb250db	0.02176707
21	0x3d0c6734	0.03427811
22	0x3d1573d4	0.036487415
23	0xbc814f85	-0.015784988
24	0x3d0e896d	0.03479903
25	0xbcc73bb2	-0.024320457
26	0xbb3aab45	-0.0028483432
27	0x3c4c34e3	0.012463781
28	0xbd15ab0b	-0.036540072
29	0x3ca51fdf	0.020156799
30	0xbc10f2b7	-0.00884693
31	0xbcb636ed	-0.022242988
32	0x3c6486eb	0.013948183
33	0x3ca695cf	0.020335106
34	0xbd1d1adc	-0.038355693
35	0xbc0f04d2	-0.008729177
36	0xbb74c666	-0.00373497
37	0xbbefe112	-0.0073205316
38	0x3b89a636	0.004200722
39	0x3cb868ce	0.022510912
40	0x3cb3eae2	0.021962587
41	0xbcc4dd89	-0.024031417
42	0xbcba04d1	-0.022707375
43	0x3d14d08b	0.036331695
44	0xbd16b21f	-0.036790963
45	0xbc78eac4	-0.015192691
46	0xbd13e70d	-0.03610902
47	0xbcdf298a	-0.027241487
48	0xbd2889fc	-0.041147217
49	0xbd25fa95	-0.040522177
50	0xbcf6c6ed	-0.030124152
51	0xbd26b8f4	-0.04070373
52	0xbd07b751	-0.03313381
53	0xbcc5b302	-0.02413321
54	0xbcfb2bf3	-0.030660605
55	0x3d042c7b	0.032268982
56	0xbce67d42	-0.0281359
57	0xbbabb866	-0.005240488
58	0x3c2a6d08	0.010401972
59	0xbd05b169	-0.032639895
60	0xbb9d8a2f	-0.0048077325
61	0xbb15bace	-0.002284694
62	0x3cb16888	0.02165629
63	0x3c8dd020	0.017311156
64	0x3b41e42f	0.002958547
65	0x3c1ff09e	0.009761957
66	0x3c279774	0.01022898
67	0xbd0725ac	-0.03299491
68	0xbcb67a66	-0.022275161
69	0x3ad51bac	0.0016258857
70	0x3c207673	0.0097938655
71	0xbd141d9c	-0.03616105
72	0xbc170285	-0.009216909
73	0xbd23b805	-0.039970417
74	0xbd0dbf08	-0.03460601
75	0x3d24450e	0.04010492
76	0xbd223baa	-0.03960768
77	0xbcb3fab0	-0.021970123
78	0x3b0bfcb0	0.002136033
79	0x3c5c7125	0.01345471
80	0xbc82f450	-0.015985638
81	0xbc0fd8c0	-0.008779705
82	0xbc22feb4	-0.009948421
83	0x3ceb2a86	0.0287068
84	0x3c568b4c	0.013094734
85	0xbcfcba2f	-0.030850498
86	0x3c52b4bb	0.012860472
87	0xbc9fcb20	-0.019506037
88	0xbd03cb1e	-0.03217613
89	0x3c7909d6	0.015200099
90	0xbd175ce8	-0.036953837
91	0xbd263e44	-0.040586725
92	0xbcc70f1a	-0.024299193
93	0xbc9456d3	-0.018107807
94	0x3cae4c06	0.021276485
95	0xbc16be45	-0.009200637
96	0xbcceb31e	-0.025231894
97	0xbcfb99af	-0.03071293
98	0x3cf5a471	0.029985638
99	0x3d09cf9a	0.03364525
100	0x3c06acea	0.008219937
101	0x3ca714eb	0.020395717
102	0x3c397d5e	0.011321394
103	0x3d017640	0.031606913
104	0xbcbf2b09	-0.02333595
105	0x3c951e88	0.018203035
106	0x3cbedea2	0.023299519
107	0xbd167a72	-0.036737867
108	0xbd23cb96	-0.039989077
109	0x3d27ee77	0.040998902
110	0xbc9bc33c	-0.019013993
111	0x3c9d35bc	0.019190662
112	0x3d2a5fed	0.04159539
113	0xbd26c90e	-0.040719084
114	0x3c48cc49	0.012255737
115	0x3c1859e0	0.009298772
116	0x3d004c21	0.031322602
117	0xbd21bd53	-0.039487194
118	0x3cfdb1ed	0.03096863
119	0xbd1fa00e	-0.038971
120	0x3c8949b4	0.016758777
121	0x3ca4353b	0.020044914
122	0x3d0ad351	0.033892933
123	0x3bac98c8	0.0052672364
124	0x3d1a284c	0.037636086
125	0x3bceff72	0.0063170725
126	0xbcc35745	-0.023845324
127	0xbd29b3da	-0.041431285
128	0x3ce5c114	0.028046168
129	0x3cc8c12b	0.024506172
130	0xbb24f9ce	-0.002517331
131	0x3a54cc63	0.0008117614
132	0xbcfb50fd	-0.030678267
133	0xbc7b2657	-0.015328965
134	0x3d1f1373	0.038836908
135	0x3cb083c1	0.0215472
136	0xbd217550	-0.03941852
137	0xbb229ee2	-0.002481394
138	0xbce21f8d	-0.027602935
139	0xbbf93898	-0.0076056235
140	0x3cfce37d	0.030870194
141	0x3c740981	0.014894844
142	0xbc9236fb	-0.017848482
143	0x3cf0c2a0	0.02938968
144	0x3c90d869	0.017681317
145	0xba1301c9	-0.0005607871
146	0x3cc7a86d	0.024372304
147	0xbcc549f7	-0.02408312
148	0x3c5247d2	0.012834506
149	0xbc864670	-0.01639101
150	0xbc15af19	-0.009135985
151	0xbd1beab4	-0.038065627
152	0xbb856731	-0.0040711393
153	0x3d2259f0	0.039636552
154	0x3bd220a2	0.0064125815
155	0x3c8b1562	0.01697797
156	0xbd0fda5f	-0.035120364
157	0xbb15e96b	-0.0022874724
158	0x3c23034e	0.009949518
159	0xbd062cb1	-0.032757465
160	0x3d041d1a	0.032254316
161	0x3ce5dea1	0.02806026
162	0x3c2a6e70	0.010402307
163	0x3b93c00c	0.0045089778
164	0x3b91c75c	0.0044488143
165	0xbcec2d3e	-0.028830167
166	0xbbffd32a	-0.007807155
167	0x3c92c5ce	0.017916586
168	0x3c70efc6	0.014705604
169	0xbbb3d262	-0.005487726
170	0xbc8785f6	-0.01654337
171	0xbcde101d	-0.027107293
172	0xbbad3d52	-0.005286851
173	0x3c8d9648	0.017283574
174	0x3cf40701	0.029788496
175	0xbd076f82	-0.033065327
176	0xbd1d66e1	-0.03842819
177	0x3cd6d025	0.026222298
178	0x3cf4cdd5	0.029883305
179	0xbca766e4	-0.020434804
180	0x3d1ca437	0.038242545
181	0xbd100cbe	-0.035168402
182	0x3cc035c8	0.023463145
183	0xbd1c2bd3	-0.03812773
184	0x3c5f1657	0.013616166
185	0x3c73fc20	0.014891654
186	0x3d1957e4	0.037437335
187	0x3c46b364	0.012127731
188	0xbd1c394c	-0.03814058
189	0x3c2f4fa0	0.010700136
190	0xbcee777c	-0.029109709
191	0x3d05507b	0.032547455
192	0xbc3e9f5b	-0.011634673
193	0x3cb5a1e7	0.022171928
194	0xbd22bad2	-0.039728947
195	0x3bfa4a8f	0.0076382826
196	0xbc9ed1b7	-0.01938711
197	0x3c9cc418	0.019136474
198	0x3c9a09be	0.018803474
199	0xbc902bb8	-0.017598972
200	0xbca78b7e	-0.020452257
201	0xbcf282f7	-0.029603465
202	0x3cfcdd46	0.03086723
203	0xbd1caf75	-0.038253266
204	0xbca1b093	-0.019737517
205	0xbd031f2a	-0.032012142
206	0x3d008abf	0.03138232
207	0x3cdc9ff5	0.026931742
208	0x3cd82e39	0.026389228
209	0xbcd2941b	-0.025705388
210	0xbcb0f63e	-0.021601792
211	0xbce3aa30	-0.027791113
212	0xbc4494d2	-0.011998372
213	0xbcd43ea7	-0.025908781
214	0x3bc12f40	0.005895525
215	0xbab628c9	-0.0013897653
216	0x3b1858aa	0.0023246207
217	0x3c29fe55	0.010375579
218	0xbca31271	-0.019906254
219	0x3d16ab2d	0.03678434
220	0x3c9b616f	0.018967358
221	0x3cee1a56	0.029065292
222	0xbc8aa4d3	-0.016924297
223	0xbd0b5fb8	-0.03402683
224	0xbd237ac1	-0.03991199
225	0x3d1a63a5	0.037692685
226	0x3cdf2c1a	0.027242709
227	0xbd0f88fe	-0.035042755
228	0x3bd10eb3	0.006379926
229	0xbd2319fb	-0.0398197
230	0x3c028103	0.007965329
231	0xbcd54b68	-0.026036933
232	0x3c918cc7	0.017767323
233	0x3be15c68	0.0068774708
234	0x3aa53861	0.0012605303
235	0xbace339d	-0.0015731935
236	0x3c7767dc	0.015100446
237	0x3d11d822	0.03560651
238	0x3d10b33b	0.035327177
239	0x3c80f169	0.015740113
240	0x3cb65c31	0.022260757
241	0xbbf5f0e2	-0.007505522
242	0x3c9f3378	0.019433722
243	0xbd1793da	-0.037006237
244	0x3c9e141d	0.0192967
245	0x3c99b6ff	0.018764017
246	0xbd2a6f8f	-0.041610297
247	0x3c75eaa7	0.015009559
248	0x3d1c37df	0.03813922
249	0x3bdda8e9	0.0067645204
250	0xbca10e9f	-0.019660292
251	0xbd1be2c8	-0.038058072
252	0x3d1c5239	0.03816435
253	0xbcd3a88f	-0.025837211
254	0x3c8efd51	0.017454775
255	0x3c467cbd	0.012114701

bn2.weight f4 [64]
0	0x3f800000	1.0
1	0x3f800000	1.0
2	0x3f800000	1.0
3	0x3f800000	1.0
4	0x3f800000	1.0
5	0x3f7fffff	0.99999994
6	0x3f800000	1.0
7	0x3f800000	1.0
8	0x3f800000	1.0
9	0x3f800000	1.0
10	0x3f800000	1.0
11	0x3f800000	1.0
12	0x3f800000	1.0
13	0x3f800000	1.0
14	0x3f800000	1.0
15	0x3f800000	1.0
16	0x3f800000	1.0
17	0x3f800000	1.0
18	0x3f800000	1.0
19	0x3f800000	1.0
20	0x3f800000	1.0
21	0x3f800000	1.0
22	0x3f800000	1.0
23	0x3f800000	1.0
24	0x3f800000	1.0
25	0x3f800000	1.0
26	0x3f800000	1.0
27	0x3f800000	1.0
28	0x3f800000	1.0
29	0x3f800000	1.0
30	0x3f7fffff	0.99999994
31	0x3f800000	1.0
32	0x3f800000	1.0
33	0x3f800000	1.0
34	0x3f800000	1.0
35	0x3f800000	1.0
36	0x3f800000	1.0
37	0x3f800000	1.0
38	0x3f800000	1.0
39	0x3f800000	1.0
40	0x3f800000	1.0
41	0x3f800000	1.0
42	0x3f800000	1.0
43	0x3f800000	1.0
44	0x3f800000	1.0
45	0x3f800000	1.0
46	0x3f800000	1.0
47	0x3f800000	1.0
48	0x3f800000	1.0
49	0x3f800000	1.0
50	0x3f7fffff	0.99999994
51	0x3f800000	1.0
52	0x3f800000	1.0
53	0x3f800000	1.0
54	0x3f800000	1.0
55	0x3f800000	1.0
56	0x3f800000	1.0
57	0x3f800000	1.0
58	0x3f800000	1.0
59	0x3f800000	1.0
60	0x3f800000	1.0
61	0x3f800000	1.0
62	0x3f7fffff	0.99999994
63	0x3f800000	1.0

bn2.bias f4 [64]
0	0xb47394db	-2.2685292e-07
1	0xb50222a2	-4.847917e-07
2	0x3520c39a	5.988928e-07
3	0xb4ae5368	-3.2470712e-07
4	0xb406e354	-1.2562424e-07
5	0xb64aba38	-3.020874e-06
6	0x35887f94	1.016992e-06
7	0x34e7efcc	4.3201578e-07
8	0x352733c9	6.2287705e-07
9	0x35a66f8d	1.2400429e-06
10	0x335455e0	4.94382e-08
11	0x3602c74a	1.948751e-06
12	0x35148c2c	5.5338273e-07
13	0xb4ca4a54	-3.7679513e-07
14	0x35825238	9.709684e-07
15	0x3691b2fc	4.3421733e-06
16	0x33cfef84	9.682756e-08
17	0xb5732152	-9.057304e-07
18	0x35df1ae2	1.6622619e-06
19	0xb67cce1a	-3.7670893e-06
20	0xb604cf65	-1.9790252e-06
21	0x358481b2	9.872513e-07
22	0xb4d43e94	-3.953361e-07
23	0x35f8bf2a	1.8533076e-06
24	0x352334c9	6.0799044e-07
25	0xb4c703bd	-3.7069358e-07
26	0xb2e11843	-2.620448e-08
27	0xb4e9fd83	-4.3584086e-07
28	0xb4998d12	-2.8601113e-07
29	0xb4b89649	-3.4382018e-07
30	0xb66f21a1	-3.563335e-06
31	0xb538aa00	-6.8792724e-07
32	0xb6032617	-1.9542692e-06
33	0xb512a66a	-5.46314e-07
34	0xb56c84c7	-8.811007e-07
35	0xb502a8ec	-4.867459e-07
36	0xb48eec31	-2.6621413e-07
37	0x355341d9	7.8699446e-07
38	0xb5faacee	-1.8676781e-06
39	0xb5b9f7a1	-1.3855644e-06
40	0x3427a5a4	1.5613347e-07
41	0xb5be0099	-1.4156277e-06
42	0xb3033281	-3.0546747e-08
43	0x35a31b85	1.2152456e-06
44	0xb4c48009	-3.6601003e-07
45	0xb618a1e8	-2.2744007e-06
46	0x354bd378	7.593112e-07
47	0x34bd64d5	3.5277358e-07
48	0xb5a34db0	-1.2167056e-06
49	0x34b15c43	3.3035948e-07
50	0xb58ab33e	-1.0333968e-06
51	0x35332c06	6.674676e-07
52	0x35696f17	8.696092e-07
53	0xb56e9853	-8.888357e-07
54	0xb504cf4b	-4.9475483e-07
55	0x342f0e82	1.6303423e-07
56	0x35a60832	1.2370349e-06
57	0xb5300a89	-6.558044e-07
58	0x358fd0f5	1.0715145e-06
59	0xb4894a64	-2.5572365e-07
60	0x366958a6	3.4771306e-06
61	0x34382521	1.7149843e-07
62	0xb56da195	-8.8524513e-07
63	0xb2694e12	-1.3580136e-08

bn2.running_mean f4 [64]
0	0xbeb4f049	-0.35339573
1	0xbe27b3bb	-0.16377155
2	0xbe0caee6	-0.13738593
3	0xbe385083	-0.17999463
4	0xbe0167c3	-0.12637238
5	0x3d8fd60a	0.070232466
6	0xbd173cc0	-0.03692317
7	0xbe312f31	-0.17303158
8	0xbea8a518	-0.32938457
9	0x3ec4d7ec	0.38445985
10	0xbd3cc21e	-0.046083562
11	0x3e5ed052	0.21759155
12	0x3f076a8e	0.52896965
13	0x3ec6bb05	0.3881456
14	0x3d89753b	0.06711813
15	0x3e055be8	0.1302334
16	0x3b96936b	0.0045952103
17	0xbdd6242c	-0.10456118
18	0xbe220eda	-0.15825978
19	0xbe3f3013	-0.18670683
20	0xbda18825	-0.07887296
21	0x3e47b6cc	0.19503325
22	0xbcb1916f	-0.021675793
23	0xbe756d77	-0.23967539
24	0x3d9cadae	0.07650314
25	0xbd7cbabe	-0.06170153
26	0xbd0da54c	-0.034581468
27	0x3cc8049e	0.024416264
28	0xbe184644	-0.14870554
29	0x3d9ec02f	0.077515
30	0x3dddfc83	0.108391784
31	0xbe08ccc9	-0.1335937
32	0x3e69d496	0.22835001
33	0x3eee9b24	0.46602738
34	0x3da275cc	0.07932624
35	0xbe9cf05d	-0.30652133
36	0xbdbef1cf	-0.09323465
37	0x3e2a4acf	0.166301
38	0x3ea84b5a	0.3286999
39	0xbe1860a4	-0.14880615
40	0xbe5be028	-0.21472228
41	0x3dcb23f7	0.09918969
42	0x3d6d2f54	0.057906464
43	0xbe29f4ee	-0.1659734
44	0xbf0c601f	-0.5483417
45	0x3d8dee91	0.069302686
46	0x3d691c7f	0.05691194
47	0xbca09db9	-0.019606458
48	0x3e3ed241	0.18634893
49	0x3defa7d0	0.117019296
50	0xbdd2846c	-0.10279164
51	0xbe0ad114	-0.1355632
52	0x3c26b513	0.010175007
53	0xbd344529	-0.04401127
54	0xbde6338a	-0.11240299
55	0xbea549f5	-0.32282987
56	0xbc7f1d55	-0.015570958
57	0x3d9d923c	0.076939076
58	0x3e956b32	0.29183346
59	0xbde0d055	-0.10977236
60	0x3e79fcd3	0.24412851
61	0xbde6afbc	-0.112639874
62	0x3e8171af	0.25282046
63	0xbb10f7d3	-0.002212037

bn2.running_var f4 [64]
0	0x3e1c6f4a	0.15276828
1	0x3d83f6ad	0.06443534
2	0x3e42aff6	0.19012436
3	0x3dc70958	0.09718579
4	0x3e33cdf6	0.17559037
5	0x3e43b7e6	0.1911312
6	0x3e514549	0.20436586
7	0x3d812f03	0.06307795
8	0x3dfe40c6	0.12414698
9	0x3d9f976a	0.07792552
10	0x3ddcd8f6	0.107835695
11	0x3d79fa81	0.061029915
12	0x3dead134	0.114656836
13	0x3e0db789	0.13839544
14	0x3db40468	0.08789903
15	0x3d7aa0f2	0.061188646
16	0x3ec2b1c4	0.3802625
17	0x3e955c39	0.29171923
18	0x3d97e193	0.07416072
19	0x3eab7bc7	0.33492872
20	0x3d97e060	0.07415843
21	0x3ea902e3	0.33010015
22	0x3d937320	0.07199693
23	0x3e994f83	0.29943475
24	0x3e2ddd4d	0.16978951
25	0x3da24c87	0.07924753
26	0x3dc98ff1	0.09841908
27	0x3da1b06f	0.0789498
28	0x3dd3afbc	0.10336253
29	0x3e2753de	0.16340587
30	0x3e2f1b83	0.17100339
31	0x3da870ab	0.08224615
32	0x3daac09d	0.08337519
33	0x3e03c4bc	0.12868017
34	0x3dc5ee2b	0.096645676
35	0x3e158142	0.14600089
36	0x3daa2588	0.0830794
37	0x3eb569d2	0.35432297
38	0x3e8a6aaa	0.27034503
39	0x3d4fdf8a	0.050750293
40	0x3d62dc9a	0.055386163
41	0x3d89801d	0.06713889
42	0x3dab25ed	0.08356843
43	0x3e070a3f	0.13187502
44	0x3e319183	0.17340665
45	0x3d2c7a6f	0.04210895
46	0x3dd0e752	0.10200371
47	0x3e0f761c	0.14009899
48	0x3dc6a653	0.096996926
49	0x3e19590f	0.1497538
50	0x3d6f6273	0.058443498
51	0x3e55102c	0.2080695
52	0x3d993a64	0.0748184
53	0x3ddfc0e3	0.10925462
54	0x3d4dd674	0.050253347
55	0x3dc8fa5a	0.09813376
56	0x3dd1c2cd	0.102422334
57	0x3d879a51	0.066212304
58	0x3e07b3a8	0.13252127
59	0x3dab0f01	0.08352471
60	0x3e3b0df1	0.18267037
61	0x3e0fb33c	0.14033216
62	0x3e1afef3	0.15136318
63	0x3d9cb32f	0.07651364

conv3.weight f4 [64, 64, 3, 3]
0	0xbd0930af	-0.033493694
1	0xbd0cb93c	-0.03435634
2	0x3cfc4ec6	0.03079928
3	0x3d256570	0.04037994
4	0xbb0f33b8	-0.0021850895
5	0x3c4c71ff	0.012478351
6	0x3b53e70d	0.0032333762
7	0x3c1c252c	0.009530347
8	0xbd09a2b2	-0.033602424
9	0xbcb0a764	-0.021564193
10	0xbc365fde	-0.011131255
11	0xbca58c0f	-0.020208387
12	0x3c902ebb	0.017600408
13	0x3c72f486	0.014828807
14	0x3cdc4668	0.026889041
15	0x3cda4b6f	0.026647298
16	0xbd20f76d	-0.039298464
17	0xbc837c5c	-0.01605051
18	0xbce5ac15	-0.028036157
19	0xbc38f112	-0.011287944
20	0x3c0ffa4c	0.008787703
21	0xbd1bb1b8	-0.038011283
22	0x3cb2b807	0.021816267
23	0xbc181574	-0.009282459
24	0xbbbd759b	-0.005781842
25	0xbba15a03	-0.0049240603
26	0xbbf092a4	-0.0073416997
27	0xbd09f65d	-0.033682216
28	0x3d0c33b3	0.03422899
29	0xbbee06f9	-0.007264015
30	0x3cbd6aaf	0.02312216
31	0x3d20d491	0.03926522
32	0x3be5e3f8	0.0070157014
33	0x3a00f038	0.0004918608
34	0xbd060fc7	-0.03272989
35	0xbca96634	-0.020678617
36	0xbc168224	-0.009186301
37	0xbd223500	-0.039601326
38	0x3c4cb368	0.012493946
39	0xbc2aa8ca	-0.010416219
40	0xbc516abc	-0.012781795
41	0xbbe6ca34	-0.0070431475
42	0x3d297c6c	0.041378424
43	0x3c10b7b5	0.008832862
44	0xbcd88f27	-0.026435448
45	0x3c5eb73f	0.013593494
46	0x3cb10158	0.021607086
47	0x3d164bbb	0.036693316
48	0x3b8b8b8c	0.0042585786
49	0xbb35eba3	-0.0027758859
50	0xbcefcf75	-0.029273728
51	0x3c93406b	0.017975053
52	0xbc0affb3	-0.008483815
53	0x3a0cc65e	0.0005370135
54	0xbc3d147d	-0.011540529
55	0xbd116673	-0.035498094
56	0x3d1bcb20	0.038035512
57	0xbd225ad8	-0.039637417
58	0x3d1d12cb	0.038348
59	0x3c834c80	0.016027689
60	0x3d0760af	0.03305119
61	0x3c445de1	0.011985273
62	0x3c5fb183	0.013653162
63	0x3b4a9ad1	0.0030915032
64	0xbccc3cba	-0.0249313
65	0xbc8666eb	-0.016406497
66	0x3d1dfe09	0.038572345
67	0x3d24ca00	0.040231705
68	0x3c66a638	0.014077716
69	0x3c951a5a	0.018201042
70	0x3cc64b6a	0.024205882
71	0x3ca81b38	0.020520791
72	0x3c7e6a41	0.015528263
73	0xbc1f49ff	-0.009722232
74	0xbd1afe28	-0.03784004
75	0x3d11e0ce	0.03561478
76	0xbc74e8d4	-0.014948089
77	0x3d062bbc	0.032756552
78	0xbd217841	-0.039421324
79	0x3d17a4db	0.037022453
80	0x3cc8f61d	0.024531418
81	0xbc91229e	-0.017716702
82	0xbcd40d90	-0.025885373
83	0x3cdf715f	0.02727574
84	0xbcc278c1	-0.02373922
85	0xbd01a18c	-0.031648204
86	0xbd20295a	-0.039101936
87	0xbc76bee0	-0.015060157
88	0xbcd18c75	-0.02557967
89	0x3d0eddf8	0.034879655
90	0xbcf506d5	-0.029910484
91	0x3b5899df	0.0033050699
92	0xbd172483	-0.036900055
93	0xbb9fdeb4	-0.004878843
94	0x3cb3abc9	0.0219325
95	0xbd134406	-0.035953544
96	0x3d1ff26d	0.039049555
97	0xbd0a4852	-0.033760376
98	0x3d1c45f6	0.038152657
99	0x3d295256	0.041338287
100	0x3caf1d75	0.02137635
101	0xbd14c23f	-0.03631806
102	0xbce78457	-0.028261347
103	0xbd0aecb8	-0.03391716
104	0x3cec9d44	0.028883584
105	0xbbc7d488	-0.0060983337
106	0x3c30a267	0.010780907
107	0xbd08177f	-0.033225533
108	0xbce1020b	-0.027466794
109	0x3c978fbf	0.01850116
110	0xbb627391	-0.0034553746
111	0xbc8e1f43	-0.017348891
112	0xbc34d6e3	-0.011037561
113	0xbcbdcac5	-0.023167977
114	0xbc435b21	-0.011923582
115	0xbce73de7	-0.02822776
116	0xbc818d7b	-0.015814533
117	0x3bdd79c0	0.0067588985
118	0xbc2eff1b	-0.010680939
119	0xbcf76814	-0.030200996
120	0xbd1c576c	-0.03816931
121	0xbcd0c0e0	-0.025482595
122	0xbc63da1f	-0.013906985
123	0xbbd07496	-0.0063615544
124	0xbd0ab88a	-0.033867396
125	0xbc426a2b	-0.011866133
126	0x3d1d8913	0.038460802
127	0xbbf8d742	-0.00759402
128	0x3d20a5f3	0.03922076
129	0xbc8bd554	-0.017069496
130	0xbb8113a4	-0.003939109
131	0x3c55fa31	0.013060139
132	0xbc9315dc	-0.01795476
133	0x3c93c34e	0.018037464
134	0xbc6f2dda	-0.014598334
135	0x3c86ba17	0.016446156
136	0x3cd0cbf6	0.025487881
137	0xbccd0442	-0.025026444
138	0xbc51a253	-0.012795049
139	0xbcedb695	-0.029017726
140	0xbd249a84	-0.04018642
141	0xbce68f35	-0.028144458
142	0xbd240de3	-0.040052306
143	0xbcb859b3	-0.02250371
144	0xbd0dc099	-0.034607504
145	0xbcaf5b85	-0.021405945
146	0x3c5b3e3d	0.013381538
147	0xbbd88c9b	-0.0066085584
148	0xbcb83426	-0.022485804
149	0xbb21a2e0	-0.0024663731
150	0x3ca936c0	0.02065599
151	0xbce4d898	-0.027935311
152	0x3d0d7c32	0.03454227
153	0xbc1780de	-0.009247033
154	0xbd235ff3	-0.039886426
155	0xbc0d4cb0	-0.008624241
156	0x3babf07a	0.005247173
157	0xbcf0660f	-0.02934554
158	0x3cf169a6	0.029469322
159	0x3c362c79	0.011119002
160	0xbc9a20c6	-0.018814456
161	0x3ac15ba1	0.0014752039
162	0x3cfcbed1	0.030852707
163	0x3b7ef50b	0.0038903381
164	0x3ca9c6ce	0.02072468
165	0x3ccb9c31	0.024854751
166	0x3d1a4516	0.03766354
167	0x3b51ae96	0.003199493
168	0x3c9d40f8	0.019196019
169	0x3cc76a40	0.024342656
170	0x3c94c08d	0.018158222
171	0xbceedbce	-0.029157545
172	0x3c764154	0.015030224
173	0xbd225778	-0.039634198
174	0xbc2f2072	-0.010688888
175	0xbd2917bc	-0.0412824
176	0x3c84295b	0.016133001
177	0xbcb96d57	-0.022635145
178	0xbcfc8be3	-0.030828422
179	0xbbb31d0b	-0.0054661087
180	0x3d20c8af	0.039253887
181	0x3d1ac73e	0.03778767
182	0x3ca6c2bc	0.020356528
183	0x3ba41d53	0.0050083785
184	0xbd2a0707	-0.041510608
185	0xbc19ea25	-0.009394203
186	0x3c2169f3	0.00985192
187	0xbd0062e2	-0.031344302
188	0x3aa93e93	0.0012912325
189	0xbcae7c0d	-0.021299386
190	0x3bb88592	0.005631157
191	0x3adc86de	0.0016824862
192	0xbd06be89	-0.032896552
193	0xbcecddf6	-0.028914433
194	0xbcb9bb8c	-0.022672437
195	0xb8b968d3	-8.8410125e-05
196	0x3be9511b	0.007120264
197	0xbc70dd3f	-0.014701187
198	0x3cefd9a1	0.029278578
199	0x3caaf10f	0.020866899
200	0x3c83b649	0.016078131
201	0xbcf09bcc	-0.029371165
202	0xbcfefa83	-0.031125313
203	0x3d1b87dc	0.037971362
204	0x3cacfa35	0.021115402
205	0xbcf7ef23	-0.030265396
206	0x3d118684	0.035528675
207	0xbc958f93	-0.018256938
208	0xbb43339c	-0.00297854
209	0xbd1b38d1	-0.03789598
210	0xbd26abdd	-0.040691245
211	0xbd19d117	-0.03755292
212	0xbc32c9d2	-0.0109123755
213	0x3b9032f6	0.0044006063
214	0xbbe4c0a0	-0.0069809705
215	0xbce9c6a9	-0.028537111
216	0xbd169916	-0.036767088
217	0xbcdb791e	-0.026791152
218	0xbc8e5c8f	-0.01737812
219	0xbb9abcbb	-0.0047222055
220	0x3cbfde3c	0.0234214
221	0x3d1196df	0.035544273
222	0x3ccbdd90	0.024885923
223	0xbc09f5f9	-0.008420461
224	0x3c853206	0.016259205
225	0x3cb00c5d	0.02149027
226	0x3c6a4740	0.014299214
227	0xbcd15a7a	-0.025555838
228	0x3c886508	0.016649738
229	0xbbd93de4	-0.0066296924
230	0xbd02a54c	-0.03189592
231	0xbcb9518c	-0.022621892
232	0xbc3d7a7d	-0.011564848
233	0x3cb9f881	0.022701504
234	0xbce88ac6	-0.028386485
235	0x3c908c3e	0.017644998
236	0x3cc68d5d	0.02423733
237	0x3c4649cf	0.012102558
238	0x3c9fec6f	0.01952192
239	0x3ce5e9d7	0.028065605
240	0xbc8316d0	-0.016002089
241	0xbd0622c8	-0.032748014
242	0xbc430a60	-0.011904329
243	0xbcb12306	-0.021623146
244	0x3cf828e1	0.03029293
245	0x3cbb42d1	0.022859009
246	0x3ccdbfa3	0.025115794
247	0x3c0ccd19	0.008593821
248	0x384a125f	4.8177662e-05
249	0xbc08e3ab	-0.0083550615
250	0xbd0d5fc4	-0.034515157
251	0xbd099e06	-0.03359797
252	0x3c427bf8	0.011870377
253	0x3d1c9d88	0.03823617
254	0xbcbc3940	-0.022976518
255	0x3d1961b7	0.037446704

bn3.weight f4 [64]
0	0x3f800000	1.0
1	0x3f800000	1.0
2	0x3f800000	1.0
3	0x3f800000	1.0
4	0x3f800000	1.0
5	0x3f800000	1.0
6	0x3f800000	1.0
7	0x3f800000	1.0
8	0x3f800000	1.0
9	0x3f800000	1.0
10	0x3f800000	1.0
11	0x3f800000	1.0
12	0x3f800000	1.0
13	0x3f800000	1.0
14	0x3f800000	1.0
15	0x3f800000	1.0
16	0x3f800000	1.0
17	0x3f800000	1.0
18	0x3f800000	1.0
19	0x3f800000	1.0
20	0x3f800000	1.0
21	0x3f800000	1.0
22	0x3f800000	1.0
23	0x3f800000	1.0
24	0x3f800000	1.0
25	0x3f800000	1.0
26	0x3f800000	1.0
27	0x3f800000	1.0
28	0x3f800000	1.0
29	0x3f800000	1.0
30	0x3f800000	1.0
31	0x3f800000	1.0
32	0x3f800000	1.0
33	0x3f800000	1.0
34	0x3f800000	1.0
35	0x3f800000	1.0
36	0x3f800000	1.0
37	0x3f800000	1.0
38	0x3f800000	1.0
39	0x3f800000	1.0
40	0x3f800000	1.0
41	0x3f800000	1.0
42	0x3f800000	1.0
43	0x3f800000	1.0
44	0x3f800000	1.0
45	0x3f800000	1.0
46	0x3f800000	1.0
47	0x3f800000	1.0
48	0x3f800000	1.0
49	0x3f800000	1.0
50	0x3f800000	1.0
51	0x3f7ffffd	0.9999998
52	0x3f800000	1.0
53	0x3f800000	1.0
54	0x3f800000	1.0
55	0x3f800000	1.0
56	0x3f800000	1.0
57	0x3f800000	1.0
58	0x3f800000	1.0
59	0x3f800000	1.0
60	0x3f7fffff	0.99999994
61	0x3f800000	1.0
62	0x3f800000	1.0
63	0x3f800000	1.0

bn3.bias f4 [64]
0	0x337c8b78	5.880017e-08
1	0x34cb4220	3.785981e-07
2	0x35d26586	1.5675766e-06
3	0xb58e7a19	-1.061536e-06
4	0xb46dc143	-2.2142653e-07
5	0xb6005bf6	-1.9127015e-06
6	0xb60befee	-2.0852272e-06
7	0xb5a6a41a	-1.2415724e-06
8	0x352a0509	6.333726e-07
9	0x35e9e14a	1.742542e-06
10	0x349edbc3	2.958969e-07
11	0x358d3399	1.0520336e-06
12	0xb500ea52	-4.8024697e-07
13	0x358f833c	1.0692524e-06
14	0x331c8b90	3.644851e-08
15	0xb5ba2f2e	-1.3871811e-06
16	0xb59b0fe3	-1.1553024e-06
17	0x34a9f367	3.1655802e-07
18	0x34308e8d	1.6443137e-07
19	0x352a5b14	6.346247e-07
20	0xb5abe85d	-1.280812e-06
21	0x338410d9	6.1497936e-08
22	0x33606356	5.224441e-08
23	0x338beb38	6.515478e-08
24	0x3606d9b3	2.0094274e-06
25	0xb2b3a8e8	-2.0915152e-08
26	0x34626231	2.1083612e-07
27	0x35855667	9.934419e-07
28	0x362208e5	2.4145058e-06
29	0x3226a8c7	9.700847e-09
30	0x361a0b30	2.29543e-06
31	0xb34ab8e8	-4.719996e-08
32	0xb5e2500e	-1.6861611e-06
33	0xb53b5a0c	-6.9793964e-07
34	0x34502a96	1.9387002e-07
35	0xb50a5d22	-5.154453e-07
36	0xb6004bd7	-1.911763e-06
37	0xb5124fe0	-5.450547e-07
38	0x33877be8	6.308966e-08
39	0x35af23fe	1.3048991e-06
40	0x35625fe6	8.433111e-07
41	0xb385c88f	-6.2297765e-08
42	0xb4857c24	-2.4863505e-07
43	0xb5926b65	-1.0909104e-06
44	0xb5ca5cf5	-1.5077227e-06
45	0x3524ea29	6.143551e-07
46	0xb47b3f2e	-2.3399181e-07
47	0xb58709c9	-1.0061132e-06
48	0x342351f6	1.5210375e-07
49	0xb34862ad	-4.6655874e-08
50	0xb5926c95	-1.0909449e-06
51	0xb65edf21	-3.3210456e-06
52	0xb5c2713b	-1.4487081e-06
53	0xb4c0df7c	-3.5925393e-07
54	0xb5a40b37	-1.2222216e-06
55	0xb624cfbc	-2.4558822e-06
56	0x34e91771	4.3416688e-07
57	0xb5973451	-1.1265603e-06
58	0x35649672	8.5155546e-07
59	0xb512874c	-5.458612e-07
60	0xb6871d9d	-4.026761e-06
61	0x3544d324	7.332294e-07
62	0x358529cc	9.921437e-07
63	0x36013f60	1.9259387e-06

bn3.running_mean f4 [64]
0	0xbe8b20db	-0.27173504
1	0xbd082894	-0.033241823
2	0xbbc9946f	-0.006151728
3	0xbd3d595d	-0.0462278
4	0xbd92f464	-0.0717552
5	0xbd2729c3	-0.04081131
6	0x3bcd3e9c	0.006263567
7	0xbd99f6ca	-0.075177744
8	0x3ea2294e	0.31672138
9	0x3e7dd0d8	0.24786699
10	0xbe12eabc	-0.14347357
11	0xbdd830bf	-0.105561726
12	0x3da28416	0.0793535
13	0x3df2c1d4	0.11853376
14	0x3dddf97a	0.108385995
15	0xbc9c0195	-0.019043723
16	0xbdb8f97b	-0.090319596
17	0xbe2d5c2f	-0.16929697
18	0x3dfcf2ac	0.123509735
19	0x3d9f7ab1	0.077870734
20	0xbe2577c7	-0.16158973
21	0xbd1ed6c8	-0.03877905
22	0x3dd376f0	0.1032542
23	0xbce4e829	-0.027942734
24	0x3e0a4764	0.13503796
25	0xbdc21c01	-0.094779976
26	0x3e4efe2a	0.20214143
27	0x3dd523f8	0.10407251
28	0x3dc92600	0.09821701
29	0xbd32a2f5	-0.04361244
30	0x3dcc0757	0.099623375
31	0x3bda5e75	0.006664092
32	0x3e44c242	0.19214728
33	0xbdca0de9	-0.098659344
34	0xbe0221e2	-0.12708238
35	0x3dba2092	0.090882435
36	0x3c030b81	0.007998348
37	0xbe7f64ac	-0.24940747
38	0x3d097c2d	0.03356569
39	0x3e564794	0.20925742
40	0xbe02a25e	-0.1275725
41	0x3db448eb	0.088029705
42	0xbdde9fe1	-0.10870338
43	0x3deafa90	0.11473572
44	0xbe5c3bec	-0.21507233
45	0x3dde13f7	0.10843652
46	0xbdfab3e2	-0.12241341
47	0xbe4ba30a	-0.19886413
48	0xbdae4bd1	-0.085105546
49	0x3d2c45f6	0.042058907
50	0x3dcc312f	0.099703185
51	0x3c87c2f6	0.016572457
52	0xbc323dfd	-0.010879037
53	0xbd0048b3	-0.03131933
54	0x3e588d09	0.2114755
55	0x3d13ac76	0.036053143
56	0x3d924af5	0.07143203
57	0x3e08b147	0.13348876
58	0x3c5cfdc0	0.013488233
59	0x3d1b67db	0.03794084
60	0x3dc40811	0.09571851
61	0x3a839f39	0.0010041959
62	0x3dcb0b93	0.09914317
63	0xbe33d993	-0.17563467

bn3.running_var f4 [64]
0	0x3dc05897	0.09391897
1	0x3d8b4bdc	0.068015784
2	0x3dcf7d73	0.101313494
3	0x3d9b7565	0.075907506
4	0x3e1814fc	0.14851755
5	0x3e8db747	0.27678892
6	0x3d726952	0.059182473
7	0x3dc01da2	0.09380652
8	0x3e38d17e	0.18048665
9	0x3e0706a5	0.13186128
10	0x3dc4b1d1	0.09604228
11	0x3e21f935	0.15817721
12	0x3d96bbb4	0.0736002
13	0x3e15f19f	0.14642952
14	0x3df1a4ed	0.11799035
15	0x3e09fc8e	0.13475248
16	0x3d9dbc38	0.077019155
17	0x3e6e9daf	0.23302339
18	0x3d8e7aae	0.06956993
19	0x3dfa2302	0.122137085
20	0x3e08e727	0.13369428
21	0x3d91dfaa	0.07122739
22	0x3d9bce3c	0.076076955
23	0x3db840c4	0.08996728
24	0x3e3e102b	0.18560855
25	0x3dafa082	0.08575536
26	0x3e524956	0.20535788
27	0x3d8fdefc	0.07024953
28	0x3e5df560	0.21675634
29	0x3dc468a0	0.09590268
30	0x3dff9d3c	0.12481162
31	0x3da39d02	0.07988931
32	0x3e1c6e27	0.15276395
33	0x3d87a17a	0.06622596
34	0x3e87bfe9	0.26513603
35	0x3d9e031a	0.07715435
36	0x3db0a58e	0.08625327
37	0x3df93d27	0.12169867
38	0x3d8d7aa1	0.06908155
39	0x3db1eadf	0.08687376
40	0x3d9fccb3	0.07802715
41	0x3d84e289	0.06488521
42	0x3e414232	0.18872908
43	0x3dfdb01f	0.12387108
44	0x3e16707c	0.14691347
45	0x3e01afc7	0.1266471
46	0x3d6e6766	0.058204077
47	0x3e107761	0.1410804
48	0x3e02360f	0.12715934
49	0x3db730a6	0.08944826
50	0x3def4553	0.116831444
51	0x3dcefefa	0.10107227
52	0x3dbee2eb	0.09320625
53	0x3d82d5d6	0.06388442
54	0x3dbb0a44	0.091328174
55	0x3de82a1b	0.11336156
56	0x3eb4f839	0.3534563
57	0x3dc1dda3	0.09466102
58	0x3d81c44b	0.06336268
59	0x3d8cc62d	0.068737365
60	0x3db7340a	0.089454725
61	0x3e72d0f2	0.23712519
62	0x3e14793c	0.14499372
63	0x3e2fe0cd	0.17175598

conv4.weight f4 [32, 64, 3, 3]
0	0xbbad5dab	-0.005290707
1	0xbc3a6dea	-0.011378745
2	0xbc554959	-0.013017976
3	0x3d01715a	0.03160224
4	0x3b7d0f8e	0.0038614008
5	0x3c0d3188	0.008617766
6	0x3c34ec3b	0.01104265
7	0xbcf89d65	-0.030348489
8	0xbc59d6f0	-0.013295874
9	0xbd11f738	-0.035636157
10	0x3cd1b6b1	0.02559981
11	0xbcb1ae05	-0.021689424
12	0xbb771113	-0.0037699386
13	0x3c9dc067	0.019256784
14	0xbbc09aa2	-0.0058778087
15	0x3cd16c4b	0.025564333
16	0xbb9e1025	-0.004823702
17	0xbb4463bd	-0.0029966675
18	0x3c3246d0	0.010881141
19	0x3c822375	0.015886048
20	0xbd2110a4	-0.03932251
21	0x3cd7a0c2	0.026321772
22	0x3b9b57d0	0.0047406927
23	0xbc115000	-0.008869171
24	0xbcbbe1e9	-0.02293487
25	0x3ca603cc	0.020265482
26	0xbd122616	-0.035680853
27	0x3c67e5e0	0.014153928
28	0x3cfc9141	0.030830981
29	0xbd011aa7	-0.03151956
30	0xbb6a1965	-0.0035720703
31	0x3c20e3dc	0.009819951
32	0x3b01f30a	0.00198287
33	0x3d20a0ca	0.03921584
34	0x3ba57e36	0.005050446
35	0xbd208513	-0.03918941
36	0xbc5064e0	-0.012719363
37	0xbcae6d26	-0.02129228
38	0xbd0f330f	-0.034960803
39	0xbcdf3915	-0.027248899
40	0xbd0cbe36	-0.034361087
41	0xbcf71324	-0.030160494
42	0xbcff51b2	-0.031166885
43	0x3c231ebc	0.009956058
44	0xbb40e5b5	-0.002943379
45	0x3cd621e0	0.0261392
46	0x3d0ca1b2	0.034333892
47	0x3cce84da	0.025209833
48	0x3ca0ad75	0.01961396
49	0xbc95b347	-0.018273963
50	0xbcf16eaa	-0.029471714
51	0x3c87e9d6	0.016590994
52	0xbd1da06e	-0.038483076
53	0xbd25c876	-0.040474378
54	0xbce0c9c7	-0.027439965
55	0xbbf6274c	-0.007512009
56	0xbc92ca95	-0.017918864
57	0xbc853367	-0.016259862
58	0xbcb93869	-0.022609906
59	0xbb1e8d45	-0.002419309
60	0xbd1a5405	-0.037677784
61	0x3cbaaf6e	0.02278873
62	0x3d035e53	0.032072376
63	0x3c2bb507	0.010480172
64	0xbcd37bd2	-0.025815878
65	0x3c0fef2d	0.008785051
66	0x3cbc461c	0.02298265
67	0xbd01f8fe	-0.031731598
68	0xbcda0a68	-0.02661629
69	0x3cfebbf8	0.03109549
70	0xbcc57f30	-0.0241085
71	0xbd0aa5f5	-0.033849675
72	0xbce251c8	-0.027626887
73	0x3c8fbf21	0.017547192
74	0xbd24a446	-0.040195726
75	0x3ca8d1e7	0.020607902
76	0x3caa2b35	0.020772556
77	0x3c1260e8	0.008934237
78	0xbc8ade8b	-0.01695182
79	0x3cb5c5d5	0.02218906
80	0xbc71e221	-0.014763386
81	0xbc7c4d3c	-0.0153992735
82	0xbcba5fbb	-0.022750726
83	0xbb6466b1	-0.0034851248
84	0x3cf3b4c6	0.029749285
85	0x3c534b32	0.012896346
86	0x3cb4f9ab	0.022091707
87	0x3cfea18e	0.031082895
88	0xbd27d55e	-0.040974967
89	0xbc487abd	-0.012236294
90	0x3c93d0e7	0.018043948
91	0xbb1c3dbf	-0.0023840514
92	0x3d10aeb6	0.035322867
93	0xbd1adb0b	-0.037806552
94	0x3cefc865	0.02927036
95	0x3c5a4e02	0.013324263
96	0x3d0b6b48	0.03403786
97	0x3ce0c25c	0.027436428
98	0x390de9f5	0.00013533964
99	0xbc7018d7	-0.01465436
100	0xbcf0c8b4	-0.029392578
101	0x3d1183e3	0.035526168
102	0x3ccdda29	0.025128441
103	0xbd24d1da	-0.040239193
104	0x3c355129	0.011066713
105	0x3cf6a75b	0.030109098
106	0x3c08f779	0.008359783
107	0xbcd72c06	-0.02626611
108	0x3d0fdeac	0.035124466
109	0xbd24ae85	-0.040205497
110	0x3cd5e718	0.02611117
111	0xbcc24bf8	-0.023717865
112	0xbba4566c	-0.005015185
113	0xbcafacfb	-0.021444788
114	0xbcbff8de	-0.023434099
115	0xbc6a9fa1	-0.014320285
116	0x3c133631	0.008985088
117	0xbbe42e96	-0.0069635613
118	0x3cce5cfc	0.025190823
119	0xbd00e39f	-0.031467076
120	0x3b473e44	0.0030402103
121	0xbc6b31da	-0.014355147
122	0xbd158211	-0.036500994
123	0x3cff3cad	0.031156862
124	0xbca83ec2	-0.020537738
125	0x3cd8d812	0.026470218
126	0xbd193b3f	-0.037410017
127	0xbc63a897	-0.013895175
128	0x3d0cd3c5	0.034381647
129	0x3d04bc04	0.03240587
130	0x3cd8bafb	0.026456347
131	0xbcbb473e	-0.02286112
132	0x3bb70652	0.0055854702
133	0x3cab085c	0.02087801
134	0x3b486cca	0.0030582421
135	0xbb816fd7	-0.0039501
136	0x3c9c4f73	0.019080853
137	0xbc1fefc6	-0.009761756
138	0x3cd471cc	0.025933169
139	0x3bcad290	0.006189652
140	0x3d07d767	0.033164408
141	0x3cc007a9	0.023441153
142	0xbc021b36	-0.007941058
143	0xbcb34247	-0.02188219
144	0x3c80fedd	0.015746528
145	0x3ca9153f	0.020640014
146	0xbcba18d5	-0.022716919
147	0x3d189c00	0.03725815
148	0xbc89c1c5	-0.01681603
149	0x3baf4f80	0.0053500533
150	0xbd242f88	-0.04008439
151	0xbcdb50be	-0.0267719
152	0x3cc7e53a	0.024401296
153	0x3cbc53b0	0.022989124
154	0xbbf1e050	-0.0073814765
155	0x3bb09fe6	0.005390155
156	0x3cbfb055	0.023399511
157	0xbcdce81e	-0.02696615
158	0xbcdaa04c	-0.026687764
159	0xbd1d84fa	-0.038456894
160	0x3a64381a	0.00087058695
161	0xbccbc625	-0.024874756
162	0xbcfb18c5	-0.03065146
163	0xbd18b872	-0.037285276
164	0xbc849a8d	-0.016186977
165	0xbd25632d	-0.040377785
166	0x3cb93597	0.022608561
167	0x3bfe6512	0.0077635134
168	0xbad13be8	-0.0015963288
169	0x3b156c95	0.0022800316
170	0x3c9081c0	0.017639995
171	0xbb275809	-0.002553465
172	0x3d031519	0.032002542
173	0x3be7020a	0.0070498036
174	0x3d2133cd	0.03935604
175	0x3c7b3ca6	0.015334284
176	0x3c9716a9	0.018443422
177	0xbd25fa3d	-0.04052185
178	0xbd1d09bd	-0.038339365
179	0xbcf74d9f	-0.03018838
180	0xbc8da741	-0.017291667
181	0x3c89cae9	0.016820388
182	0x394b933d	0.00019414439
183	0x3b95679a	0.0045594694
184	0xbcbc46a0	-0.022982895
185	0xbd1db26b	-0.03850023
186	0xbd13510f	-0.035965975
187	0xbbdaef12	-0.0066813314
188	0xbc823b30	-0.015897363
189	0x3ce8e1eb	0.028428039
190	0xba134085	-0.0005617219
191	0xbc04333d	-0.008068857
192	0x3d19fa1c	0.03759204
193	0xbd17374d	-0.036917973
194	0x3d208756	0.039191566
195	0x3cc1e295	0.023667613
196	0xbc566997	-0.013086698
197	0x3d25a528	0.04044071
198	0xbbed310f	-0.0072385143
199	0x3d16ec9a	0.036846735
200	0xbcea1577	-0.028574688
201	0x3d0450e6	0.032303713
202	0xbca4fbad	-0.02013954
203	0xbba4cc49	-0.0050292355
204	0x3d131031	0.035904113
205	0xbba94d7a	-0.0051667066
206	0x3cecbf32	0.028899763
207	0xbc988362	-0.018617336
208	0xbc6c05ff	-0.014405726
209	0x3c0e29ec	0.008676987
210	0xbc37d223	-0.011219534
211	0x3cc907df	0.024539886
212	0xbcf36afd	-0.029714102
213	0xbc3ada7d	-0.011404631
214	0xbcb560bd	-0.022140855
215	0xbc98a18f	-0.018631725
216	0xbc523d6c	-0.012832027
217	0x3c2609e7	0.010134197
218	0xbc61c4f4	-0.013779867
219	0xbbde8a59	-0.0067913947
220	0xbd0023c9	-0.031284127
221	0xbd1e5505	-0.0386553
222	0x3d083ad1	0.033259217
223	0x3d1ec527	0.038762238
224	0xbcd5a22a	-0.026078302
225	0x3ca64084	0.020294435
226	0x3cab532a	0.02091368
227	0xbd1aaf6f	-0.037764963
228	0x3c03a7f6	0.0080356505
229	0xbc1311d0	-0.008976415
230	0xbce70308	-0.028199688
231	0x3c868346	0.016420018
232	0x3d1aa47c	0.03775452
233	0xbcbdf1b7	-0.023186548
234	0xbd277097	-0.04087886
235	0xbb8354bf	-0.0040079053
236	0xbcd9a8b2	-0.026569698
237	0x3d290fc4	0.0412748
238	0x3bdfbaf1	0.006827705
239	0xbc208c00	-0.009799004
240	0xbc04dfa3	-0.00810996
241	0xbca66835	-0.020313362
242	0xbd21e4f4	-0.039524987
243	0x3d2181c7	0.039430406
244	0x3c54967a	0.0129753295
245	0xbcc7bfe4	-0.024383493
246	0xbd16aff9	-0.036788914
247	0xbcffdf1a	-0.031234313
248	0x3cd058ac	0.025432907
249	0x3cccfeb3	0.025023794
250	0xb98e9f0d	-0.00027202853
251	0xbd12bc49	-0.035824094
252	0x3d0eab0b	0.034831088
253	0xb9d8ab71	-0.00041326464
254	0x3cf14d85	0.02945591
255	0x3c8b713e	0.017021772

bn4.weight f4 [32]
0	0x3f7ffffb	0.9999997
1	0x3f7ffffc	0.99999976
2	0x3f800000	1.0
3	0x3f800000	1.0
4	0x3f800000	1.0
5	0x3f800000	1.0
6	0x3f800000	1.0
7	0x3f800000	1.0
8	0x3f800000	1.0
9	0x3f800000	1.0
10	0x3f800000	1.0
11	0x3f800000	1.0
12	0x3f7fffff	0.99999994
13	0x3f7fffff	0.99999994
14	0x3f800000	1.0
15	0x3f800000	1.0
16	0x3f800000	1.0
17	0x3f800000	1.0
18	0x3f800000	1.0
19	0x3f800000	1.0
20	0x3f800000	1.0
21	0x3f800000	1.0
22	0x3f800000	1.0
23	0x3f800000	1.0
24	0x3f800000	1.0
25	0x3f800000	1.0
26	0x3f800000	1.0
27	0x3f800000	1.0
28	0x3f800000	1.0
29	0x3f7fffff	0.99999994
30	0x3f800000	1.0
31	0x3f800000	1.0

bn4.bias f4 [32]
0	0xb5d62533	-1.5955069e-06
1	0xb64c1686	-3.041148e-06
2	0xb58b2bbe	-1.0369038e-06
3	0x3520e93e	5.9944057e-07
4	0x359cd707	1.1685487e-06
5	0xb5af3690	-1.3054396e-06
6	0x358be81f	1.0423863e-06
7	0xb62702cd	-2.488657e-06
8	0x3452d913	1.9636745e-07
9	0x35cdbc46	1.5328485e-06
10	0x35d978a7	1.6202874e-06
11	0xb2872d99	-1.5736804e-08
12	0xb5a77444	-1.2476307e-06
13	0xb5cbd4ee	-1.5186649e-06
14	0xb5f6757f	-1.8362624e-06
15	0x34618bf7	2.1005677e-07
16	0x342f6d61	1.6337937e-07
17	0x3438bca4	1.7204962e-07
18	0x35b5dd56	1.3549968e-06
19	0x352419dd	6.1132397e-07
20	0xb589aed8	-1.0258182e-06
21	0x3573b177	9.07828e-07
22	0xb5a38b9f	-1.2185081e-06
23	0xb6254613	-2.4627705e-06
24	0x33bf590f	8.91033e-08
25	0x3523030c	6.0726666e-07
26	0xb50b934a	-5.199587e-07
27	0x36515606	3.11935e-06
28	0xb38ba02e	-6.5018284e-08
29	0xb637eee5	-2.740818e-06
30	0x34433f18	1.8183744e-07
31	0x35a18dfc	1.2036758e-06

bn4.running_mean f4 [32]
0	0xbd737a56	-0.05944284
1	0xbd4473a9	-0.047961865
2	0x3d2834fe	0.041066162
3	0xbd83571d	-0.064131
4	0x3c998d36	0.018744092
5	0xbdcc2a3e	-0.099689946
6	0x3e4e58c0	0.20151043
7	0xbd0eb3f5	-0.03483959
8	0xbd6c3ee5	-0.05767717
9	0x3c000bf9	0.0078153545
10	0xbcc861de	-0.02446073
11	0xbe2d9dae	-0.16954681
12	0xbcfe2642	-0.031024102
13	0xbe0de977	-0.13858591
14	0x3e824029	0.25439575
15	0x3ea2946f	0.3175387
16	0xbe6a5fce	-0.22888109
17	0xbd6b1554	-0.057393387
18	0xbe11becf	-0.14232944
19	0xbdec08e7	-0.115251355
20	0xbcdaaa87	-0.026692642
21	0xbe36b580	-0.17842674
22	0x3dc7f545	0.09763578
23	0x3d3e5335	0.04646607
24	0x3e2ab781	0.16671564
25	0x3c8d4697	0.017245574
26	0xbd07f8f9	-0.033196423
27	0x3dbf6a8b	0.09346493
28	0xbe36e09d	-0.1785912
29	0x3c922a5c	0.017842464
30	0x3da2a8f0	0.079423785
31	0xbdc62d83	-0.096766494

bn4.running_var f4 [32]
0	0x3da2238d	0.07916937
1	0x3e1c65d3	0.15273218
2	0x3dbce907	0.09224134
3	0x3e051227	0.12995206
4	0x3dcca9d3	0.09993329
5	0x3dea819c	0.11450502
6	0x3dba2366	0.09088783
7	0x3da6d25f	0.08145594
8	0x3dd1c7bd	0.10243175
9	0x3d8b824f	0.06811964
10	0x3d9421d2	0.07233013
11	0x3dd76a6d	0.10518346
12	0x3df975ed	0.12180696
13	0x3da6f176	0.08151524
14	0x3e2b473e	0.16726395
15	0x3e03375f	0.12814091
16	0x3e220d71	0.1582544
17	0x3dbcb34c	0.09213886
18	0x3e37247b	0.1788501
19	0x3d8c8904	0.06862071
20	0x3ddb96b5	0.107221045
21	0x3da4adee	0.08040987
22	0x3e6e2312	0.23255566
23	0x3dfbb78b	0.122908674
24	0x3e23a6e7	0.15981637
25	0x3dfb2f38	0.12264866
26	0x3dc3f8f8	0.095689714
27	0x3dbaae7c	0.091153115
28	0x3da0c6ff	0.078504555
29	0x3de7d6a9	0.1132024
30	0x3dfab76e	0.12242018
31	0x3dc1832e	0.09448849

conv5.weight f4 [32, 32, 3, 3]
0	0x3c96c00e	0.018402126
1	0x3d1d50b8	0.038407058
2	0xbc24af99	-0.010051631
3	0x3cca989b	0.024730971
4	0xbcf89a81	-0.03034711
5	0xbd1a7e16	-0.0377179
6	0xbc81d621	-0.015849175
7	0x3c1a9278	0.009434335
8	0x3ce28f1f	0.027656136
9	0x3cd8f65f	0.026484666
10	0x3d5c7572	0.053822942
11	0xbce1b1eb	-0.027550658
12	0xbd40f3ff	-0.047107693
13	0x3b799d90	0.00380883
14	0xbc9cf955	-0.01916186
15	0x3d61af18	0.055098623
16	0x3cf64b87	0.030065311
17	0x3d5ab36e	0.053393774
18	0x3a9eda93	0.0012119584
19	0xbcc8bf41	-0.02450526
20	0x3c841035	0.01612101
21	0xbc6eeb29	-0.014582434
22	0x3d47603b	0.048675757
23	0x3d373e6d	0.04473727
24	0xbd09bb2f	-0.033625778
25	0x3d495e84	0.049162403
26	0x3bf260b9	0.007396784
27	0x3d044cd6	0.03229984
28	0x3d1ab974	0.037774518
29	0xbb92c491	-0.004478999
30	0xbd42c01e	-0.0475465
31	0xbd1d385a	-0.03838382
32	0xbd598075	-0.05310102
33	0x3d39ea78	0.045389622
34	0xbd2449a5	-0.040109295
35	0x3c64b87b	0.013959999
36	0x3d2edfb4	0.04269381
37	0xbcb375f0	-0.021906823
38	0xbb66eaf8	-0.0035235267
39	0xbd18dbe9	-0.037319098
40	0x3d01e6f5	0.0317144
41	0x3d2eaecf	0.04264718
42	0x3d34c7dd	0.044135917
43	0x3c1a15d5	0.009404619
44	0xbc01c2cb	-0.007919977
45	0x3d09f7dd	0.033683646
46	0xbcccff53	-0.025024092
47	0x3c719a28	0.014746226
48	0x3d04d107	0.032425907
49	0x3d040aa5	0.032236714
50	0xbd4bebd2	-0.049785443
51	0x3d37dd65	0.044888873
52	0x3d3176ee	0.04332631
53	0xbd39e2a1	-0.045382146
54	0xbd15a7d1	-0.036536995
55	0xbcc5524f	-0.0240871
56	0xbd174da8	-0.036939293
57	0xbd299625	-0.041402955
58	0xbd0c26bd	-0.03421663
59	0x3c7d42dd	0.015457836
60	0x3b65ea52	0.0035082293
61	0x3cb6ad20	0.02229935
62	0x3cc2367c	0.02370762
63	0xbd356261	-0.044283275
64	0x3cee6244	0.029099591
65	0xbc8b5145	-0.017006526
66	0xbca68a07	-0.020329488
67	0x3ce31473	0.027719712
68	0x3d3fc14b	0.046815198
69	0xbd646a6f	-0.055765565
70	0xbb880dc8	-0.0041520335
71	0xbd4eb840	-0.050468683
72	0x3bf031e6	0.007330167
73	0xbd0e5c97	-0.03475627
74	0xbd6e7088	-0.058212787
75	0xbc8f75da	-0.01751225
76	0x3d675d0d	0.056485225
77	0xbaaf1cac	-0.0013359985
78	0x38f544a9	0.00011695299
79	0xbba8102f	-0.0051288824
80	0x3c465c58	0.012106977
81	0xbcba62a2	-0.02275211
82	0xbd02d7c9	-0.03194407
83	0xbd399520	-0.045308232
84	0x3d3202b8	0.043459624
85	0xbcda7b3b	-0.026670089
86	0x3c9f22a1	0.019425692
87	0x3c549060	0.012973875
88	0x3d02b5fa	0.031911828
89	0x3d036ee0	0.03208816
90	0x3c626ebc	0.013820346
91	0x3ccb234e	0.024797108
92	0x3c4daea4	0.012553845
93	0x3c168c61	0.009188742
94	0x3d372e07	0.04472163
95	0xbc1420bf	-0.00904101
96	0xbc6ae811	-0.0143375555
97	0x3d318824	0.043342724
98	0xbd0ffd79	-0.03515384
99	0xbca7daf7	-0.020490153
100	0x3c630246	0.0138555225
101	0xbd35ceaa	-0.044386543
102	0x3d465fde	0.04843127
103	0xbc81a1de	-0.015824255
104	0x3c8db059	0.017296003
105	0xbbbffe76	-0.0058591915
106	0x3d138230	0.03601283
107	0x3c4c4db7	0.012469701
108	0x3d0b8017	0.034057703
109	0x3ca4e0ab	0.020126661
110	0x3aff274f	0.0019466671
111	0xbcd8da17	-0.02647118
112	0x3bbfd629	0.0058543873
113	0x392e5ce4	0.00016628538
114	0xbcf655af	-0.030070154
115	0x3cb78627	0.022402836
116	0x3b509d44	0.003183202
117	0xbb1c1864	-0.002381825
118	0x3cf49976	0.029858332
119	0xbc81c82e	-0.015842523
120	0xbd3a0df0	-0.045423448
121	0xbad38012	-0.001613619
122	0x3ca7d76d	0.020488465
123	0x39bcb513	0.00035993065
124	0xbc41a27c	-0.011818524
125	0x3cd4a089	0.025955455
126	0x3cfd7eb0	0.030944198
127	0x3d54792d	0.051873375
128	0x3d05f686	0.032705806
129	0x3ccb5fce	0.024825957
130	0x3d561cc1	0.052273516
131	0xbd5dfcaa	-0.054196037
132	0xbd33a1bf	-0.043855425
133	0x3d4ee681	0.050512794
134	0xbd22c6ad	-0.039740253
135	0xbd2d08ae	-0.042244606
136	0x3caaaf9b	0.020835688
137	0xbd5b7845	-0.053581495
138	0xbd4ff146	-0.050767206
139	0x3d4f4b02	0.050608642
140	0xbc364d9e	-0.011126904
141	0xbd2f13d9	-0.042743538
142	0xbd337a64	-0.043817893
143	0xbac74b20	-0.0015204884
144	0xbd18f7c3	-0.03734566
145	0xbcab8e5d	-0.020941908
146	0x3d202c69	0.039104853
147	0x3c64277d	0.01392543
148	0xbcf79020	-0.030220091
149	0x3b0f58b0	0.002187293
150	0x3d2fa589	0.042882476
151	0xbc9b3a84	-0.0189488
152	0x3d697e11	0.057004992
153	0xbbab2bc2	-0.005223722
154	0x3c36a4a0	0.011147648
155	0xbd1528f1	-0.036415998
156	0x3d30a5df	0.043126937
157	0xbd02bf2a	-0.03192059
158	0xbc9aac41	-0.018880965
159	0x3c8db1a3	0.017296618
160	0x3d28ec11	0.041240755
161	0x3d569cfe	0.052395813
162	0x3d531088	0.051529437
163	0x3d0a5fb4	0.033782676
164	0xbb39f7e4	-0.0028376514
165	0x3d02d43b	0.03194068
166	0xbcf539f4	-0.02993486
167	0xbd290f45	-0.041274328
168	0xbd6689c2	-0.05628372
169	0x3d241574	0.04005952
170	0xbc8ff6bf	-0.017573712
171	0x3d3ff65b	0.046865802
172	0x3ce28c7e	0.027654883
173	0x3b0b852f	0.00212891
174	0xbd4f014b	-0.050538342
175	0xbc61104b	-0.013736795
176	0xbd5e1cf2	-0.054226823
177	0xbd32bcb2	-0.043636985
178	0x3c1ac437	0.009446195
179	0x3c78450c	0.015153181
180	0xbc0c2615	-0.008554001
181	0xbd583490	-0.052784503
182	0x3d3bb757	0.045829143
183	0xbd225bcc	-0.039638326
184	0xbce88d72	-0.028387759
185	0xbb760f69	-0.0037545806
186	0xbd093311	-0.033495966
187	0x3c93a84e	0.01802459
188	0x3c64d9da	0.0139679555
189	0xbc5c24e6	-0.013436532
190	0xbcab8741	-0.020938518
191	0x3d5d32ed	0.054003645
192	0x3b81b41a	0.0039582374
193	0x3c04d9c1	0.008108557
194	0x3cd9fd50	0.026610047
195	0x3d4880b7	0.048950877
196	0xbc506d08	-0.012721308
197	0x3c7364cb	0.014855574
198	0xbc79dd14	-0.015250463
199	0x3c8873b8	0.016656741
200	0x3d700a8f	0.05860382
201	0x3d5c992a	0.053857006
202	0xbcda85e3	-0.02667517
203	0xbd247a3c	-0.040155634
204	0x3ba7cbae	0.005120716
205	0x3d33bb8d	0.043880034
206	0x3d3e520b	0.04646496
207	0x3d131532	0.035908885
208	0x3d17a8e1	0.03702629
209	0x3c3a267f	0.011361717
210	0xbab7bc59	-0.0014017924
211	0x3b9d0168	0.0047914274
212	0x3c2e4b0c	0.01063801
213	0x3c347dc5	0.011016314
214	0xbbbb201f	-0.0057106162
215	0x3c009045	0.007846897
216	0xbc3223be	-0.010872779
217	0x3c0f5e4f	0.008750512
218	0x3c8eb8b2	0.017422054
219	0xbd5c15ba	-0.053731658
220	0x3c1e890c	0.009676229
221	0x3d10ddb6	0.03536769
222	0x3d5431f5	0.051805455
223	0xbd2d22fe	-0.0422697
224	0x3c9bce87	0.019019378
225	0x3cb2b7e3	0.0218162
226	0xbc464669	-0.012101748
227	0x3cdd3a8c	0.027005456
228	0x3c24d583	0.010060671
229	0xbd1801de	-0.037111156
230	0xbd31dbde	-0.043422572
231	0x3c9fca1c	0.019505553
232	0xbcee8e72	-0.029120658
233	0xbc5636e5	-0.013074611
234	0x3a58b3af	0.0008266521
235	0xbd658eac	-0.056044266
236	0xbcd2e24d	-0.025742674
237	0xbc594732	-0.013261603
238	0x3ccd3d69	0.025053697
239	0xbcfb875d	-0.030704195
240	0x3bd12401	0.006382466
241	0xbc537f3a	-0.012908751
242	0xbcc2b1ba	-0.023766387
243	0x3d647eba	0.05578492
244	0xbd688564	-0.056767836
245	0xbd41f2e3	-0.047350775
246	0xbc649ac8	-0.013952918
247	0xbd38fe59	-0.04516444
248	0x3d2fcea0	0.042921662
249	0x3c589c0d	0.013220799
250	0xbc4254a1	-0.011860997
251	0x3d034042	0.032043703
252	0x3bf493a9	0.0074638915
253	0xbd613e8c	-0.05499129
254	0x3c5f868c	0.013642918
255	0x3ce1624e	0.027512696

conv6.weight f4 [16, 32, 3, 3]
0	0xbc5f76dd	-0.013639179
1	0xbd5d24aa	-0.053990044
2	0x3b6a63c9	0.0035765043
3	0x3d63630f	0.05551439
4	0xbd4857ea	-0.048911966
5	0xbd09af26	-0.0336143
6	0xbd3eb321	-0.04655755
7	0x3cc73111	0.024315389
8	0xbd1a0537	-0.03760263
9	0xbd39db83	-0.04537536
10	0x3ce72692	0.028216634
11	0x3d4bf655	0.049795467
12	0xbd15f271	-0.036608163
13	0x3d2b2b69	0.041789446
14	0xbd27fca2	-0.041012414
15	0xbd1b8c17	-0.037975397
16	0x3a914fc5	0.0011086395
17	0x3d587183	0.05284263
18	0x3b8f762f	0.0043781023
19	0x3d360e1b	0.044447046
20	0xbc533a81	-0.012892366
21	0x3ca3b36f	0.019983022
22	0xbd663b10	-0.05620867
23	0x3d0f5532	0.034993358
24	0xbd49f044	-0.0493014
25	0x3d635c08	0.05550769
26	0xbd556dc3	-0.05210663
27	0x3d1863ba	0.03720448
28	0x3d178383	0.036990654
29	0xbd66b28f	-0.05632263
30	0x3d16a74f	0.03678065
31	0x3c43606e	0.011924846
32	0x3d1a3ffc	0.037658677
33	0x3c52c042	0.012863221
34	0x3d0bb16b	0.034104746
35	0xbbd4d742	-0.0064953873
36	0x3ceb88d0	0.02875176
37	0xbd483d08	-0.04888633
38	0x3c1fd3e7	0.009755111
39	0x3d0fd5da	0.035116054
40	0x3ca563a6	0.020189118
41	0x3d33fb8f	0.043941077
42	0xbd13c7aa	-0.036079086
43	0x3b654189	0.003498169
44	0x3d4e53df	0.050372954
45	0xbd00188c	-0.03127341
46	0x3d38fde5	0.045164008
47	0xbb29aa1b	-0.0025888744
48	0xbd6bc0f5	-0.057557065
49	0x3d07ed5c	0.033185348
50	0xbcddf8bc	-0.027096145
51	0x3d1f0430	0.038822353
52	0xbd5314c8	-0.05153349
53	0x3c5030a7	0.012706912
54	0x3c9958b0	0.018719047
55	0xbb7e0bc4	-0.0038764337
56	0x3d3cdf1d	0.046111215
57	0xbc4640f8	-0.012100451
58	0xbcad66b2	-0.021167133
59	0xbd560085	-0.05224659
60	0xbcd5e3c7	-0.02610959
61	0xbb571c86	-0.0032823398
62	0x3d4cfc24	0.050045148
63	0x3b9d76ec	0.0048054364
64	0x3d1c9e48	0.038236886
65	0x3c8315cb	0.016001603
66	0xbd687913	-0.05675609
67	0xbd5b5f76	-0.053557836
68	0x3d064dc2	0.032789
69	0x3d03cda4	0.032178536
70	0x3d20e3f1	0.039279882
71	0xbcc24aa8	-0.02371724
72	0x3d1a812a	0.037720837
73	0xbc0f61a3	-0.008751306
74	0xbcb2595b	-0.021771124
75	0xbcfd3d7a	-0.030913103
76	0xbcc88645	-0.024478087
77	0x3d099f85	0.033599395
78	0x3cb01581	0.021494629
79	0x3b188322	0.002327152
80	0x3cc61ac3	0.024182683
81	0xbd42e4fb	-0.047581654
82	0x3d0afa31	0.033930007
83	0xbd309d2e	-0.04311865
84	0x3c02cfc6	0.007984107
85	0xbc626e8d	-0.013820303
86	0xbd6135a5	-0.0549828
87	0x3c7ca232	0.01541953
88	0x3d2af626	0.04173865
89	0xbd567047	-0.05235317
90	0x3d1a5497	0.037678327
91	0xbc1d0732	-0.009584235
92	0xbc825433	-0.01590929
93	0x3cabe1f7	0.020981772
94	0xbbb48baf	-0.0055098156
95	0xbb1908df	-0.0023351235
96	0x3bd80958	0.0065929107
97	0x3d13a42d	0.036045242
98	0xbd5b96e5	-0.0536107
99	0x3d26ce69	0.04072419
100	0xbb0e93a7	-0.0021755488
101	0xbd3a32a5	-0.045458455
102	0x3ab48bfe	0.0013774631
103	0x3d6c6211	0.05771071
104	0xbd072ce4	-0.033001795
105	0xbb131a7f	-0.0022446213
106	0xbd64a917	-0.05582532
107	0x3ba798f6	0.00511467
108	0xbccd6c8b	-0.025076171
109	0xbc780aad	-0.015139264
110	0xbd0d2013	-0.034454416
111	0xbc95002d	-0.01818856
112	0xbcaed0ff	-0.021339891
113	0x3d3aeff3	0.04563899
114	0xbc2cb2c6	-0.01054067
115	0xbc5571ae	-0.013027592
116	0xbd2bcd80	-0.041944027
117	0x3c7f8e4b	0.01559789
118	0x3cf5cbe3	0.030004447
119	0xbcb7e41a	-0.022447634
120	0x3d688ec1	0.056776766
121	0xbd254b5d	-0.040355075
122	0x3d08631f	0.033297654
123	0x3c860516	0.016359847
124	0xbd0e5ff9	-0.034759495
125	0xbd0c3251	-0.034227673
126	0x3d345807	0.044029262
127	0x3d3af25a	0.04564128
128	0x3d5d682f	0.054054435
129	0xbd4f36bf	-0.05058932
130	0xbd51266d	-0.051062036
131	0x3c2bf7b6	0.010496071
132	0xbd3bec27	-0.04587951
133	0xbd514555	-0.05109151
134	0xbd63baaa	-0.05559794
135	0xbc963f83	-0.018340832
136	0xbb9c8e81	-0.00477773
137	0xbd02d6be	-0.031943075
138	0xbd0ffc5b	-0.035152774
139	0x3d3e9485	0.046528358
140	0x3cb6e505	0.022326002
141	0xbd0d9070	-0.034561574
142	0x3d44c3c9	0.048038278
143	0xbd044c2b	-0.032299202
144	0x3d5badcf	0.053632554
145	0x3d6b93d4	0.057514027
146	0x3b41d672	0.0029577282
147	0x3d1ca624	0.03824438
148	0xbd6ca637	-0.057775702
149	0x3cf8abc3	0.03035534
150	0xbd630ca1	-0.055431966
151	0xbd0570b7	-0.032578196
152	0x3bbf75d1	0.005842902
153	0xbc9c8c66	-0.019109916
154	0x3d286b3f	0.041117903
155	0xba0791b7	-0.00051715545
156	0xbc882f64	-0.01662416
157	0x3ca9c162	0.020722095
158	0x3cc41d78	0.023939833
159	0xbcc466e9	-0.023974853
160	0x3d098a1f	0.03357899
161	0x3d642f5f	0.05570924
162	0x3cbf9657	0.023387117
163	0x3c3240fe	0.010879753
164	0xbc82ca8f	-0.015965728
165	0x3d4db230	0.05021876
166	0xbd0b5daa	-0.034024872
167	0xbbbbdbdb	-0.005732996
168	0x3ca5c4eb	0.0202355
169	0x3d10d480	0.035358906
170	0x3c678a38	0.014132075
171	0x3d0b07e4	0.033943072
172	0xbc9d5671	-0.019206258
173	0x3c4e1e48	0.012580462
174	0xbcbd5e73	-0.023116326
175	0x3d3bc4fa	0.04584215
176	0x3baa9cdc	0.0052066874
177	0xbd3630c1	-0.04448009
178	0xbd0ed5c7	-0.034871843
179	0xbd5664bf	-0.052342173
180	0xbca3415e	-0.01992863
181	0xbd158e89	-0.036512885
182	0xbb29efd6	-0.0025930307
183	0x3d0d02e9	0.034426603
184	0x3a858615	0.0010187054
185	0x3d0aee18	0.03391847
186	0x3d6bdbaf	0.057582553
187	0x3c2f25cc	0.010690164
188	0xbd35cd9c	-0.044385538
189	0x3bd0c5cf	0.006371237
190	0xbcafad7f	-0.021445034
191	0xbd0ff166	-0.035142325
192	0x3cf11ae4	0.029431768
193	0x3cb86523	0.022509163
194	0x3d3c184a	0.0459216
195	0xbcbda626	-0.023150515
196	0x3d53c88f	0.05170494
197	0xbd0addb3	-0.033902835
198	0x3d099325	0.033587594
199	0xbbcd7cba	-0.006270972
200	0xbd2aca4b	-0.041696828
201	0xbc4dd4ab	-0.012562911
202	0x3c9aace9	0.018881278
203	0x3d6126c5	0.054968614
204	0xbca1b962	-0.019741718
205	0xbcdbe2bf	-0.02684152
206	0x3d698595	0.05701216
207	0xb9095f99	-0.00013100951
208	0xbc115893	-0.008871215
209	0x3cfe4231	0.031037422
210	0x3d404eeb	0.046950262
211	0x3d663fe0	0.05621326
212	0xbd68d50d	-0.056843806
213	0x3d268ec6	0.040663503
214	0x3c208357	0.009796939
215	0x3c230b81	0.009951473
216	0xbd623651	-0.05522758
217	0xbbf259ba	-0.00739595
218	0x3d037e67	0.03210297
219	0x3d16d0e2	0.0368203
220	0x3d5b9261	0.053606395
221	0x3d2fa5a3	0.042882573
222	0xbd6583b8	-0.05603382
223	0x3cf5d9cd	0.030011082
224	0x3d4c9da2	0.049955018
225	0x3c589f0f	0.013221516
226	0xbcaa4c24	-0.02078826
227	0xbc56c9ab	-0.013109605
228	0x3d24f8df	0.040276404
229	0x3d60c470	0.054874837
230	0xb8cdecd4	-9.8192744e-05
231	0x3c580028	0.013183631
232	0xbd562db6	-0.052289687
233	0xbc3c21b4	-0.011482645
234	0xbc9bdeba	-0.019027103
235	0x3d0e5925	0.034752984
236	0xbafa22c0	-0.0019083843
237	0x3d01f766	0.03173008
238	0x3cff519c	0.031166844
239	0x3d3d50df	0.046219703
240	0x3c2f0a72	0.010683643
241	0xbcf32952	-0.029682789
242	0xbc5028a4	-0.012705002
243	0x3ccfd868	0.025371745
244	0xbc44518f	-0.011982336
245	0xbd6bb1cb	-0.057542603
246	0xbd4829b0	-0.04886788
247	0xbd4e5bb2	-0.050380416
248	0x3d6bead2	0.05759699
249	0x3d317bf0	0.043331087
250	0x3c451219	0.012028241
251	0xbcfe4e93	-0.031043326
252	0x3cffd883	0.03123117
253	0x3c866433	0.0164052
254	0x3c3664a7	0.011132396
255	0x3d24ecf2	0.04026503
