LAB/AOC_Lab1_2024/AOC_lab1/N26122246_minist_best.ckpt (torch, 236100 bytes, 30 tensors)

total_ops f8 [1]
00000000: 0000 0000 0000 0000
0.0

total_params f8 [1]
00000000: 0000 0000 0000 0000
0.0

conv1.weight f4 [32, 1, 3, 3]
00000000: f8fa 5d3e 459a 873e 42b2 b7be 8a3d 6eba
00000010: 4cbf a8be eb77 6b3e 4078 02bd d746 523d
00000020: 51e1 58be db99 e13e 9042 b9bd 66ed 803c
00000030: e932 c1bd f0d6 14be 77c1 8cbd bf33 44be
00000040: ee61 4e3e fb47 903e 3b14 b4bd b4d7 593e
00000050: c65b c9bd 4e62 8abe 9679 433e c14d 44be
00000060: aa63 953e a655 72be fd22 043e ec3c 7b3c
00000070: 0b15 24be 920e 823e a3d9 29bc 3d69 66be
00000080: 55d4 7b3e 2e2e fe3d bed9 523e b13c e8be
00000090: 3a03 50be 1830 59bd 88fd f93d d5e0 543e
000000a0: 1170 883e 290a 6ebd 0da6 b3be 37eb f63d
000000b0: f6b1 4dbd 5334 563e 312e a2be 6ae1 50bf
000000c0: 87f4 6dbd 0e5c 90bd e399 df3c 6df4 f0bc
000000d0: 4f9a c93d c0bb be3d 5c36 07be 3984 883e
000000e0: 043c e0bd f70e e13d 9170 b1bd 09ca 03be
000000f0: 4612 a5be ce39 ffbc 6f94 123e 66a8 d6bc
00000100: 42dc 0e3e ae5f 993e 9c0e b1be 81a7 87be
00000110: 7910 00be 07cf 83be e2f4 12bd e760 a83d
00000120: 86e2 703e 0bd9 5ebe df5b 173e 4abd 863e
00000130: 293b 7cbe 3cbe aabe f64b 44bd c9e4 033e
00000140: 9826 92bc 2e0a 87bc 1b01 313d eba8 eabd
00000150: b7ad 96be f200 00be 3be4 413e c701 fcbd
00000160: ad4e 1d3e 1875 933e 5fe4 863e 0b16 b3be
00000170: 2a32 493e f91a 973d 213b d5bd d293 593d
00000180: 4b5a a9bd 7208 08bd 5326 053d 4610 683e
00000190: c05d 503e e7c9 5fbe afe9 87be e77f babe
000001a0: 2504 8ebd 142a ac3e 6c93 a43c 7ed7 e33c
000001b0: 22fd e73e 72db 3b3e f359 013e 26f7 44be
000001c0: c879 bd3d c80d f93d 6355 333e 7e8e 55be
000001d0: 823d 603e 36a4 5d3d 14c2 babe 4309 62be
000001e0: e369 47bd 9ff1 253e 9cea 71be 0ad1 ab3e
000001f0: 6779 5bbd 0c6f 8e3e d269 b4bd f371 853e
00000200: c4e2 9dbe 6329 9a3e 7173 44be cbec 143e
00000210: 0ffa 04bf 953b f93d 9637 bdbb 2933 18bd
00000220: 0632 b5bd ee8e 483e 83ef b1be 873f 57be
00000230: 32b6 153e 03ec d5be 62d5 4cbe 26ef c7bc
00000240: 2890 583e c94d f73d 2aa8 cbba cb16 c7bc
00000250: f976 ddbd 5a0a 42be c175 19be 2c2b ad3e
00000260: 3b3c 2dbe 3ee5 993d 4ee2 77bb af20 61be
00000270: c08b 06be 961f c73d 855a 283e 6d46 9bbe
00000280: 726b 26be 6764 b13e 92e6 863e cbb2 863e
00000290: f49d aa3d 85a8 84be e65c 84bb a161 f7bd
000002a0: 5fb2 cd3d b3f3 b7bd 1ac9 9abe 72da 393e
000002b0: 2da3 053e d4ab 3e3e 8e8f d33d b165 c03d
000002c0: 7453 8dbe a2f5 eebe 675a 723d 69e7 97be
000002d0: e3c7 bebe 456a 70bd d3c5 83be 8d72 96bc
000002e0: a829 913e 09ef c33e d4b0 8b3d b42f 0ebe
000002f0: 56b4 ea3c 2105 6e3e 0ac8 ca3d f607 26bd
00000300: 4e31 bcbe 0a0c 553e 359c a2be 97a1 db3d
00000310: aba8 903e c2c3 6bbe cf42 ddbd 276f 55bd
00000320: 1538 39be ec77 843e 650e 8c3e ee92 83be
00000330: 4e68 833e ffbb 98be cb34 6ebd f545 4cbd
00000340: e4e2 91bd f1df ba3e 2a45 a3bd a3c9 803e
00000350: df6c a7be 9389 b5be 1f14 423d bda5 633e
00000360: 6fa0 79bd 0581 7fbe acca 0d3e 4f40 243e
00000370: e1f3 33be b21b 72be 4348 ebba 7599 163e
00000380: d507 9a3e 3765 94be bff9 7f3d 61d7 403e
00000390: b373 913e 7ab8 c0bd ad0e 39be 81eb 583e
000003a0: 4a3d f43b 0f52 93be 990e 523d 0cae 84be
000003b0: 449d 96be 95fa 6a3e 5f5c 6bbe 37dd 9fbe
000003c0: c62e ae3d 7e21 8f3e ab00 45be 5d8b f5bc
000003d0: 2c23 023e 909d d8be 385f 1f3e 77d8 123e
000003e0: 7e61 223e e01e 11bd 3d1f bebe 7bca 9b3e
000003f0: 8c9a d83c 9f02 ad3d e320 17be acd6 33be
0.21677768 0.26484886 -0.35878187 -0.00090881495 -0.32958448 0.22994964 -0.03185296 0.05133709
-0.21179701 0.44062695 -0.09045899 0.0157382 -0.094335385 -0.14535117 -0.06872838 -0.19160365
0.20154545 0.28179917 -0.08792921 0.2127369 -0.098319575 -0.27028126 0.1908935 -0.19170286
0.291776 -0.23665485 0.12903972 0.015334349 -0.16023652 0.2540174 -0.01036683 -0.22501083
0.24592717 0.12411152 0.20590875 -0.45358804 -0.20313731 -0.05302438 0.122065604 0.20788892
0.26648 -0.05811516 -0.35087624 0.120565824 -0.050218545 0.20918398 -0.31675866 -0.81593955
-0.058094528 -0.07048808 0.027295059 -0.029413426 0.09843885 0.09313154 -0.1320433 0.26663378
-0.10948947 0.109891824 -0.086640485 -0.12870039 -0.32240504 -0.031155493 0.14314435 -0.026203346
0.13951209 0.2995581 -0.3458146 -0.26494983 -0.12506284 -0.25743887 -0.03587807 0.08221608
0.23523912 -0.21762483 0.1478114 0.2631629 -0.24631943 -0.33348262 -0.047924004 0.12880243
-0.017840669 -0.016484346 0.043213945 -0.11458 -0.2942941 -0.1250036 0.1893472 -0.123050265
0.15362044 0.28800273 0.26346108 -0.34977755 0.19648042 0.073781915 -0.104116686 0.053119488
-0.08269175 -0.03321118 0.032507252 0.22662458 0.20348263 -0.21854363 -0.26545474 -0.36425707
-0.06934384 0.33625853 0.020089827 0.027812716 0.45310313 0.1834543 0.12631969 -0.19234905
0.092517436 0.12160832 0.17513041 -0.20855138 0.21898463 0.054111682 -0.36476195 -0.22073846
-0.048684966 0.16205452 -0.23624653 0.33557922 -0.053582575 0.27819097 -0.08809246 0.260635
-0.3083707 0.301097 -0.19184662 0.14543454 -0.5194406 0.121695675 -0.0057744486 -0.037158165
-0.08847432 0.19585773 -0.34753045 -0.21020328 0.14620283 -0.41781625 -0.20003274 -0.024406027
0.21148741 0.12075383 -0.0015537788 -0.02430286 -0.10813708 -0.18949261 -0.14986326 0.33822
-0.16917507 0.075144276 -0.0037824097 -0.21985124 -0.13139248 0.097228214 0.1644078 -0.30327168
-0.16251925 0.34646913 0.26347786 0.26308283 0.083309084 -0.2590982 -0.0040393947 -0.12079168
0.10043787 -0.08982029 -0.30231553 0.18149737 0.13050528 0.18620235 0.10330115 0.09394396
-0.27602732 -0.46671778 0.059168246 -0.2966874 -0.37261876 -0.058695097 -0.25736865 -0.018365169
0.28352094 0.38268307 0.06820837 -0.13885385 0.028650444 0.23244144 0.09901436 -0.040534936
-0.36756366 0.20805374 -0.31759802 0.1072418 0.28253683 -0.23023894 -0.10803758 -0.052107956
-0.180878 0.25872743 0.27354732 -0.25698036 0.25665516 -0.2983093 -0.058155816 -0.049871404
-0.07123354 0.3649898 -0.079721764 0.25153837 -0.3270025 -0.35456523 0.04738247 0.22231193
-0.060944017 -0.24951561 0.13846844 0.16040157 -0.17573501 -0.23643377 -0.0017950613 0.14706977
0.300841 -0.2898347 0.062494036 0.1883216 0.28408584 -0.09410186 -0.18072005 0.21183588
0.0074535953 -0.28773543 0.051283453 -0.25914037 -0.2941686 0.22947152 -0.22984456 -0.3122346
0.08505015 0.2795524 -0.19238536 -0.02997368 0.1270873 -0.4230771 0.15563667 0.14340387
0.15857503 -0.035429835 -0.37133208 0.30427918 0.026440881 0.084477656 -0.14758639 -0.1756236

bn1.weight f4 [32]
00000000: 0a4d 903f e3aa 443f c8ba 813f c00b 743f
00000010: e1eb 843f a645 873f be72 903f d4a8 993f
00000020: 07c6 933f eb4d 7d3f de41 6a3f ec57 813f
00000030: 3387 223f db4a 833f 2293 973f df1e 8c3f
00000040: 5b03 973f 5ae5 a33f d6ed 673f 5e17 8a3f
00000050: 8607 8e3f 993e 7b3f 23ef 913f 0f3b 8f3f
00000060: 4fc6 733f 5f2b b33f 3163 953f b328 533f
00000070: 640a 873f 4a75 863f 14ff 8e3f c7f5 453f
1.127351 0.7682325 1.0135126 0.9533043 1.0384485 1.056813 1.1285017 1.2004647
1.1544808 0.9894702 0.91506755 1.0104957 0.6348755 1.0257219 1.1841776 1.0946921
1.1797899 1.2804368 0.90597284 1.0788381 1.1096046 0.9814239 1.1401104 1.1189898
0.9522447 1.3997611 1.1670896 0.8248398 1.0550046 1.0504544 1.1171594 0.7732815

bn1.bias f4 [32]
00000000: 295e 81be 924c 50be a710 cebd 79b7 0bbe
00000010: 95c5 febc 0dfa d6be d4e4 2bbe 4dc6 babe
00000020: 4bc9 a3be 65a7 7ebd 8769 c03d ae8a 5bbe
00000030: 943d 86be dc91 51be aa04 58be aace f6be
00000040: 8a5e dabd 3e20 00be 4ee2 7ebe 05a8 2cbe
00000050: db9b 10be 76f8 2f3e 6e19 51be 8d25 1abd
00000060: d75f 423d 7438 e9bd a2d9 adbe b920 79be
00000070: aabb cfbd dbc6 0abd 8b28 fcbe 653f 19be
-0.2526715 -0.2034171 -0.1006177 -0.13644208 -0.031100074 -0.4198765 -0.1678651 -0.36479416
-0.31989512 -0.06217136 0.09395128 -0.21439621 -0.26218855 -0.20465797 -0.21095529 -0.48204547
-0.10662563 -0.125123 -0.24891016 -0.1686097 -0.14121954 0.17184624 -0.20419857 -0.037633467
0.04745468 -0.11387721 -0.33955103 -0.24328889 -0.10143216 -0.03388105 -0.49249682 -0.1496559

bn1.running_mean f4 [32]
00000000: d14b 47bd 704c c83d 1863 93bc f48e 99ba
00000010: 13fa ed3a 87d8 79be 17df a8bd b4f3 1cbe
00000020: 99bd d7bc f21a 2db9 b724 623c 4287 ffbc
00000030: 7b48 8c3e f1f5 d9bc 4307 a3bd 3b29 8fbe
00000040: 8563 de3b f69f 1dbd b8c6 a4bc d4f3 a5bd
00000050: 64e5 acbc 302a 0cbc 214e 3dbd a973 4f3a
00000060: 5ab4 c33b ba9c e1bc 7eec 3abe 771e 1b3c
00000070: 8030 a8bd e3c2 d3b9 8e5d fcbc 74cd 873c
-0.04865629 0.09780204 -0.017991588 -0.0011715577 0.0018156193 -0.24399005 -0.08245676 -0.1532734
-0.026335524 -0.00016508604 0.013802699 -0.031192426 0.27399048 -0.026606532 -0.079603694 -0.27961144
0.006786766 -0.03848263 -0.020114288 -0.08103147 -0.021105476 -0.00855498 -0.046217088 0.0007913658
0.0059724273 -0.027540553 -0.18254277 0.009467713 -0.08212376 -0.00040390258 -0.03080633 0.01657746

bn1.running_var f4 [32]
00000000: ac54 213c a9d7 7f3c 3efb 553b ad86 953b
00000010: 6654 c43b 247b cd3d d87c 3c3c e9df 473d
00000020: 9dca 413c 4ea4 603c 3820 9a3b 8d24 3d3c
00000030: f52d c33d 5d10 993c d49a 483c ed21 fd3d
00000040: 9b46 dc3b 6fa7 3e3c 3212 663c 6855 d13c
00000050: dae6 563c 1deb 4b3c 1939 923c 516b 3a3c
00000060: cabb e53b 8036 083c e35c 8b3d 0852 b43b
00000070: 730e 2d3c 4043 ec3c 63cf 113c f99f 9d3b
0.0098468475 0.015615382 0.0032650973 0.0045631737 0.0059915064 0.10033253 0.011504374 0.04879752
0.011828092 0.013711048 0.004703548 0.011544359 0.0953025 0.01868456 0.012243945 0.123599865
0.006722284 0.011636599 0.014042424 0.02555342 0.013116563 0.012446192 0.017849492 0.011378125
0.0070109116 0.008313775 0.06804826 0.005502943 0.010562527 0.028840661 0.0088995425 0.00481033

conv2.weight f4 [64, 32, 3, 3]
00000000: 23df 9bbd a64c 723d 1c77 c93c 8883 e5bb
00000010: d809 ba3d 693e 153c 5cb1 113d 3fc0 ed3c
00000020: 627e 95bd 5a4d d1bd 1692 493d 605e 4e3d
00000030: 588b 79bd b9d2 cd3c defd 653d 44e9 453c
00000040: e464 873d db03 f63c 254a d73c 9b51 0f3e
00000050: 52f2 503b 1e87 55bb f7f6 b4bd ca1b 213c
00000060: f95e 18bd 158c f13c 90a5 523d 5713 1c3d
00000070: 9cd4 e1bc 16a0 82bd 2cf1 a23c 95bf 9fbd
00000080: 63ce ca3c 0f57 0d3d 51ab 523d 8486 4fbd
00000090: 6f27 4b3d fb73 8cbb be49 ac3d 8d23 b33d
000000a0: 118c 88bc dd03 aa3c f2bb abbd 477d 013d
000000b0: 4f81 4ebc 2bec 04be ab37 95bd 7518 913d
000000c0: 10ab 4d3c 9893 5a3d 4607 1c3e f480 38bd
000000d0: aa73 97bd 763c 4bbd 5803 80b9 abc2 d83d
000000e0: 304a cabc 07a2 8fbc 81c8 5abd 2a9c f73c
000000f0: 6497 2f3d 89b1 22be c4a7 a8bc 5927 aa3d
00000100: eb74 61bc 57b7 20bd a446 33bc c051 b3bc
00000110: dcad bebd ebe0 cebc 8e93 e2bd 94d4 88bd
00000120: 0122 03be 7afe b93c 5898 e23d 24aa c2bd
00000130: c40a 973d 1a73 82bc 6744 28bd 264d 053d
00000140: d5eb 993c 1ddd 40bc e061 983c 1646 cbbd
00000150: 0486 71bd a7f2 3c3d f359 4b3d e4e0 b73b
00000160: 19cb 00bc e51d 9b3d 7085 b0bd 6ea6 273d
00000170: d27b c83b 9207 473d 4f81 8ebd 9275 3d3d
00000180: 4c63 a13d f16c a73c 6d8a 5c3d b8b5 b0bc
00000190: 7852 bf3d 17f6 193d 68d5 82bd 911a c33d
000001a0: 17d4 7cbd eb88 96bc 418b 6a3d 396b bcbd
000001b0: d2da 1c3d 61dc a83c c20f c63c 76e9 433c
000001c0: 717e 2ebc 6a8e 8d3d c1a1 883b c69b 99bc
000001d0: 2392 153d de75 00bd f5f1 193c 5ca1 8f3d
000001e0: d8e5 8fbc d30f 303d 903c 093d ce6b 573d
000001f0: 29b0 80bd 4708 5dbc ab72 60bd 1900 623d
00000200: 7b43 ae3c 782b ecbc abaa 22bd 2741 793c
00000210: ae86 6a3c 7725 55be fae3 0cbd 4f02 273d
00000220: 2dbc 20bd 56f6 f9bc 3866 0fbe 360a e6bc
00000230: 219f a9bd c4e0 18be bbe0 3cbd f959 86bd
00000240: 89d9 e7bc 3037 9b3b 41ce 893d 4b42 e43c
00000250: 1f2f b43b 2c09 3fbd 9e9f 9b3c 52d5 843c
00000260: dc0a 0cbd 8496 08be d114 d23d ab39 13be
00000270: 3b15 75bd def7 c23b c96c 31bb f164 b33b
00000280: ba34 e6bd 2f80 32bd 018e 91bd 82d4 85bb
00000290: d894 eebc dd72 49bd 42f6 4f3b 8c24 afbd
000002a0: 8671 8b3d 8626 ec3c 9af1 993c c118 053c
000002b0: 97ab 823b baf5 263d 67d8 eabb ff6c aabd
000002c0: 181b 7fbd 319f 523d e9df 08bd 4744 0b3d
000002d0: 8ec4 31bd 4c34 873d 91df 14be 75c8 4ebc
000002e0: 4c10 21bc 07b6 363c cd25 1c3d 05dc acbc
000002f0: df46 943d 8158 11bd be68 e83c e2e0 833c
00000300: e08a 093d e2cd 37bd dc43 803c cefe 26bc
00000310: a430 5bbd dab5 90bd 93b2 89bd 3e37 c03d
00000320: 69b3 dfbd 4c6a e4bc 9372 313d 5e02 abbd
00000330: bc36 93bb 68a4 0f3d c630 1abd 1bd6 653c
00000340: 738d 8a3c 4eeb a83c 0c2f 02bd a211 ac3b
00000350: bee4 65bc a5a4 8fbd 5235 573d 77ec e03c
00000360: 1498 6bbc e014 f4bd b965 803c b048 3d3c
00000370: 777a 3cbb 56ab bebd 4aff 9f3c 2751 df3c
00000380: e40d 40bd d387 b1bd 50cd fb3c 5a33 b3bd
00000390: 8a1e b23d 7e72 2c3d ed54 05be 1272 bf3d
000003a0: c6c5 f73c d1c3 253c ac5c efbd a385 6b3b
000003b0: 3b3e 553d eb65 aabd 8d91 853c d78d edbc
000003c0: 8c8b 96bd 77d0 3439 042a 9fbd 4b74 243d
000003d0: ab63 1c3d fbc7 2f3d 1ce7 3dbc a46a 43bb
000003e0: 9232 833d fa9d aabc e0f7 d7bc c2bb 8fbb
000003f0: 0d4b aa3d 7d45 37bd 8f2c cd3c 3e46 fb3d
-0.07610919 0.05915513 0.024592929 -0.007004205 0.09083909 0.009109118 0.035569534 0.029022334
-0.07299496 -0.10219832 0.049211584 0.05038297 -0.060923904 0.025124894 0.05615031 0.012079541
0.0661104 0.030031135 0.026280472 0.13995974 0.0031882715 -0.0032581757 -0.08836167 0.009833286
-0.037199948 0.029485742 0.051427424 0.03810438 -0.0275672 -0.0637819 0.01989039 -0.07800213
0.024756616 0.034506854 0.05143291 -0.050665393 0.049598154 -0.004286287 0.08412503 0.08747015
-0.016668351 0.020753795 -0.08385457 0.031613614 -0.012604072 -0.12980716 -0.072860084 0.07084743
0.0125529915 0.053363413 0.1523715 -0.045044854 -0.07395108 -0.049618207 -0.00024416554 0.10584005
-0.024693578 -0.017533315 -0.05341387 0.030225832 0.042868987 -0.15888037 -0.02058781 0.08308286
-0.013760786 -0.039237347 -0.010942135 -0.021889567 -0.09310505 -0.025253734 -0.110633 -0.06681171
-0.1280594 0.022704352 0.110642135 -0.09505108 0.073751 -0.015924025 -0.04108086 0.032544278
0.018789211 -0.0117714675 0.018601358 -0.09925477 -0.058965698 0.04612985 0.04964633 0.005611526
-0.007860922 0.07574061 -0.08619201 0.040930204 0.006118276 0.048591204 -0.069582574 0.046254702
0.078802675 0.02043769 0.05384295 -0.021571025 0.093419015 0.037588205 -0.0638836 0.095265515
-0.061725702 -0.018375834 0.05726171 -0.092001386 0.03829462 0.020612897 0.024177436 0.011957517
-0.010650263 0.06911929 0.004169673 -0.018751036 0.03651632 -0.031362407 0.009396066 0.07013199
-0.017565653 0.04298384 0.033505023 0.052593045 -0.062836 -0.013490743 -0.054796856 0.055175874
0.021272412 -0.028829321 -0.039713543 0.015213287 0.014314337 -0.20815073 -0.034397103 0.040773686
-0.03924196 -0.03051297 -0.14003837 -0.02808104 -0.082823046 -0.14929491 -0.046112757 -0.0656013
-0.028301971 0.0047368035 0.06728793 0.027863642 0.0054987813 -0.046639606 0.01899701 0.016215
-0.034190044 -0.13338667 0.10257877 -0.14377467 -0.0598347 0.005949958 -0.0027072898 0.0054746796
-0.112405255 -0.043579277 -0.07107163 -0.004084171 -0.029123709 -0.049181808 0.0031732474 -0.08551893
0.06808762 0.028826963 0.018791962 0.008123578 0.0039877403 0.040761687 -0.0071669105 -0.083215706
-0.062281698 0.051421348 -0.033416662 0.03400066 -0.04340034 0.06601772 -0.14538409 -0.012621035
-0.009830546 0.011151797 0.038121987 -0.021101007 0.0724008 -0.035484795 0.028370257 0.016098443
0.033579707 -0.04487408 0.015657358 -0.010192586 -0.053513184 -0.070659354 -0.067235135 0.093855366
-0.10922892 -0.027882718 0.043322157 -0.08350061 -0.004492609 0.0350689 -0.03764417 0.0140280975
0.016913151 0.020620015 -0.03178315 0.0052511254 -0.014031587 -0.07013825 0.052541085 0.027456505
-0.01437952 -0.11918044 0.015673505 0.011552975 -0.0028759518 -0.093100235 0.019530911 0.027260376
-0.046888247 -0.086684845 0.030737549 -0.08750029 0.08697231 0.042101376 -0.13020678 0.09347929
0.030245673 0.010117487 -0.11687598 0.0035937808 0.0520613 -0.083202206 0.016304756 -0.028998299
-0.07350835 0.00017243797 -0.07771686 0.040149968 0.03818099 0.042915326 -0.011590745 -0.0029818201
0.0640613 -0.020827282 -0.026363313 -0.004386396 0.08315096 -0.044744004 0.025045661 0.12269257

bn2.weight f4 [64]
00000000: 464c 9b3f 32cf 943f 2bf8 883f 649a a73f
00000010: 103b 9c3f a7cf 953f 477e 9a3f 26d6 8a3f
00000020: 3303 ac3f 71c7 ab3f 1288 9c3f ac2b 9a3f
00000030: 70c3 963f e5a1 9d3f 352c ab3f 37d9 833f
00000040: eba5 8b3f aa2a 9b3f b164 823f 394d a43f
00000050: dfb1 ae3f a700 a83f 8828 963f 9736 a93f
00000060: f293 9b3f 312c b83f dac5 993f fbbb 883f
00000070: 8857 a13f f5c2 a13f 8550 963f 5afb 803f
00000080: f8cb 8b3f 9711 923f 7146 933f 4646 a83f
00000090: c80b 9a3f 06e6 953f 4476 793f 23d3 9c3f
000000a0: 4f9e 8a3f 66d4 a03f be96 853f b547 9c3f
000000b0: 0f09 9b3f c62e 9f3f a345 803f 160b 973f
000000c0: 2992 9b3f c83a 8b3f 7679 9a3f 4c5c 8e3f
000000d0: ac17 933f b6b5 8e3f 2db6 893f b25f 7b3f
000000e0: 0f6e b53f d7ef 913f 9276 7f3f 3dd5 b53f
000000f0: d0dd 9b3f cf8b 8c3f 213c 9d3f c966 b53f
1.2132652 1.1625731 1.0700735 1.3093991 1.2205524 1.1703995 1.2069787 1.0846603
1.3438476 1.342024 1.2229025 1.2044578 1.1778393 1.2315031 1.3372866 1.0300664
1.0910009 1.2122395 1.0186979 1.2836066 1.3648032 1.3125199 1.1731119 1.3219784
1.2154524 1.4388486 1.2013505 1.0682367 1.2604837 1.2637621 1.1743323 1.0076706
1.0921621 1.1411618 1.1505872 1.3146446 1.2034845 1.1710823 0.97446084 1.2251934
1.0829562 1.2564819 1.0436628 1.2209383 1.211214 1.2436149 1.0021251 1.1800258
1.215398 1.0877314 1.2068317 1.1121917 1.1491599 1.1149204 1.0758721 0.98192894
1.4174212 1.1401318 0.997903 1.42057 1.2177067 1.0980166 1.2283975 1.4171993

bn2.bias f4 [64]
00000000: 60f6 13bd d279 28be eb3a e4bd 7b78 54be
00000010: 3a06 82bd 46df 1cbe 0e3f a93d ca45 18be
00000020: 4acc 06be 0ed5 4a3e 355a 08be df84 80bd
00000030: c426 a4bc 463b 23be 8007 bcbe 9fc4 99be
00000040: c3ba 82be 7e65 c3bd 6914 00be 21ff d5bd
00000050: 14a8 0c3e 4fcf 03bd be78 2cbe d420 5cbe
00000060: 9678 bdbe 6113 903e ad66 32be 3fb4 8cbd
00000070: 63bf 9e3d 762a 64be df51 c0bd 0b29 99be
00000080: 5235 22be 2346 cf3b bfe7 553b d3d0 d1bc
00000090: 6190 1dbe 3fdc 5dbd 0429 2abe a236 58be
000000a0: ed73 32be 3ada 11be 6db1 2abe 9d7e babb
000000b0: 51bc 29be ae38 55be 127c 1bbe c0fd 5fbe
000000c0: ffdb 40be ca9b 01be 821d 353d f604 ddbd
000000d0: 86a0 24bd d233 fbbd c7b9 3fbe a88c 88be
000000e0: 14df 51be feaf 23be 2416 15be ba54 9bbe
000000f0: 2cad dcbd 8e52 c2bd 106f e4bd be3e c8bd
-0.036123633 -0.16452721 -0.1114405 -0.20749085 -0.06348844 -0.15319547 0.0826398 -0.14870372
-0.13163868 0.19807836 -0.13315661 -0.06275343 -0.020038016 -0.1594058 -0.36724472 -0.30032822
-0.25533113 -0.095408425 -0.12507786 -0.104490526 0.13735992 -0.032180127 -0.16842934 -0.21496898
-0.37006062 0.28139785 -0.1742198 -0.06870317 0.07751348 -0.22281823 -0.09390616 -0.29914126
-0.15840653 0.0063254996 0.0032639352 -0.02561227 -0.15387107 -0.05416512 -0.16617209 -0.21114591
-0.17427035 -0.14243403 -0.16669245 -0.005691363 -0.16575743 -0.20822403 -0.15184048 -0.21874142
-0.18833922 -0.12657085 0.044217594 -0.10791962 -0.04019215 -0.12265743 -0.18723212 -0.26669812
-0.20495254 -0.15985104 -0.14559227 -0.3033808 -0.107752174 -0.09488402 -0.11153996 -0.09777592

bn2.running_mean f4 [64]
00000000: 5a5b 4fbf 8595 96bf 2248 37bf 146d 5dbf
00000010: 8813 9fbf ec59 6fbf a281 adbf 8467 62bf
00000020: 41c3 9fbf af7b a8bf 19d6 8ebf 89b0 5cbf
00000030: c03c 83bf dd44 6fbf 5a22 8bbf 9ce0 86bf
00000040: 9a0c a0bf 6fa0 8bbf 7699 36bf 8b0d 6fbf
00000050: c082 85bf 2adb 88bf c578 1ebf 8399 87bf
00000060: 04d7 85bf e5f4 c2bf 8b45 c0bf 8163 5cbf
00000070: d1d8 c3bf 483a 5ebf 41f1 8fbf fbe6 75bf
00000080: a3ef d9bf 816a bcbf fe65 6fbf 595d a2bf
00000090: a38b 40bf e200 5dbf 2c7b 3bbf d3d0 64bf
000000a0: 5297 86bf 8217 93bf 5198 9ebf 2cb0 88bf
000000b0: 55df 22bf 21fe 81bf f228 9fbf eaff 44bf
000000c0: aa43 94bf 02f7 92bf 7336 8ebf 690a 71bf
000000d0: 1f83 95bf af91 9bbf bef0 8ebf 873d 4abf
000000e0: 7232 70bf ddc8 52bf 30d8 82bf d258 82bf
000000f0: 3c4a 9ebf 5b15 98bf 9f6b 66bf e5ba 84bf
-0.80998766 -1.176438 -0.7159444 -0.86494565 -1.2427835 -0.93496585 -1.3555186 -0.884392
-1.2481462 -1.3162745 -1.1159087 -0.8620687 -1.0252914 -0.9346445 -1.0869858 -1.0537295
-1.2503846 -1.0908335 -0.7132791 -0.9338004 -1.0430527 -1.0691884 -0.6190303 -1.0593723
-1.0456243 -1.5230986 -1.5021223 -0.8608933 -1.5300542 -0.8680768 -1.12455 -0.96055573
-1.7026256 -1.4720002 -0.93515 -1.2684737 -0.7521307 -0.8632947 -0.7323482 -0.8938114
-1.0514929 -1.1491549 -1.2390233 -1.0678763 -0.6362203 -1.0155679 -1.243437 -0.76952994
-1.158315 -1.1481631 -1.1110367 -0.9415651 -1.168064 -1.2153834 -1.1167219 -0.79000133
-0.93826973 -0.82337743 -1.0222225 -1.0183356 -1.2366405 -1.1881517 -0.90007967 -1.0369536

bn2.running_var f4 [64]
00000000: c89c 013f 0339 c73f 0317 c03f 3b42 e93f
00000010: 239d 4f3f 0f55 163f 440b 233f 220a e53f
00000020: 5cd6 093f 2363 e63e ea6f 673f cd50 153f
00000030: f14b 1d3f 3847 0f40 3171 0640 64c5 c73f
00000040: 6e2c 4440 a3e9 783f 44fc 9f3f ce39 443f
00000050: 0259 c23e 877a cc3e 9a02 c43e 107e a03f
00000060: 5ddb dc3f c6e2 af3e ff97 2040 b5d2 ea3f
00000070: af5c 043f f986 203f 498a 2c40 5c4d 903f
00000080: 05e6 3041 65f9 b43f 4965 213f 7f55 1d40
00000090: a15c 963e 0e7a 863f 7ed9 a33f 50f3 aa3f
000000a0: 1cc0 3e3f 39f5 d93f 8489 4a40 ac9f 443f
000000b0: bd6e 313f 0749 a13f de5d 1040 e29f 143f
000000c0: 9d46 2940 bf07 8c3f f3d3 503f ff97 563f
000000d0: daa9 c73f d735 7e3f 4513 b03f 06ed 923f
000000e0: ca1d 143f 360d 813f 3d06 b03f 4f41 6b3f
000000f0: f155 a73f 0ebf d93e adcf f63e 90bf e33e
0.50629854 1.5564274 1.5007023 1.8223337 0.81099147 0.5872354 0.63689065 1.7893717
0.5384271 0.4499751 0.9040514 0.5832642 0.61444 2.2387218 2.1006587 1.5607114
3.0652118 0.972315 1.249886 0.766507 0.37958533 0.3993723 0.38283235 1.2538471
1.7254444 0.34352702 2.509277 1.8345553 0.51703924 0.6270595 2.6959403 1.1273608
11.056157 1.4138609 0.63045174 2.4583433 0.29367545 1.0505998 1.2800748 1.3355503
0.74511886 1.7027961 3.1646433 0.7680614 0.693096 1.2600411 2.2557292 0.5805646
2.644935 1.0939864 0.8157341 0.8382568 1.559871 0.99300903 1.375588 1.1478584
0.57857955 1.0082157 1.3751904 0.9189653 1.3073102 0.42528576 0.4820532 0.44482088

conv3.weight f4 [32, 64, 3, 3]
00000000: cf30 99be 66b0 86be d3d9 cfbd 8536 79be
00000010: 2477 42be 19ca bfbd 4332 0fbe d9f9 19be
00000020: ee51 713c 7f75 1b3c 62ef 453d 7ca0 043e
00000030: 93c2 90bd f1fa d5bd 84e0 7dbc 5bc3 eb3d
00000040: e2bd b43d 379d a83d fd6a 9cbc 22c6 4bbd
00000050: b372 19be bf8e 2aba 56d0 da3c 994a 6dbd
00000060: 0f17 cf3d 4b9d 823d 1e03 96bc 472a 48be
00000070: 51f6 7abe 752b 61be c628 5abd 914d cabd
00000080: f92a 85bd 4c59 f4bc 8c99 ab3a 8cf1 a53c
00000090: f068 e73d c40b 0f3e 205a 4a3e 67b6 593d
000000a0: 4b37 683d fbcb 9b3d f1d6 933c c481 c2bb
000000b0: e6b8 71bc d9c6 06be 1b6b a0bd 085f 633d
000000c0: ae98 563d 23e6 853d 676b 663e 2c1f 6f3d
000000d0: 49db 083e 2670 393e 12ce e9bd 2b6a 81bd
000000e0: 0bf3 fabc d180 bc3c 9c2f 793c 0884 423d
000000f0: 3da5 ae3d dbc4 093e 17c3 183e 925f 4c3d
00000100: 57a8 83bd 111d f0bd e6db 993c 8204 2bbd
00000110: cbd8 91bd 0950 473e b062 803c 0a92 53bd
00000120: fab1 37bd ef40 00bc ab39 ab3d acf3 20bd
00000130: d2f8 513d 6680 2d3d 4ffd 833d eb66 9e3d
00000140: 8e86 aa3d 2d01 12bd 76b9 19bc b927 453d
00000150: 3a5e 6e3c 6d42 ad3c e0e5 2f3d 08d5 3dbe
00000160: 9159 9bbd f365 b8bd 9129 c5bd 4a34 d9bc
00000170: c65b c53d c303 88bc 6122 de3c d52e 593d
00000180: ced0 cb3d bc25 893d db36 9e3d 698d 28be
00000190: 3ef9 74bd d250 2cbd b081 bfbc 6092 8dba
000001a0: 3845 1a3d 805a 12bd 94dc 983c ab21 b73d
000001b0: 202e 24be 1ecb 8bbe 6892 c0bd 228c 61bd
000001c0: 27c5 f3bd 01ab f23c 1ea0 c23d bd3c 08bd
000001d0: f438 043e 7c87 bdbd efae 4ebe 6b77 98be
000001e0: 3db5 163e d64f 163c 22ee 8abd b59d 5c3e
000001f0: 818d 343d 163b 023d 17f4 28be e568 8ebe
00000200: 9a22 5abe 918c 523c 6264 dbbd 71cc a53c
00000210: e1f9 673c 70bd 1cbd 92dd e93b bf5c 85bd
00000220: 8f93 8cbd 3623 cd3d 4c97 e03c 5ec9 bdbc
00000230: 3ba1 d93d b7f8 0cbd 3122 9abc c9a9 0f3e
00000240: a568 06be b25b 8ebb 6b78 693e 0711 51bd
00000250: b882 21bd be33 1b3e af71 393d 4115 debc
00000260: c441 183e c5ed 0abe 165d 29bd c3aa 3d3d
00000270: c61a 14be 029d 49bd ee05 e03d bd7b 683d
00000280: 7fc0 b23d ea5c 313e 1012 023d 43c9 5fba
00000290: 1342 b2bd 2acd 803d dd4f 463d 0bcd a0bd
000002a0: 9c82 5c3d e5fd 153d 3c58 c53c 6a9c 24bd
000002b0: be16 21bd 1b50 15bd b4f1 eb3b a4bd 45bd
000002c0: 12f9 86bc 8739 183d 6d71 d93b 9a6a 0abd
000002d0: f4c7 d53d 48ca f43d b56f e23c 12df 1bbb
000002e0: bbc3 e6bd 06f5 0fbe cc53 24bd c022 8bbd
000002f0: 7dd3 e6bd 5b73 be3d 4738 113e 0089 c03d
00000300: b9e2 47bd 15a7 adbd 0536 02be f91e 17bd
00000310: 93a2 b5bd 5369 93bd 3a47 3b3d 4bb0 1d3c
00000320: 99e9 ad3d eeb0 80bd cb04 c6bd ef44 13bd
00000330: 0d48 8b3d 49d2 09bd f525 093c 44e3 06be
00000340: 6a0f 3bbe 0b16 e9bd 350d 70bd cf43 d9bd
00000350: f09f 13be 5891 533e 0e1e 023e db23 093e
00000360: a58e aebc 6fab 1abe f703 73be 7661 5c3d
00000370: af35 853b 5bbe a5bd 2f9a 563e e27e c23d
00000380: b8ec ca3c fda1 093e 08c8 2b3e e238 d43d
00000390: 7c2b dd3c 570b 2cbd 4006 97bd 631b 03be
000003a0: 89fa 07be 1f9a 78be 1344 bcbd bd2d f9bd
000003b0: 41c5 91bd 6623 483d d882 d03d b11b 673d
000003c0: 0e44 1e3d 88b4 e3bb a16d 663d ce9d b03b
000003d0: 1631 533c 837e 083c aa5b ce3d 2dc1 8a3d
000003e0: 3cf6 01bd d73c 3c3d 9c0c b03b 8687 343d
000003f0: c6be bf3c 7b9e ca3d 8c16 243e 5c7d d9bd
-0.2992005 -0.26306456 -0.101489685 -0.24337204 -0.18990761 -0.09364719 -0.13984017 -0.15036716
0.014729006 0.0094884625 0.048323996 0.12951845 -0.07068362 -0.10448254 -0.015495423 0.115118705
0.0882528 0.08233111 -0.019093985 -0.0497495 -0.1498516 -0.0006506256 0.02671067 -0.05793247
0.1011182 0.063776575 -0.018312033 -0.19547378 -0.24508025 -0.21989234 -0.05326154 -0.09878076
-0.06502337 -0.029827736 0.0013092025 0.02025678 0.11299312 0.13969332 0.19760942 0.053152468
0.056693356 0.076072656 0.018046828 -0.0059358794 -0.014753556 -0.13161792 -0.07832929 0.05551055
0.0523917 0.06538036 0.22501908 0.058379337 0.133649 0.18109187 -0.11416258 -0.06319078
-0.03063347 0.023010643 0.015209105 0.047489196 0.085276105 0.13454 0.14918171 0.04989583
-0.06428593 -0.11724294 0.018781614 -0.041752346 -0.07121428 0.19464125 0.015672058 -0.051652946
-0.044847466 -0.007827981 0.08360609 -0.039294884 0.051262684 0.04235878 0.06444799 0.07734474
0.083264455 -0.035645653 -0.009382596 0.048133586 0.014548833 0.021149838 0.042943835 -0.18538296
-0.07585443 -0.0900382 -0.09627069 -0.026514191 0.09636645 -0.016603356 0.027116003 0.053023178
0.09951936 0.066966504 0.077253066 -0.16460194 -0.05980801 -0.042069264 -0.02337727 -0.001080107
0.03766367 -0.03573084 0.018659867 0.089419685 -0.1603322 -0.27303404 -0.09402925 -0.05506528
-0.11902838 0.029622557 0.09503196 -0.03326105 0.12912351 -0.09254357 -0.2018392 -0.2977861
0.14717574 0.009174308 -0.067837015 0.21544535 0.04408026 0.03179463 -0.16499363 -0.27814403
-0.21302262 0.012850896 -0.10712506 0.020239087 0.014158697 -0.0382666 0.007137009 -0.065118305
-0.06864082 0.100164816 0.027415894 -0.023167308 0.106264554 -0.03441688 -0.018815132 0.14029612
-0.13125856 -0.004344427 0.22799842 -0.05104163 -0.039431304 0.15156457 0.045274433 -0.027109744
0.14868838 -0.13567264 -0.04134854 0.04630543 -0.14463338 -0.049222 0.10938631 0.05675863
0.08728122 0.173206 0.031755507 -0.0008536765 -0.08704009 0.06289132 0.048416007 -0.07851609
0.053835496 0.036619086 0.024089925 -0.04018823 -0.03932833 -0.036453348 0.007200444 -0.04827656
-0.016476188 0.037164237 0.006635836 -0.03379307 0.10438529 0.119526446 0.027641157 -0.0023784083
-0.112678014 -0.14058313 -0.040118977 -0.067937374 -0.11270807 0.09299346 0.14181624 0.09401131
-0.048800204 -0.08479134 -0.1271592 -0.036894772 -0.08868899 -0.071978234 0.045722224 0.009624551
0.08491821 -0.06283747 -0.09668883 -0.035954412 0.06800852 -0.03364781 0.008370866 -0.13172632
-0.18267599 -0.113811575 -0.058606345 -0.106086366 -0.1441648 0.20660913 0.12706777 0.13392584
-0.021308253 -0.15104459 -0.23731981 0.053803883 0.0040652375 -0.08092948 0.20957254 0.09496857
0.02477108 0.134407 0.16775525 0.10362412 0.026998274 -0.042003002 -0.07374239 -0.12803416
-0.13279165 -0.24277543 -0.091926716 -0.12166927 -0.07117701 0.048861884 0.101812065 0.056422893
0.03863912 -0.0069490112 0.056256894 0.0053899055 0.012890121 0.008330944 0.10076077 0.067751266
-0.031728968 0.04595646 0.005372597 0.044074558 0.023406398 0.09893509 0.16024226 -0.106196135

bn3.weight f4 [32]
00000000: 748c a93f 32a3 ee3f 1c9b a33f bbff 853f
00000010: 6af4 9e3f d541 ce3f 7c5b a43f a0e3 e13f
00000020: 2523 0840 1bfc 9d3f c176 d83f 199f ce3f
00000030: 180c df3f 225e ca3f 4dee da3f 792f c83f
00000040: 050f d53f d085 0240 94b6 a93f f7d1 cf3f
00000050: d3d2 b63f 6316 9f3f 1e05 d13f c0b8 9b3f
00000060: 61b6 9c3f f19f a53f 74af 883f c6f9 cd3f
00000070: 61ec 9a3f 0d2d 9c3f 463c fa3f f181 9b3f
1.3245988 1.8643553 1.2781711 1.0468668 1.2418339 1.611384 1.2840419 1.7647591
2.127145 1.2342561 1.6911241 1.6142303 1.7425566 1.5809977 1.7103974 1.5639488
1.6645209 2.0394173 1.3258843 1.6235951 1.4283088 1.2428707 1.6329687 1.2165756
1.2243158 1.2939435 1.0678544 1.609185 1.2103387 1.2201248 1.9549644 1.214903

bn3.bias f4 [32]
00000000: 6ba9 b53d 7eb4 833e 4f06 223e 7fa6 ff3d
00000010: f8ce 023c 9f92 073c 41ad c4bc 304b a63d
00000020: 6272 bf3e 3aa1 2abc 8af4 9a3e 40b8 1f3d
00000030: f38e ab3e 711d a53c b2d5 cf3e 9438 b33e
00000040: 39d2 1e3e f59d 803e 9928 693e 4209 ec3d
00000050: fffe 863e 0051 c2bc a95e 753e 819b 243e
00000060: 496d 353d 5767 233e 944c 723e 64ec fd3d
00000070: 43bb 1b3e 6fbb b13d 703c 713e d410 4ebc
0.088702045 0.25723642 0.15822719 0.124829285 0.0079839155 0.008274703 -0.024008395 0.0811981
0.37391955 -0.010414416 0.30264693 0.038994074 0.335075 0.02015564 0.40592724 0.35004103
0.15509881 0.25120512 0.22769393 0.11525203 0.26366422 -0.023720264 0.23961891 0.16074945
0.044293676 0.1595739 0.23662025 0.123986036 0.15208153 0.08678328 0.23558211 -0.012577254

bn3.running_mean f4 [32]
00000000: 6eab 6bbf 60b2 d3be fac9 e6be ee48 30bc
00000010: af23 29bf 6c75 55bf dff5 86be 7b39 1ebf
00000020: 3c38 a1be d7d5 84be 3a5a 74bf 6c88 44bf
00000030: 668f fdbe 6401 0dbe ac8f 87be ec76 3ebe
00000040: eb81 99bd c6bb a0be a9ea 17bf f2cb 48bf
00000050: 9fb7 1bbf caae 16bf 8d4d 80bf a97a 35bf
00000060: b480 7abf 2580 71bf 708d 2dbd f26e fdbd
00000070: 05f8 af3f 8229 bcbf 0513 12bf 9701 ecbe
-0.92058456 -0.41347027 -0.4507597 -0.010759575 -0.66070074 -0.83382297 -0.2635946 -0.6180646
-0.31488216 -0.25944397 -0.95450175 -0.76770663 -0.49523467 -0.13770062 -0.264768 -0.18600053
-0.07495483 -0.3139326 -0.5934244 -0.78436196 -0.6082706 -0.58860457 -1.0023667 -0.7089029
-0.97852635 -0.9433616 -0.042371213 -0.12374677 1.3747565 -1.4700167 -0.5706027 -0.46094963

bn3.running_var f4 [32]
00000000: fde5 9842 4ea9 b041 5374 7c42 1cf2 e842
00000010: f62f 0243 322b 8c42 1195 5042 6689 a342
00000020: 9a8f bd40 5c00 dd42 e6e7 df41 c1e7 c442
00000030: e850 2741 a0b6 ca42 6091 1d41 dd29 8441
00000040: 78ee c241 50e2 ca40 36cd 1e42 4ef8 0a42
00000050: e332 3441 cdce e042 a61f 0e42 ad1f b841
00000060: 9a79 2643 7a40 e542 6d38 9042 33e6 2542
00000070: 3b2c 3643 1ffc 2043 a025 1641 b5de 8b42
76.449196 22.082668 63.113598 116.47287 130.18735 70.084366 52.145573 81.76836
5.9237795 110.5007 27.988232 98.452644 10.4572525 101.35669 9.847992 16.520441
24.36644 6.340126 39.7004 34.742485 11.2624235 112.40391 35.530907 23.015467
166.475 114.62593 72.11021 41.474804 182.17278 160.98485 9.384186 69.934975

conv4.weight f4 [16, 32, 3, 3]
00000000: 328d 94be b32a 3b3e d66b 2a3e df75 b3be
00000010: bbaa 633d b9df b2bb d3ae b2be 91c3 183d
00000020: 3d2a 913d 4b5c 103e fcac 6a3e 3be6 ac3d
00000030: f631 d83d d77c 803e 723a 0e3e 71ce 80bd
00000040: e1f0 e63d 4a4f e6bb d322 f3bc 3fbf a5bd
00000050: 7774 9ebc 745e 33bc 9cc4 f6bb 3302 dd3d
00000060: 93aa 96bd 980d 1fbe e3a3 03be b4c0 1d3e
00000070: ba80 27be f230 95bd 1c81 963d 0044 59be
00000080: 5355 3cbe ad49 363c 1b5d 34be 1cf0 6bbe
00000090: eb17 843d 301b 0d3e 84a0 a93d 505d a9bd
000000a0: ff5f 8e3d c197 113d 3a37 aa3d 3373 333e
000000b0: b21a b53d b770 b6bd 36cc 19bd d1fb c5bd
000000c0: 60ef d9bd 12b8 38bd b588 bdbd 2d55 583d
000000d0: 17eb 6cbd a9f3 a9bd 90b5 b5bd 9793 a33d
000000e0: 5207 c33d a9e5 5dbe a9e0 28bc fd34 00bc
000000f0: fc8e 863c 5f4e 8f3e 742f 893e 26e3 ecbc
00000100: 49e7 5b3e f397 fc3d bd97 a1bd 31ff 483e
00000110: df5d 763e 6a72 f3bd e889 533e d9ef d13d
00000120: e584 763d 8efc 093e 8804 103e efe1 a9bd
00000130: a36f 2d3d 5e41 c23c e402 e9bd ac49 11bd
00000140: 5e1a 1abd 5ec6 28be 9572 813d 6086 943d
00000150: 6bfe 33be 2b58 953c fda3 0bbd fcfc 51be
00000160: 02f6 813d 3907 f63c 077e 5d3d a01c 5d3d
00000170: 296a be3d 093d 5d3d 3290 b53d dbcb 963d
00000180: 5fc1 3c3d 2ece fb3c ceb5 f6bc 9d23 3d3d
00000190: 5d84 1d3e cb11 083e 6d03 8ebd b7b0 f33d
000001a0: bd27 1d3e 07e7 2bbe 8ed8 703d e828 9abc
000001b0: 8141 b3ba ca40 9ebd 95f2 93bd c4a3 1a3c
000001c0: 89f3 0bbe abf9 b3bd eeb2 82bd e0e0 84bd
000001d0: 9acd cabd 7d0e 91be b794 c3bd c937 c3bd
000001e0: 95db 91be aca1 25be 0778 b4bd 2f1f 0cbe
000001f0: caef 3ebc 6d12 1c3d 69cb 85bc 3658 c6bd
00000200: a26e 82bd 64a7 c73c 247b 40be 3067 29be
00000210: 8d90 a2bd 3e64 3fbe 9095 11be af3b df3d
00000220: 33cb d8bd f20c b4bd d92d 2dbd 6579 29be
00000230: f564 07be 88c2 35bd a19e 21be e178 22be
00000240: 56f1 90be 30a5 8a3d 9ce6 a03d 885f 3fbd
00000250: 57ba 943e 4d35 453e b98d 98be b436 663c
00000260: e894 b33d e6b6 7bbd 72a0 37be c662 28bd
00000270: f479 86bd eb19 8abd e5b8 b6bd 2ed2 003d
00000280: 0556 73bd 0b7f 1bbd 36c5 9c3d 7488 c03d
00000290: dfe5 803d d19b 8e3d b516 ab3d f10d 533c
000002a0: 13d5 4b3d 35a3 f7bc 109b 92bd 4fb2 aebd
000002b0: 6d54 02bd cc75 1bbd 0ac6 fdbd 2df4 163d
000002c0: ce7a debd e807 ddbd ae27 4dbd ef91 01be
000002d0: ae86 d33d 90cd 803c 1ba8 34bc d9a3 b63d
000002e0: b511 863a 01fd a93b 41ec 4abc cd03 27bd
000002f0: 9626 d0bd fa53 41be 3310 063e 81e6 e63d
00000300: 8d85 59be a1c5 5b3d fcc3 bfbd 352b 63be
00000310: 1c10 063e e421 24bb 89f6 63bd 625d 803c
00000320: f8eb 893d 3eb4 10be 42fc b2bd 2c44 4dbd
00000330: 06e1 14be a0d1 09be 98a9 ccbd 22b7 03bc
00000340: cd09 e6bb e95c 463d 6ed9 dc3c f29f 653d
00000350: 470e 1b3d 9785 453d 568c 2abc fe53 05bd
00000360: f3b3 b13c e4a5 0e3e eacc a63c 9d94 a03c
00000370: 8fd0 243e fd76 f43d ab84 b33a bb64 593e
00000380: c48d 363d a6b3 81bd 758e a63d 134c 993d
00000390: 03f7 6abe cee0 913d 6177 38bc 4006 10bd
000003a0: bc04 4c3e 8d01 4f3e 3279 4ebd 9185 d5bb
000003b0: 977c 81bd 26f4 37be 8d1f 2ebe 7b4e a7bd
000003c0: 4da4 debd 96df 33be b1a9 26bd eb14 6f3c
000003d0: d668 cebd 180e 25be b6b9 263e d5c8 f2bd
000003e0: 3c89 0fbe 406c a53e ca30 e73d 891f 093e
000003f0: 8547 503e e654 693d 54e4 793d 3f62 113e
-0.29013973 0.18278007 0.16642699 -0.35050866 0.055582743 -0.0054587987 -0.34899005 0.03729588
0.070881344 0.14097707 0.22917551 0.084423505 0.10556404 0.25095245 0.13889483 -0.062893756
0.11276413 -0.007028495 -0.029679691 -0.08093118 -0.019342644 -0.010947812 -0.007530762 0.10791435
-0.07356753 -0.1553253 -0.12855487 0.15405542 -0.16357699 -0.07284726 0.073488444 -0.21217346
-0.18391924 0.011125964 -0.17613642 -0.23040813 0.064498745 0.13779902 0.08282569 -0.08269751
0.069519036 0.035545114 0.08311315 0.17524414 0.08842982 -0.089082174 -0.037548266 -0.09667171
-0.1064136 -0.045097418 -0.092545904 0.052815605 -0.057841387 -0.082984276 -0.08872521 0.07987135
0.095228806 -0.2166964 -0.010307469 -0.007825133 0.016425602 0.2798948 0.26794016 -0.028916907
0.21474947 0.123336695 -0.0789027 0.19628598 0.24059246 -0.11887057 0.20658076 0.102508254
0.06018533 0.13475248 0.14064229 -0.082950465 0.042342793 0.02371281 -0.113775045 -0.03547065
-0.037622802 -0.16481921 0.06320683 0.072521925 -0.17577522 0.018230518 -0.03409194 -0.20506662
0.063457504 0.03003274 0.054075267 0.053982377 0.09297592 0.054013286 0.08865394 0.07363101
0.04608285 0.030737963 -0.030115988 0.04617654 0.15382524 0.13288037 -0.06934247 0.1189894
0.1534719 -0.16787349 0.058800273 -0.018818334 -0.0013676138 -0.07727201 -0.07224003 0.009438459
-0.1366712 -0.08787855 -0.063817844 -0.06488204 -0.09902497 -0.28331366 -0.095498495 -0.095321245
-0.2848784 -0.16174954 -0.08811956 -0.1368377 -0.01165385 0.03810351 -0.016332345 -0.09684794
-0.06368758 0.02437181 -0.18796974 -0.16543269 -0.07937727 -0.18690583 -0.1421721 0.109000556
-0.10585632 -0.087915316 -0.04228005 -0.16550215 -0.13222106 -0.044374973 -0.15783168 -0.15866424
-0.28309125 0.06769788 0.07856485 -0.046721965 0.29048416 0.19258614 -0.29795626 0.014051128
0.08768636 -0.061453722 -0.17932299 -0.041109823 -0.065662295 -0.06743225 -0.089219846 0.031450443
-0.059408206 -0.037962954 0.076548025 0.09401026 0.062938444 0.06963313 0.083539404 0.012881742
0.04976375 -0.03022919 -0.07158482 -0.085301034 -0.031818796 -0.037954137 -0.123912886 0.036853958
-0.10863267 -0.107925236 -0.05008667 -0.12653325 0.103284225 0.01572302 -0.011026408 0.0891797
0.0010228666 0.005187631 -0.012385429 -0.04077511 -0.1016361 -0.18879691 0.13092117 0.11274434
-0.21242352 0.05365527 -0.09363553 -0.22184451 0.13092083 -0.0025044614 -0.055655036 0.015669528
0.067344606 -0.14131257 -0.087395206 -0.050113842 -0.14538965 -0.13458872 -0.09993285 -0.008039268
-0.0070202113 0.04842845 0.026959147 0.05606074 0.037855413 0.048223104 -0.010409435 -0.032550804
0.021692252 0.1393047 0.020361383 0.019602114 0.16095184 0.11936758 0.0013696154 0.21229832
0.044568792 -0.06333093 0.0813264 0.07485213 -0.2294579 0.07122956 -0.011258931 -0.03516221
0.19923681 0.20215435 -0.05040855 -0.0065161665 -0.06322592 -0.17964229 -0.17004223 -0.08169266
-0.10871182 -0.1756576 -0.040689174 0.01459239 -0.100785896 -0.16118658 0.1628178 -0.11854712
-0.14017195 0.3230915 0.11288603 0.13390936 0.20339783 0.05696573 0.061008766 0.14197634

bn4.weight f4 [16]
00000000: b5fe 963f 950e b93f fd53 af3f ef6f b43f
00000010: e57c a93f 4452 c93f f457 b23f 4c6c 9b3f
00000020: 9f55 a43f 3e10 ae3f 1b8f cd3f fd37 a03f
00000030: a406 bc3f 07ae a83f ba5f d93f 6221 cd3f
1.179648 1.4457575 1.3697506 1.409666 1.324124 1.572823 1.3933091 1.2142425
1.283863 1.3598707 1.6059297 1.2517086 1.4689527 1.3178109 1.6982338 1.6025813

bn4.bias f4 [16]
00000000: 0480 243d 07bd 933e 98b5 2b3e 575e b9bd
00000010: dbe1 5c3e 115d de3e e466 cf3e 71ca eb3b
00000020: b1fc 0f3e 8d54 503e 8f59 523e 0d15 f43e
00000030: 7c2d 353e 8512 babc 3501 f53e ceb5 b63e
0.040161148 0.28855154 0.16768491 -0.09051197 0.21570532 0.4343038 0.40508187 0.0071957638
0.14061238 0.20344754 0.20541976 0.4767231 0.17693132 -0.022713909 0.47852483 0.3568558

bn4.running_mean f4 [16]
00000000: 566d 1bc0 d3c0 b83e 2b08 3abf a27d 83be
00000010: d888 763f 7e7e c93f 2cfe 81bf 0153 6ec0
00000020: f7aa 0f40 0a98 72bf 73c7 4fbf 9d01 3740
00000030: aaa1 25c0 b0cd 00c0 29a4 5440 370e 5abd
-2.4285483 0.36084613 -0.72668713 -0.25681788 0.96302557 1.5741727 -1.0155692 -3.7238162
2.2448099 -0.94763243 -0.8116371 2.8594735 -2.5879922 -2.0125542 3.3225195 -0.053236213

bn4.running_var f4 [16]
00000000: 41b3 3445 3c85 1444 f49e 5944 f2d5 1445
00000010: bd10 2545 bd0e 5344 e723 3945 3df5 6f45
00000020: 1bf3 6745 421b b944 5580 5b44 6742 1245
00000030: d5b5 7f44 d08b 0645 5d0d 0e44 09b6 f944
2891.2034 594.0818 870.48364 2381.3716 2641.0461 844.2303 2962.244 3839.3274
3711.194 1480.8518 878.0052 2340.1501 1022.8411 2152.7383 568.2088 1997.6886

fc1.weight f4 [64, 16]
00000000: 286c 5a3e a233 9dbe 56a2 983d 5e99 a4be
00000010: d00d 0abe 28d3 abbc 32ca febd 0794 19be
00000020: 2152 e33e eb7f f93d 7dc6 50be 4311 833e
00000030: 7138 cebe 0fcb a33c 0ca4 39be 3ee6 cbbe
00000040: 8e52 28be 9a17 1b3d fa9e b4be 2263 423e
00000050: effd 043a 4f32 073e 29b4 a5be 0045 0f3d
00000060: cfce fabe fe25 4ebe a946 e2bd 5494 093e
00000070: 8689 64be 9e7d 4f3e b50d cd3d 80e1 40be
00000080: a624 70bd df25 adbd 0e11 42bc 318c f5bd
00000090: e474 cd3e 0419 493e 1192 273e beab e53c
000000a0: 6688 d5be 7a66 af3e 6b64 5ebd 1938 783d
000000b0: fb9e 473e ab7a 0e3e 34d6 aebd 5e2d d1be
000000c0: 2a3f c83e e6f0 bfbe 5b85 313e 2be7 273e
000000d0: b403 48bd 9d69 073e 65d1 86be b1fd e6bd
000000e0: d312 73be 18b8 763e 2909 723e 8df0 bb3e
000000f0: 3baf 123e 44b7 b13d 6532 573d ea83 943d
00000100: 770f 5ebd 7601 2bbe 2442 793e d78a e33e
00000110: 7214 763e 9d17 a43d 0ed0 2cbe 4cba 2dbe
00000120: 54e5 23be 2144 233d 39bb b23e 1f1a 583e
00000130: 484f ca3e d631 21bd 1069 6d3e aefb 49bc
00000140: 77df c2bd fc75 1cbe 38d5 ff3d 2d15 1a3e
00000150: 4456 04be 15f7 d63e 0ac8 a03e d294 8f3e
00000160: 1352 96bd ec5f d33d 3838 7cbd 6a7d 1a3e
00000170: a669 793d f34a bc3e 753f a93c 622a 863e
00000180: 0596 823b 7e98 a53e b48a c5be f422 d43e
00000190: a5c5 3cbe 5236 1b3d 530b 813c b7c5 a53e
000001a0: f44f 17bf 8ed3 4a3e 3fe7 493e 0d88 15be
000001b0: d918 273e 7c3a e43e 3d47 adbd a64b 5c3e
000001c0: fda2 913e fdd9 973c cbf3 57be b8c2 1f3e
000001d0: dfeb 5bbe c018 50bd 909c b93d 2a39 c2bd
000001e0: 418c 8ebe 3959 6abe 5e44 8dbd 9865 be3e
000001f0: b92a e93d f459 fc3e a0ab 3cbe 7678 923c
00000200: c0c0 593e dc67 da3d f38b 38be 376c 6e3e
00000210: fa04 07be 11dd 59be 982f 573c 49e9 4fbe
00000220: 8c50 05bd 0c44 cd3e 7824 33be 9219 1fbd
00000230: a70d 8c3e 1e5a babe 3856 83be 6c38 0c3b
00000240: f8e1 8a3e 6107 c7bb 6861 41be 105d 86be
00000250: 3ff5 fbbd 12b3 4ebe 3361 d1be 6138 0f3e
00000260: d1de 95be fa99 eebd af40 dabd 5dc6 0a3e
00000270: 1165 7abd 799f febe c5ee eabc 67ee a8be
00000280: c66a 443e 91c3 a83e 8d73 58be 9c16 b9be
00000290: 7cef b63d 07ef 4bbe 2085 9b3e a4ab 13be
000002a0: ec0d 0c3d 2f67 bc3d 3bd5 933e d423 a7be
000002b0: 32ca 88bd 55fc bfbd dd9c 313d 24e6 02be
000002c0: 3ef6 213e 890e ba3d 045f 8abb 84cb 813b
000002d0: 9137 cabc a223 0a3e 72b5 42be a4f0 65be
000002e0: c25b 2d3e 56d2 723e a762 cc3e 2c22 8f3e
000002f0: 195d c1bd 8b00 babe 9aaf 07bd 5849 3f3d
00000300: 108a 113f 2ebe 02be bb41 b33d 4ef6 ae3e
00000310: 02fb 9fbd e511 c4bc b443 45be a93a 173f
00000320: 197a 95be bf73 3a3d da10 5dbd f945 dbba
00000330: a0a6 18be 4649 a63e 74e9 cb3d b997 713d
00000340: f4d9 84be ec6b 5ebe 8796 efbd 5c9c 943e
00000350: cfb2 a23c 3c2f 2bbe 1755 aabe 527c 91be
00000360: 02fe c8bd e165 babe 9af7 2abe 0872 1d3e
00000370: 9931 913e 8f91 8fbe d67a 533e 877d d83d
00000380: cd81 243e 4237 c8be 479f b73d cb91 bcbe
00000390: b91e c6bb ad13 24be f291 73bc c9d6 9abe
000003a0: 111c d5bd fc6e c7bd 7295 21be 818d 033c
000003b0: 30f5 94be b7fb c43d dc1f 2b3e 11a7 93be
000003c0: 1e72 cfbd 9b75 fcbc b7cd 56bd 9925 6dbd
000003d0: 6571 bd3c 60d4 993d ab7d 5b3e 4274 3a3e
000003e0: 327e 923e d374 7ebd c606 423e f95d 0f3e
000003f0: 0b01 0ebe 20b9 593e 7994 9d3e 64b5 043e
0.21330321 -0.30703455 0.07452838 -0.3214826 -0.13481832 -0.02097471 -0.124409094 -0.14997874
0.44398597 0.121826015 -0.20388217 0.25599107 -0.40277436 0.019994287 -0.18128985 -0.39824098
-0.16437742 0.037864305 -0.3527754 0.18983129 0.00050732394 0.13202785 -0.32364014 0.034977913
-0.48985907 -0.2013168 -0.110486336 0.13435489 -0.22318086 0.20262763 0.1001238 -0.18836021
-0.0586287 -0.08454489 -0.0118448865 -0.1198963 0.40128243 0.19638449 0.16364314 0.028035995
-0.41705626 0.3425787 -0.054294985 0.060600374 0.1949424 0.13913982 -0.0853695 -0.40854925
0.3911069 -0.37488478 0.17336027 0.16396777 -0.048831657 0.13223882 -0.2633163 -0.112788565
-0.2373765 0.24093664 0.23636307 0.36706963 0.14324658 0.08677533 0.052538294 0.07251723
-0.054213967 -0.16699776 0.24341637 0.44441864 0.24031237 0.080123164 -0.16876242 -0.16965598
-0.1600545 0.039859895 0.34908465 0.21103714 0.39513612 -0.039354168 0.2318461 -0.0123280715
-0.09515279 -0.15279382 0.1249184 0.1504714 -0.12923533 0.41985384 0.31402618 0.28043228
-0.07339873 0.1032103 -0.061577052 0.15086904 0.06089177 0.36775932 0.020660141 0.2620421
0.003985169 0.32342905 -0.38582385 0.41432917 -0.1843477 0.0378936 0.01575247 0.32377407
-0.59106374 0.19807264 0.1971712 -0.1460268 0.16318072 0.4457587 -0.08460853 0.21513233
0.28444663 0.018536562 -0.21089093 0.15601623 -0.21476696 -0.050804853 0.09063065 -0.094835594
-0.2784138 -0.22885598 -0.06897806 0.37186885 0.11385102 0.4928738 -0.18424845 0.017879706
0.21264935 0.10664341 -0.18022136 0.23283468 -0.13185492 -0.21275736 0.013133906 -0.20303835
-0.03254752 0.40090978 -0.1749438 -0.038842745 0.27354166 -0.3639688 -0.25651717 0.0021395935
0.27125525 -0.0060738777 -0.18884814 -0.26242876 -0.12302636 -0.20185497 -0.4089447 0.1398635
-0.29271558 -0.116504624 -0.10656869 0.13552232 -0.06113154 -0.49731043 -0.028678307 -0.32994387
0.19181356 0.32961705 -0.21137829 -0.36150062 0.08932397 -0.199154 0.30375004 -0.14420944
0.034192964 0.09199368 0.2887362 -0.32644522 -0.06679191 -0.093743004 0.043362487 -0.12783104
0.1581659 0.090848036 -0.0042227525 0.0039610285 -0.0246847 0.13490155 -0.19014528 -0.22455078
0.16929534 0.2371305 0.39919016 0.2795576 -0.09441585 -0.3632854 -0.03312645 0.046700805
0.5685129 -0.1276786 0.087527715 0.3417229 -0.07811548 -0.023934314 -0.19264108 0.59073883
-0.29194716 0.04552054 -0.05397115 -0.0016729228 -0.14907312 0.32477778 0.09956637 0.058982585
-0.25947535 -0.21720856 -0.11698633 0.29025543 0.019860653 -0.16717237 -0.33268043 -0.2841516
-0.09814073 -0.36405852 -0.16696015 0.1537553 0.28358153 -0.2804074 0.20652327 0.105708174
0.1606514 -0.39104658 0.089659266 -0.3682998 -0.006046143 -0.1602313 -0.014866339 -0.30241993
-0.10405744 -0.097379655 -0.15779665 0.008029343 -0.29093313 0.09618323 0.16711372 -0.288384
-0.10129188 -0.030817797 -0.05244228 -0.057897184 0.02312536 0.075112104 0.21434657 0.18208411
0.28611904 -0.06212313 0.18947896 0.14000691 -0.13867585 0.21262026 0.30777338 0.1295982

fc1.bias f4 [64]
00000000: 8fa5 45bd fb6d c4bd ffcb e83d 7136 0fbe
00000010: 8f6a 25be 7dc7 923e cce0 1bbf b29b f4be
00000020: b26e 563e bad5 00be 281e 113e 87a4 ea3e
00000030: 1f47 2f3e 2e68 1cbc c33b f7be 1bd8 6c3e
00000040: 09c4 bb3e 613e bd3c 615d a73d e7a6 073d
00000050: 262d 153e 5cdb f43d 6962 8d3e 8527 4a3d
00000060: fede d83c 2f0a bebe 767c 683e 2e6d b6be
00000070: b05a 03be 1d29 8ebd 2e00 793e 900a 3dbe
00000080: 2a92 9fbd b0e6 b63c 8e49 b03a beb3 6dbd
00000090: b7d8 8bbd 259f 10be db73 063e 3965 9ebe
000000a0: aa2b d23d 3198 d53d bc9c 85bc 491a b33d
000000b0: 3525 993e 3890 90bd 6c67 f1be d2a4 483d
000000c0: c640 3ebe aafe aa3d 9dda 3fbc 5c85 af3c
000000d0: 5070 c1bd cb82 033d c07d 9a3c 3f94 3d3e
000000e0: b49e 81be 4412 f73e 3743 8fbe a9df 0fbe
000000f0: 2cde 1bbe 2c8e a73d 1ac4 f6bc d410 b93d
-0.048253592 -0.095912896 0.11367034 -0.13985611 -0.1615393 0.28667822 -0.6088989 -0.47775036
0.20940664 -0.1258153 0.1417166 0.4582865 0.17116974 -0.009546323 -0.48287782 0.23129313
0.36673 0.023101034 0.081721075 0.033118155 0.14568004 0.11955902 0.27614143 0.049354095
0.026473518 -0.37117144 0.22703728 -0.35630172 -0.12827563 -0.069414355 0.24316475 -0.1846106
-0.077915505 0.022326797 0.0013449655 -0.058032744 -0.068284445 -0.14123209 0.13130133 -0.30936602
0.102622345 0.10429419 -0.016310088 0.08745248 0.299112 -0.070587575 -0.47149217 0.04898531
-0.18579397 0.083493546 -0.011709836 0.021425895 -0.0944525 0.032107156 0.01885879 0.18513583
-0.25316393 0.48256123 -0.27980968 -0.14050163 -0.1522147 0.08181414 -0.030122805 0.09036413
