Project/Software/project_Mobilenet_q/N26122246_fashion_mnist.onnx (onnx, 301325 bytes, 73 tensors)

conv1.weight f4 [8, 1, 3, 3]
00000000: 4ee2 363e c3c7 353e a6db 813e 8d3c 2a3e
00000010: 814c 853d 0eed 69be b5a3 98be 951d 5bbe
00000020: 7278 713e 6643 d03d 0094 903d 3b7a 7bbe
00000030: 3321 8cbd d52c 62be 0ee3 503e a098 1dbd
00000040: 3dc8 85be fa8f adbd 9b48 5d3e 9471 643d
00000050: 58c8 9a3e 3c7a 91be 25ee e3bd 4f6a 16be
00000060: 7176 9b3e 4f2b 1abe 9d91 39be b056 81be
00000070: 52a3 f1bd 7ad5 e9bd 99ba bc3d 2615 1d3e
00000080: 8be2 58be 73bd e1bd b945 97bd 7df1 613e
00000090: 54da a13e 3197 6bbe 3ea4 a23d 92ac 423e
000000a0: 57f2 2a3e b292 8ebe ceee 043d 1a95 9b3e
000000b0: 8bec 33be 0d90 36bd d0e8 243d 537f 07be
000000c0: 0f3f 8b3e 6da0 bbbe 8774 67be 4ea4 43be
000000d0: 6da5 253e 1d3d 35bc a956 343e b935 8cbe
000000e0: 7760 97be 2fd6 a4bd 1243 fa3c c8d4 abbc
000000f0: ac46 453e 4692 2c3d ea02 74bb 43db 703e
00000100: f2a6 cb3d a069 1abe e3b9 943e c894 8c3e
00000110: 5448 333d 769b a3bd 99f4 a4be 931d 1fbc
0.17859766 0.17751984 0.2536289 0.16624661 0.065087326 -0.22844335 -0.298124 -0.21398003
0.23581102 0.10169105 0.07059479 -0.24558346 -0.0684227 -0.22087415 0.20399114 -0.038475633
-0.26129332 -0.08474727 0.21609728 0.05577238 0.30230975 -0.2841357 -0.11129407 -0.14688991
0.303638 -0.15055583 -0.18121953 -0.2526145 -0.11798729 -0.114176705 0.09215278 0.15340099
-0.2118017 -0.11022463 -0.073863454 0.22064777 0.31611884 -0.23006894 0.07941483 0.19011143
0.16694008 -0.27846295 0.032454304 0.30387193 -0.17570703 -0.04457097 0.04026109 -0.13232164
0.27196547 -0.36645833 -0.22603045 -0.19105646 0.16176386 -0.011061934 0.17611183 -0.27384737
-0.29565784 -0.08048665 0.03054956 -0.020975485 0.1926524 0.042131685 -0.0037233182 0.23521142
0.09943952 -0.15079355 0.2904807 0.2745726 0.04377015 -0.07988636 -0.32217863 -0.009711641

block1.se1.fc.0.weight f4 [8, 8]
00000000: 7dbc 92be 7a58 edbd dd2a 8ebd 4b22 bb3e
00000010: 5749 00bf 96e9 8dbe ca7d 5cbe ae02 1ebe
00000020: c6e3 d43e 532b 10be 2721 273e 5d5f 9f3e
00000030: 963c 583d 0170 babd 4265 25be 6575 1ebe
00000040: 901f 72be c01c 833c e9ca 89be f37f e43e
00000050: d071 d4bd 7cdd 12be 56a3 b13d 3b88 943e
00000060: d293 c13e e3fd c53e e5ad 093c 0e4d 65be
00000070: fbf2 b03e f724 6b3e 588c 3f3d f0d3 a13e
00000080: 17fd 7fbe a930 2bbd 284c 9a3d 319c 953e
00000090: 87d1 e8bc f816 6dbe 7c32 9fbe f25f 9f3e
000000a0: 0e9b 0dbe 0019 273c 00e9 a8bd b895 063e
000000b0: 8868 c8bd 28bc 93bd a5d1 18be 6106 5cbe
000000c0: e84b a63d 0fcd 663e 48d6 61be aebd 6cbe
000000d0: 0782 f83e dc35 af3e f17b 3f3e 750c 5b3e
000000e0: b709 1fbe d00c 263d c455 843e b611 e6bd
000000f0: b970 f9be 3bda adbe 34b1 293e cc5d 613e
-0.2865943 -0.11589141 -0.06941769 0.365496 -0.5011191 -0.27717274 -0.2153236 -0.1543071
0.41580027 -0.14079027 0.1632124 0.31127444 0.052792154 -0.09103394 -0.16151908 -0.1547447
-0.23644853 0.01600492 -0.2691262 0.44628868 -0.103732705 -0.14342302 0.08673732 0.29010186
0.3780809 0.38670263 0.008403276 -0.22392675 0.3456038 0.2296332 0.0467647 0.31607008
-0.2499889 -0.041794453 0.07534057 0.29220727 -0.028420223 -0.23153293 -0.31093204 0.31127888
-0.1382868 0.010198832 -0.08247566 0.1314305 -0.09785563 -0.07213622 -0.14923723 -0.21486808
0.08119947 0.22539161 -0.22054398 -0.23119232 0.48536703 0.3422078 0.18699624 0.2139147
-0.1553105 0.040539563 0.25846684 -0.11233847 -0.48718813 -0.3395556 0.16571504 0.22008437

block1.se1.fc.0.bias f4 [8]
00000000: 2987 183e 90ec d23c 73bc 24bd 86dc b03e
00000010: fdf4 df3e 3112 90be d949 3c3e ca27 ff3d
0.1489531 0.025747567 -0.04021878 0.34543246 0.437416 -0.2813888 0.18387546 0.12458761

block1.se1.fc.2.weight f4 [8, 8]
00000000: 47f8 09bd a99d 18be 1cad ecbd bd32 dbbc
00000010: 7b7b 78be 2e3e 3e3e a981 91be 6b43 1a3e
00000020: bea7 813e 39b5 30be 224e 0b3d 7306 51bd
00000030: 6113 be3e 8222 a8be 4c8c e4be d0a8 cb3d
00000040: d97f 6e3e f359 703e 7042 a23d edf8 9dbe
00000050: a03b 25be 2ff1 933e b257 9ebe 2a19 963e
00000060: 2920 9a3e 50a6 88be c959 16be f25e 9bbd
00000070: 6a2c c63e 1872 0bbd 6a4a c1bd 3f79 333e
00000080: 3d3c eebe 1cdb 893c 1c78 0ebe 9a88 fc3d
00000090: 6e3b 04bf 512f 8dbe 798c 1ebe 6765 1f3e
000000a0: f356 09bd 6a53 a43d 0744 043f f559 9a3e
000000b0: 4a44 753d 00f0 bdb8 210b 15be 1c50 833d
000000c0: 0e0a 483e 1274 c3be 2ad4 803e fa25 74be
000000d0: d6a8 3fbd 59ce a93e b87a 24be 29f1 113e
000000e0: 2316 3abe 00ee d9be c78c 18bd 2290 b0be
000000f0: d40d 733e 8d41 09be 0ac8 ee3d 7abd 14be
-0.03368404 -0.14903893 -0.115564555 -0.026757592 -0.24265854 0.18578407 -0.28419235 0.1506478
0.2532329 -0.17256631 0.03401006 -0.05103154 0.3712416 -0.32838827 -0.44638288 0.09944308
0.23290958 0.23471813 0.07922828 -0.30853978 -0.16136026 0.28894946 -0.3092628 0.29316074
0.3010266 -0.26689386 -0.14682688 -0.07586469 0.3870576 -0.034044355 -0.094380215 0.1752672
-0.46530333 0.016828112 -0.13913006 0.12330742 -0.5165318 -0.27575162 -0.15483274 0.15566026
-0.033530187 0.080237225 0.516663 0.30146757 0.05987958 -9.056926e-05 -0.14555027 0.06411764
0.19535086 -0.38174492 0.25161868 -0.23842612 -0.046791874 0.33165243 -0.16062438 0.14252152
-0.18172507 -0.42564392 -0.03724363 -0.34484965 0.23735744 -0.13403912 0.11659248 -0.14525405

block1.se1.fc.2.bias f4 [8]
00000000: 7362 fabd 7af1 203e 18a9 c3bd 68b2 2cbe
00000010: 3398 28be d3b0 5abe 8102 90be 0d61 91bd
-0.12225809 0.15717116 -0.095537364 -0.16864932 -0.1646431 -0.21356516 -0.2812691 -0.07098589

block2.se1.fc.0.weight f4 [16, 48]
00000000: aa22 98bd f40f 263d 741e 63be 4a42 573e
00000010: 1824 bf3b 3e6e e1bd 28a9 56bc 5b10 023e
00000020: 5c66 133e ef6b 0b3e 5735 05bd 884f a33d
00000030: bae5 1d3e 1445 073c 2a90 8c3c 0779 86bd
00000040: cd2a 5a3d 302f 9c3d a3b8 3e3d 8666 943c
00000050: e601 b33d 23d6 693d d886 a03d d334 4d3e
00000060: dd41 943c a050 d0bd 275d 1ebd 2c7c e53d
00000070: b5ae 1fbd 8eb1 0a3e 5809 d33d 2e34 1abe
00000080: bd2a 13bd 1302 10be c231 003d 1ce1 833b
00000090: 3ffd 1e3d 4ea3 9bbd 5972 cc3d b434 ecbd
000000a0: fb49 a53d a4d8 70be 468d 3fbd 9da0 c7bd
000000b0: ff72 ecbd f37c 0dbe c397 a2bc 42b1 31bd
000000c0: 9758 893c a713 34bd 8262 663d 1ae0 9c3d
000000d0: 6880 a9bd da84 683c f0f0 203c 870a 973c
000000e0: 3e23 ba3d 81cb ca3c a22e c93d 312f c53d
000000f0: f09f 99bd a69c 573e 6534 da3d d43c a43d
00000100: 27f1 e2bd 3a5f e9bb 766a 08bd 9a94 abbc
00000110: f8eb 09be 99e1 523d fa0e 5dbd 4534 db3c
00000120: 6f84 123e fc3b 043e bb17 513d 3952 a1bd
00000130: 0c37 913d efbd d0bd 69b0 983d be30 953d
00000140: 1ad6 08be ef4c 533e d3c5 b6bd 0c13 a13c
00000150: 44bb a43d 8baf 903e 5040 acbd 0b31 a0bc
00000160: 7490 933d eaaf 8cbd a72b 513d d9d8 5a3d
00000170: d257 243e f6da 953d eb8d 593e 3267 85bd
00000180: 4a9a d03c f0ac 583d e9f0 e8ba 16fe f7bd
00000190: b12e 253e 9e85 783c 11b4 2b3d 8c43 91bd
000001a0: 3e08 31bd e3c7 aa3d 0ec3 5b3d 1713 ddbc
000001b0: d2d1 123e e6d0 c7bd 368c ebbd ebe9 523d
000001c0: 63d7 053e fbe4 133e e2ba 013e 79e6 d43d
000001d0: 2dce df3b 810b e03c ba51 013e 8e05 c53d
000001e0: 77bd aa3d 8d02 4d3b 1ae1 04bc 63da 993d
000001f0: e7f4 d23b b681 093e 98a4 023e 08f4 da3d
00000200: fd9f 273e 52eb b6bc b5fa 18bd d304 19be
00000210: ce04 593d 928d 973b 0f1e bfbd 421f 033e
00000220: fda2 c23c a881 953e 7585 1d3e ec75 fcbd
00000230: 1343 663d a30b e4bd b2eb 1fbd 57e9 163d
00000240: 9257 843d 5a02 15bd 917b 383e 1a61 c83e
00000250: 8db6 fdbd f755 57bd b294 e5bd c793 74bd
00000260: e1dd 6a3d 4d79 13be 674f 5ebd 2fbb cabd
00000270: 20e2 e9bc 4fa8 22be 0575 2a3e 4685 bb3d
00000280: 5d40 423e 7b9f 233e 23cc f0bd 8aca 25bd
00000290: 1584 babd edb5 883d 5a8f 6abd b85f 383c
000002a0: 1890 243e 6008 80bd dc9b 73bd 7171 bdbd
000002b0: ddbe eb3d 50fa 85bc 5b3c 9fbc 29f5 6abc
000002c0: 51fd 27bd c2b4 0e3e be74 a93d 552d 62bd
000002d0: 103a 223e d977 4fbd 1eb3 5bbd 95f6 293e
000002e0: 206d 893d 8726 07bd 90c6 f6bd 2538 273d
000002f0: 6104 1f3e 70cd 9f3d f510 b33d 637b 01be
00000300: 4cc3 d3bd 4dba fabb 5e80 933e e439 bd3e
00000310: d0cd bebd e03d 143d 0a9e 56be 38da f43c
00000320: 19d7 6b3d af0a 603e a24c f43d 2d1d 7a3e
00000330: 88d9 12be 2340 dfbd b459 df3d 97ea 253e
00000340: ecfb 97bd 7b5f 9abd 395b 09bd 51b2 06be
00000350: 731b 2a3e 3266 3ebd 6bf1 66bd 5850 bf3d
00000360: d99e 2dbd f3d9 40be ab44 a0be 416d 9dbd
00000370: 01cb cd3d 4388 d23d c76f 633d b662 623e
00000380: a1ca bd3c 9681 423c 1d27 453e 1278 d63d
00000390: ac38 2b3e 6de9 6bbd 8759 49bd 1f45 493e
000003a0: c98f 1d3e 56bc 3abd 3895 8fbe c1ce 623e
000003b0: 05e7 52bd 23b2 f33b 6b53 13bd 6110 54be
000003c0: 5d7d 0dbe e9a8 20bd 4af7 ee3d b134 563d
000003d0: fec4 e2bd d5b7 4f3d 9e2b 90bd 30cb b3bc
000003e0: f623 933d 6934 043b b5ec 1fbe eb6a 05be
000003f0: fb8f e93d 08b7 acbc e5e4 e43d c627 61bd
-0.07428487 0.040542558 -0.22179586 0.21021381 0.00583316 -0.11007355 -0.013101853 0.12701552
0.14394516 0.13615392 -0.032521572 0.07974154 0.15419665 0.008256216 0.017158587 -0.06566053
0.053263474 0.07626188 0.046562802 0.018115293 0.087405965 0.057088982 0.078382194 0.20039682
0.018097812 -0.10171628 -0.038663056 0.112053245 -0.038984973 0.13544294 0.103045166 -0.15058967
-0.03592943 -0.14063291 0.031297453 0.004024638 0.038815733 -0.07599507 0.099827476 -0.1153349
0.08070751 -0.23520142 -0.04676559 -0.097474314 -0.11545371 -0.13817196 -0.019847756 -0.043381937
0.016765876 -0.043964054 0.056246288 0.076599315 -0.08276445 0.0141918305 0.009823069 0.018437637
0.09088753 0.024755241 0.09823348 0.09628142 -0.07501209 0.2105585 0.10654525 0.080194145
-0.110811524 -0.0071219476 -0.033304654 -0.020944882 -0.13468921 0.051484678 -0.05396936 0.026758322
0.14308332 0.12913507 0.05104802 -0.07877011 0.070905775 -0.10192477 0.074555226 0.072846875
-0.13362923 0.20634817 -0.08924451 0.019662403 0.080435306 0.2825893 -0.08410704 -0.019554636
0.072052866 -0.068694904 0.05106702 0.05342946 0.16049126 0.07317154 0.21245544 -0.065138236
0.025464196 0.0528993 -0.0017771992 -0.1210901 0.16131093 0.015168576 0.04191977 -0.07092962
-0.04322075 0.083389066 0.053652816 -0.026986642 0.14337853 -0.09756641 -0.115013525 0.051492613
0.13070445 0.14442818 0.12668946 0.10395522 0.006829998 0.027349235 0.12628832 0.096202
0.08336919 0.0031282038 -0.008110309 0.07512357 0.006437886 0.13428387 0.127581 0.106910765
0.16369624 -0.022329006 -0.037348468 -0.14943247 0.052983098 0.004625031 -0.09331905 0.12804893
0.02375936 0.29200482 0.15382941 -0.12327179 0.05621631 -0.11135032 -0.039043136 0.036843624
0.06462015 -0.036379196 0.18015887 0.39136583 -0.123883344 -0.052572217 -0.11210002 -0.059711244
0.057340506 -0.14401741 -0.054274943 -0.09898984 -0.028550208 -0.15884517 0.16646202 0.09156279
0.18969865 0.15978806 -0.11757686 -0.04047636 -0.09107224 0.066753246 -0.057265617 0.01125329
0.16070592 -0.062515974 -0.05947481 -0.09250153 0.11511014 -0.01635471 -0.01943796 -0.014340677
-0.041013066 0.13936141 0.0827422 -0.055219013 0.15842462 -0.050651405 -0.053637616 0.1659797
0.06710267 -0.032995727 -0.120495915 0.040825028 0.15529014 0.07802856 0.08743469 -0.12644725
-0.10339984 -0.0076516033 0.28808874 0.3695823 -0.09316599 0.03619182 -0.20958725 0.029889211
0.05757818 0.21879075 0.11928679 0.24425192 -0.14340794 -0.10900905 0.109057814 0.1620277
-0.07421097 -0.07537743 -0.033534262 -0.1315396 0.16612034 -0.04648418 -0.056382578 0.09341496
-0.042387817 -0.18833141 -0.3130239 -0.07686854 0.100484855 0.10279896 0.05552652 0.22107968
0.02316791 0.011871716 0.19253202 0.1047212 0.16720837 -0.05759566 -0.049157646 0.19655274
0.15386881 -0.045589767 -0.28043532 0.22149183 -0.05148985 0.007437007 -0.035968225 -0.20709373
-0.13817354 -0.039223585 0.116682604 0.052296344 -0.110727295 0.050712425 -0.07039569 -0.021947473
0.071845934 0.002017284 -0.1561764 -0.13029067 0.11404415 -0.02108337 0.11176471 -0.05496957

block2.se1.fc.0.bias f4 [16]
00000000: d159 963d 44f3 82bd 857c c2bd d557 91bb
00000010: 422c 713c 5908 a7bd ac90 f4bd 3fe6 383e
00000020: c4e1 163d 462b efbd 0c5d bbbd a367 c83c
00000030: 1182 61bc 8174 253e 4f98 02bc e0c6 063e
0.0734135 -0.063940555 -0.094964065 -0.004435519 0.014720025 -0.08155889 -0.119416565 0.18056582
0.0368364 -0.11678176 -0.09148607 0.02446348 -0.01376392 0.16157724 -0.0079708835 0.13161802

block2.se1.fc.2.weight f4 [48, 16]
00000000: cee6 183d 7205 4cbe 9599 54be 57d1 0dbe
00000010: 2ed9 5cbc 531d dabd 6251 6d3e 9d20 923e
00000020: 9eeb 723e 6e87 74be b00f a4bd 22e6 903d
00000030: 43fa 20be a517 763e 2be0 8c3d 7063 9d3d
00000040: a67c 73bd eaaa b2bb 9423 01bd f729 e4bd
00000050: 3cda 7cbd 0d82 f63a 98c4 82bd 3a64 d13d
00000060: 4d7e a2bc 202a cc3d f012 98be bfb5 2fbd
00000070: 9be9 423d 2870 9fbd 7da5 e8bd c056 243e
00000080: 0b31 23be ec05 92be c9eb d4bc 8e65 0a3e
00000090: 5ed1 20be cf13 b2bc d4ad e73d 05a1 4ebe
000000a0: b32e 04bd 3ece 8ebe b578 e2bc 07b4 0e3e
000000b0: 827e 96bd a549 89bd e5d6 863e b82d f0bd
000000c0: 4c78 6bbe 723c dcbc c9c5 07be e6ee 83be
000000d0: 6c2f 8dbe c22c 86bd 0879 ea3d 6f60 7e3d
000000e0: a3fd 11be 988c 973c 5c14 ae3d 0eb1 423e
000000f0: adcc fbbd 0c4a 3f3e 242a 7dbe b38d 16be
00000100: b996 223e b476 42bd c257 54be 1320 60be
00000110: 5876 a13d 93e8 5c3e 8012 3c3d e244 93bd
00000120: d1e2 9cbe 8487 633d ae44 81be 3b82 dcbd
00000130: 3890 e0bd d110 5e3d fbba dabc 9829 f33d
00000140: 7e20 323d 1277 88be eeda 6dbe 624c 13bd
00000150: 96f4 06be 68ad 243e 4040 aabb 2535 98be
00000160: ada6 0b3e a1e8 b7bd 679c 5dbd bde9 0c3d
00000170: 712f 40bd b060 483e 2635 09be f8d7 a23d
00000180: ed62 47be c593 093d ea96 db3c 3518 c7bd
00000190: 6ab6 6abe 0e93 a23d ea81 1dbe ad61 813c
000001a0: 78fb 453e 9f66 15be 98dd d1bd 5d45 0dbd
000001b0: 82d5 f43d 9596 08be adc7 c33e fb5f 93bd
000001c0: 5d23 103d 1018 27bd 3a6b 2c3c 1418 453d
000001d0: ca63 b93e 39f0 ab3d 5af7 583e f3b3 cb3b
000001e0: f5f7 1c3e 4a87 f4bc ad0d e4bd 3efa 7a3e
000001f0: 5735 e6bd 37b5 2e3e 2156 423e e5e5 0abb
00000200: f208 76be ec65 7dbe 4008 983e 36f8 c03c
00000210: e810 5fbd b2ff 7d3d ac54 d7bd a136 7bbd
00000220: 8e5c 5bbc 196b 08be 865b 0dbe 723c 363d
00000230: 364b 09be 574a 99be e8e8 03be ba44 803c
00000240: 7c7a 9abe 4fce 87bd 94b7 3fbe d2d7 8cbc
00000250: 465a b9be 5b9a 773d 784d 1e3d 6f66 f4bd
00000260: 9775 7dbe bf5b 0bbe 15c1 3ebb c93c abbe
00000270: 7539 30bc 01a0 3cbe b116 fa3d 5315 bdbe
00000280: 770f 7c3d 1744 193d d190 60be 7d40 4e3e
00000290: 179c 643d d241 bf3d e047 e2bc 9a92 8bbd
000002a0: 8a4c bdbe 9da2 fd3d 46c6 f63d b2d7 a5bd
000002b0: 49c4 373e f4b5 de3b 513d 543d 445b 92bd
000002c0: 8394 7f3d ec8f 343e 7428 2f3e 3853 d53d
000002d0: 1652 9dbb 5b3f 00be 3455 3abe 86d7 103e
000002e0: bc47 813e eb12 343e bd2e 40bc c099 c7be
000002f0: cb83 71be 5e4d 38be 6d94 6c3e b841 643e
00000300: 6020 0a3e 4a66 68be 51e0 20be 4079 92bd
00000310: 656d 943b fe23 86bb 44fa 313e 6f50 72be
00000320: 7939 21be f7dd bd3e 26d2 8f3d f284 a6be
00000330: f056 523e 93a6 533e a5ee 753e 881d 473e
00000340: 4260 553e 6072 49bd 1762 c3b9 b741 613e
00000350: bf3a 663d 6512 3abd 60c4 6e3d 8797 2e3e
00000360: 313e 043e 1cdd c5bc 5080 023d 67bb 7b3c
00000370: 8830 923d c131 173e 6f15 643e 4492 a23e
00000380: dd07 da3c bce9 f73d aa67 36be aab7 243e
00000390: 967f 5d3d b486 21be b015 72be cdc3 dd3d
000003a0: f4f3 3ebe d624 d63e 5ca6 b6bc 5829 53be
000003b0: aaf9 ab3c 0b49 a5be d651 a83d 3e63 d2bd
000003c0: 51d1 d9bd 37b5 703e d73e d83d 98db 4a3d
000003d0: d4c9 3e3e 7e6b 263c 6c37 313e 995c 23bd
000003e0: 3827 74be a927 6f3e 5aba 06be 92e9 21be
000003f0: 6a01 293e 1323 5abe 6552 4b3d e0c5 f73c
0.037329488 -0.19923952 -0.20761712 -0.13849388 -0.013479514 -0.106501244 0.23175576 0.28540507
0.23722693 -0.23879787 -0.08010805 0.07075144 -0.15720467 0.24032457 0.06878694 0.07684982
-0.059445046 -0.0054525035 -0.03152807 -0.11140817 -0.061731562 0.0018807069 -0.063851535 0.10224195
-0.019835616 0.09968972 -0.29701948 -0.042897936 0.047586065 -0.07785064 -0.113596894 0.16048717
-0.15936677 -0.28520143 -0.025991337 0.13515303 -0.15704867 -0.021737961 0.11312452 -0.20178612
-0.0322711 -0.27891725 -0.027645448 0.13935862 -0.07348348 -0.067035 0.26335827 -0.1172747
-0.22995108 -0.026884291 -0.13259043 -0.25768203 -0.27575243 -0.065515056 0.11448866 0.062103685
-0.14256911 0.018499658 0.08499977 0.19012854 -0.12294898 0.1868059 -0.24723107 -0.14702491
0.15877809 -0.047476485 -0.20736602 -0.21887235 0.078839004 0.21573095 0.04591608 -0.07190873
-0.30641797 0.05554916 -0.2524771 -0.10767027 -0.109650075 0.054215256 -0.026700487 0.11873168
0.04348802 -0.26653343 -0.23228046 -0.035961516 -0.1317924 0.16081774 -0.0051956475 -0.29728046
0.136378 -0.08979917 -0.054104235 0.034402598 -0.046920244 0.19568133 -0.13399181 0.07951349
-0.19471331 0.03358819 0.02680536 -0.09721414 -0.22921148 0.07938205 -0.1538159 0.015793646
0.19334209 -0.14589928 -0.10247344 -0.034489978 0.11954786 -0.13338692 0.38238278 -0.07196041
0.035189975 -0.040794432 0.010523612 0.048118666 0.36208946 0.08395428 0.21188107 0.00621652
0.15328963 -0.029849667 -0.11135421 0.24509522 -0.112406425 0.17061315 0.18978168 -0.0021194157
-0.2402685 -0.24745911 0.29693794 0.023555856 -0.054459482 0.06201143 -0.10514197 -0.061331395
-0.013388766 -0.13322105 -0.13804445 0.04449124 -0.13407597 -0.2993953 -0.12881815 0.015657771
-0.30171573 -0.06631147 -0.18722373 -0.017192755 -0.36201686 0.06044994 0.0386481 -0.119336
-0.24751888 -0.13609217 -0.0029106785 -0.33444813 -0.010755886 -0.18420412 0.12211359 -0.36930332
0.061538186 0.03741845 -0.21930243 0.20141788 0.05581292 0.09338726 -0.027622163 -0.068150714
-0.36972457 0.12384532 0.120495364 -0.08097781 0.1794597 0.006796593 0.05181629 -0.07146314
0.06239749 0.17633027 0.17105275 0.10416263 -0.004801045 -0.12524168 -0.18196565 0.14144716
0.2525004 0.17585342 -0.011729893 -0.3898449 -0.23585431 -0.17998263 0.23103495 0.22290695
0.13488913 -0.2269527 -0.1571057 -0.07152033 0.0045296424 -0.004093646 0.17380625 -0.23663495
-0.1574458 0.37083408 0.070225045 -0.32523304 0.20540977 0.20669012 0.24016817 0.19444859
0.208375 -0.049181342 -0.0003726638 0.21997724 0.05620837 -0.0454277 0.058292747 0.1704999
0.12914349 -0.024153285 0.03186065 0.015364504 0.07138163 0.14765073 0.22273801 0.31752217
0.026615078 0.12105128 -0.17812982 0.16085687 0.054076754 -0.15774041 -0.23641086 0.10828362
-0.18647748 0.4182498 -0.022296123 -0.2062124 0.020993073 -0.3228229 0.08218734 -0.10272835
-0.10635627 0.23506628 0.10558861 0.049525827 0.18631679 0.010157464 0.17306298 -0.03988323
-0.23843086 0.23354973 -0.13157025 -0.15811756 0.16504446 -0.21302442 0.049639124 0.030245721

block2.se1.fc.2.bias f4 [48]
00000000: ec87 7e3e 52c4 3a3c d1f8 77be c810 773e
00000010: dbb3 1dbe fb59 91bc a46d e339 cad1 48be
00000020: ba5a dcbd 8b89 08be b807 163e 4feb 3f3e
00000030: 9d90 393e 21c8 febc df9a 4dbe 0936 ae3d
00000040: 22a8 6b3e a7a3 8e3d a1b9 c93c f349 413e
00000050: 94ea b2be 3aa7 2fbe e7ae 0a3d 7612 e4bc
00000060: f8b1 cd3d c7fa 983d b5bf 223e 9d20 78be
00000070: 9192 7fbd 2bd2 e0bd 465c e3bb c3bc 103e
00000080: a0a0 3d3e dad4 cfbd c41b d63d 90eb aebd
00000090: 3521 85bd 556e 043e 83d4 8d3e fb91 ea3c
000000a0: 029a 2f3e c99c 423e 6895 8cbe 8f5d 9e3e
000000b0: ac19 3e3d 10f0 81bd dddf da3d 11b5 3c3e
0.24856538 0.0113993455 -0.2421601 0.24127495 -0.1540064 -0.017743101 0.00043378503 -0.19611278
-0.10759492 -0.13333718 0.14651382 0.18742107 0.18121572 -0.031101288 -0.2007861 0.085064
0.23013356 0.06964808 0.024624648 0.18875866 -0.34944594 -0.17153636 0.033858206 -0.027840834
0.100437105 0.07469707 0.15893443 -0.24231191 -0.062395636 -0.10977586 -0.00693849 0.14134507
0.18518305 -0.1014802 0.104545146 -0.08541024 -0.06500474 0.12932713 0.27701196 0.028634062
0.17148593 0.19005121 -0.27457738 0.30930755 0.0464112 -0.063446164 0.1068723 0.18428446

block3.se1.fc.0.weight f4 [16, 64]
00000000: b912 023e 87ec 18bd 85e9 883d 6b2a 163e
00000010: 9153 90bd 6f5e 23be 0671 1f3d 0e77 3c3c
00000020: 37ee 9e3d 8b93 46be 4846 4c3e 86b0 0e3e
00000030: adec 28bd adc1 dd3c 3762 dd3d ed91 19be
00000040: d96e e8bd 0831 33bd d822 243e 875f b73d
00000050: 5505 483e 6577 20be b267 12bc 63e7 18bd
00000060: ca17 e0bd d7fb 073d e432 d3bd 24b9 1b3d
00000070: 4d25 923d a274 193c 7d45 f23d ba6e d23c
00000080: add9 d7bd 3c7a b53d 083f c13c 72be 033e
00000090: 3236 513d 095c bbbd a1a1 8abc ae99 eebc
000000a0: 7cf0 85bd 578c f73d 0616 823d ff6e 54bd
000000b0: 86f0 81bc 1b28 39be 5b75 50bc efe9 f5bc
000000c0: 68c4 423d 0732 f23d e43c f8bd 15c5 e3bd
000000d0: 8750 d8bd 8e37 fabc ca62 843e 1f2c 0bbe
000000e0: dd88 84bd 7521 49be 164c e43c da59 b73d
000000f0: bb78 bf3d 42e4 e73d fa51 aabd a1a6 26bd
00000100: 7d58 46bd c99a 963c 1706 58bd b8aa 08be
00000110: 22d0 253d eb16 d53d 125c 293a 0034 803e
00000120: efd0 fbbd 04e9 1e3d d957 353c c8d6 093e
00000130: 4daf 853d 60e9 923b 2d1b febd a275 0cbd
00000140: ec48 2b3e 713a d6bc cfe3 21bd 7ee0 dbbd
00000150: f073 693d 86f6 78bd 3626 39bd 95e3 8d3d
00000160: 911a 3c3d 224f 113e 3127 7dbc 517e bbbd
00000170: 9fac 2dbd 92b2 ecba d4da 37bc 2c4f f23d
00000180: 8754 76bd 29c6 023e 403d 8c3c 5d81 863c
00000190: 0ff3 1f3d a676 a5bd 66c1 943d 26ba 24bd
000001a0: 861e bdbd 8f90 203d a73c 03be 1681 7abd
000001b0: 78cb f43d e161 663e 192b e1bd 7b0b 05be
000001c0: cf96 9abd 1fbd ca3c 7acf 923d 2d68 09be
000001d0: a62f 01be 225e f7bc 7a89 6a3a c10a 033d
000001e0: ec39 093e 44ee 8abd 8055 bbbd 3669 cc3d
000001f0: 11c3 0fbe f5de e13c bc3c 5b3d eb04 54be
00000200: e9bc fdbb 0d7a 7ebc d245 11bd 5ddd acbc
00000210: 6132 a0bd 129a bebd 57b0 00bc f56d e6bd
00000220: 715c 5d3e dd64 e83d 12f7 3d3e 068b bdbc
00000230: 2824 613e 2f52 143e 34a9 29bd 9750 e63d
00000240: af04 15be 883e c73d bc1b 843d 35ae 703c
00000250: b236 bfbd 9edc 823d 8b92 193e b874 043e
00000260: 2069 183c 4cec d33c c033 013e b6bb 923b
00000270: 8c35 613d 6c0a 5fbd d994 1dbd 17d6 853d
00000280: 8b73 50bd 60bc 753e 088b 27be af1e 2ebe
00000290: f34f d53d 16dd cc3c 5e3a 993d a5de c33d
000002a0: 0680 f6bd ba00 debc 6194 b93d 9116 093e
000002b0: 0d59 163e 6b83 a0bc 7ff9 4cbb bd48 a53d
000002c0: 23e4 90bd 60ce 3d3e 8ffc 033e 45b8 81bd
000002d0: d583 15bb e292 463d a955 373d 6a29 d43d
000002e0: 8895 d4bc 88b8 73bd c7b2 f03c 3463 1b3d
000002f0: 215b 893d 2494 0a3e a15b 453d c811 2d3e
00000300: cf8f 0fbe 92da 923c 3ec9 e5bd 9e0e c4bd
00000310: 1b35 a5bb af97 2f3c 31aa c53d 023e 043c
00000320: 7e1d b03c 5ef7 bc3d d387 e6bd dbcb d1bd
00000330: 71e7 09be 6fe1 e7bd 6ff7 a03d 55d9 293e
00000340: a0ab 01bd 1503 203d e021 59bb 1d4b 85bc
00000350: dae8 d03c 190a efbc 7ee0 233e 9f3b 963d
00000360: 9bb6 3bbd ff79 4dbc d5fa a93d 2f15 e83c
00000370: ba59 63be b6c8 12bd 26af 313c f248 733d
00000380: c1c1 b43d b1a4 81bd 1a47 063e 8ed8 0fbd
00000390: 3338 973d 2200 35bd 6993 ea3d d2ba 78bd
000003a0: 8bf3 1a3e c90b b7bd a929 8f3d a4cb da3d
000003b0: 68e5 023d 846e 6fbd f447 c2bc 1584 9e3c
000003c0: 3287 c63d 83a2 3f3e 5bc3 0fbd d39f bf3d
000003d0: 5d31 26be 3888 e43d 5284 cc3d c07a f0bc
000003e0: 128e e2bc fcd5 e0bd 4d73 e8bd cf4d a6bd
000003f0: 6b29 59bc f826 55be e058 ccbd a07c f7ba
0.12702455 -0.037334945 0.06685165 0.14664619 -0.07047189 -0.15953992 0.038926147 0.011502994
0.077602796 -0.1939222 0.19948685 0.13934526 -0.041241337 0.02706989 0.108097486 -0.14997073
-0.113492675 -0.04374793 0.16028917 0.08953767 0.19533284 -0.15670545 -0.008935856 -0.037330043
-0.109420374 0.033199158 -0.10312441 0.03801836 0.07136021 0.009366186 0.1182966 0.025687564
-0.10539565 0.08861205 0.023589626 0.12865618 0.051077075 -0.09148414 -0.016922774 -0.029126015
-0.065400094 0.120873146 0.06351857 -0.051863667 -0.01586176 -0.18081705 -0.012723292 -0.030018775
0.04755059 0.11825948 -0.12120989 -0.11121575 -0.10562234 -0.030544069 0.2585662 -0.1359105
-0.06471417 -0.19641669 0.027868312 0.08952685 0.093491994 0.113228336 -0.08316417 -0.040686253
-0.048424233 0.018384354 -0.052740183 -0.13346374 0.040481694 0.10404762 0.0006460558 0.25039673
-0.1229571 0.03879644 0.011068308 0.13460839 0.065275766 0.004483387 -0.12407527 -0.03429187
0.16727036 -0.026150914 -0.039523896 -0.10736178 0.056995332 -0.060781978 -0.045202456 0.069281735
0.045923773 0.14190343 -0.0154512385 -0.09154952 -0.042400952 -0.0018058589 -0.011221606 0.11831507
-0.060139205 0.12770905 0.01711905 0.016419107 0.039050158 -0.08079271 0.0726345 -0.040216587
-0.092343375 0.03920036 -0.12816106 -0.061158262 0.11952871 0.22498275 -0.10994548 -0.1299266
-0.07548296 0.024748383 0.07168479 -0.13418646 -0.12615833 -0.030196253 0.0008946877 0.031992678
0.13401002 -0.06783727 -0.09147167 0.09981005 -0.14039256 0.027572135 0.053524718 -0.20705001
-0.007743467 -0.015532029 -0.035466976 -0.021101648 -0.07822109 -0.0930673 -0.007854543 -0.112514414
0.21617295 0.11347363 0.18551281 -0.02313758 0.21986449 0.14484476 -0.04142113 0.1124584
-0.14552568 0.09728724 0.064506024 0.014689972 -0.09336604 0.06389736 0.14997308 0.1293515
0.0093024075 0.025869511 0.12617397 0.0044779433 0.054982707 -0.0544533 -0.03847203 0.06534975
-0.05089144 0.2399764 -0.1636163 -0.17003892 0.1041564 0.025007766 0.07481836 0.095639504
-0.12036137 -0.027099956 0.09061504 0.13387515 0.14682408 -0.019593915 -0.003127664 0.08070514
-0.070747636 0.18535757 0.12889312 -0.06333975 -0.0022814174 0.048479922 0.044759426 0.103594616
-0.025950208 -0.059502155 0.029382123 0.037936404 0.067068346 0.13533074 0.048183087 0.16901314
-0.14019702 0.017926488 -0.112200245 -0.095731005 -0.005041731 0.0107173165 0.09651602 0.008071424
0.021498438 0.09226869 -0.11256375 -0.102439605 -0.13467194 -0.11322295 0.07859694 0.16586812
-0.031657815 0.03906544 -0.0033131763 -0.016271168 0.025501657 -0.02917962 0.16003606 0.073355906
-0.045828443 -0.012541293 0.082997955 0.028330414 -0.22202197 -0.035835944 0.010844981 0.059395738
0.08826018 -0.063302405 0.1311306 -0.035118632 0.07383766 -0.04418958 0.114538975 -0.06072504
0.15131967 -0.08937795 0.06990368 0.106833726 0.03195706 -0.058455005 -0.02371595 0.019350091
0.09693755 0.18714337 -0.035098415 0.09356656 -0.16229768 0.11158794 0.099861756 -0.029355407
-0.027655635 -0.10978314 -0.11350117 -0.081203096 -0.013254504 -0.20815647 -0.09977889 -0.0018881746

block3.se1.fc.0.bias f4 [16]
00000000: 127c 94bd fcb8 9d3d bf75 08bd 27f4 ed3d
00000010: f4f5 fabd 9678 17bd f357 963d 1861 e63d
00000020: 649c a43d 6e34 9c3d 6998 503e 558a 4d3d
00000030: 223e cfbc c1b7 a6bc 5859 283d d9ff ddbd
-0.07250227 0.077012986 -0.033315416 0.11618834 -0.12253943 -0.036980234 0.07340994 0.11248988
0.08037642 0.07627188 0.2037064 0.05018075 -0.025298182 -0.020351293 0.04110083 -0.10839815

block3.se1.fc.2.weight f4 [64, 16]
00000000: 28af 913e 821c 073e 6869 adbe a3d1 e1bd
00000010: 96a1 2abe 0d76 55be 98a9 103e 86f4 d03d
00000020: f52f a3be d629 0bbe ea10 643e b8fc 9abe
00000030: 5eef 48bc 1bcd 2dbd ffb6 dcbd 6ae8 32bd
00000040: 5f63 6abe 1957 febc 8417 363e 7202 413e
00000050: ea99 4c3e a6f9 19bc 8ef1 e33d 7bcd 683e
00000060: e91f 2cbe d943 3e3d f24d 563e 6296 1b3d
00000070: 947d 173d b9df aa3e 389d 37be 19ed 663e
00000080: 049b 29bd ad39 5abe 70c7 a5bc ce9b 37bd
00000090: e733 a2bd e7c1 253e 625d 383e bc8e a4be
000000a0: fe7d 7ebd 45da aabe 0803 0dbd f73d 1c3e
000000b0: 23c7 43be 9e68 f3bc 6d64 913d 6214 7b3d
000000c0: 48f2 6cbb 5c9b d5bd ab3c aebe e26e 2b3e
000000d0: b285 1e3e e937 dfbb 1946 64bc 7a27 03bd
000000e0: 2369 78be b22c aabd 8ecd 573e 00ac 0e3e
000000f0: fde8 b53d 3d41 803e 9fe5 5abd e0f2 cfbc
00000100: 4db8 5d3e 88ff 2b3e 1203 2a3e dc67 113e
00000110: 32d5 24be a57a a0be e7bc a5be e755 2cbd
00000120: 8d3e 09be 439b 0bbe 765f e03d 8fb5 45bd
00000130: 3fa2 c33d ac2b 303e a2e5 973d e53d 36be
00000140: b704 e93d e7ef 67bd 595e a8bc 53ed 40be
00000150: 2d47 4b3d 4451 06be ed40 f73d 89fa 25be
00000160: 9113 3bbe 6f6e 633d ed74 223e b98f 02be
00000170: 010c 04bd 657a 1d3c 079e 8d3d 8eec 0dbe
00000180: b99a 9abd 9a21 643d 2720 bebd 7fc8 d93d
00000190: 0aca 333e 8faf 133e 4b66 623d 9151 30be
000001a0: 372b 7ebe 2de8 663e 4e8c e33d f893 64be
000001b0: e3c2 e7be 073f 733e 876c ac3c ff6c 233e
000001c0: 4377 573e c510 83be 7700 ea3d 2861 bc3d
000001d0: 0ec1 18be 2e0b c43d 6aba 0bbd c20a 193e
000001e0: 53b0 1fbd 379d 083d 3b3c 38be 80fe 73be
000001f0: 1650 ae3d c00b 2fbd 3a20 e9bd 2237 65be
00000200: eb5c dcbd f221 44be 2b19 2abe fcff 84bd
00000210: defb 893d 104d 3cbe 990c 0dbe eb9f 20be
00000220: dee4 9abd 05cc 0f3d a093 d33d 19ad 90be
00000230: ee2b fa3d 2bc3 5abd e13c 61bd 187d 2c3e
00000240: f4da 30bb 23ba 45be a745 c43d e8aa a13e
00000250: e383 873e bb50 543e e540 5bbe c435 5fbe
00000260: cb33 09be 28bd 3d3e bbb1 ec3c 8be8 47be
00000270: b410 fcbd 9945 08bd 6f17 043e 81d1 413e
00000280: b6d2 37be cbdb 2e3e 1634 3bbe ccdd 453e
00000290: 7f39 813b 301f ee3c 0278 48bd e7c5 4ebe
000002a0: ac87 cbbd 82db b13e c964 b1bd 6cfa 89be
000002b0: 1851 123e f873 f33d 0b6b 443d e563 77be
000002c0: 44af 2c3e cb4f 383e a96e d13d b48c e3bc
000002d0: 7697 2e3e b3ea 133e bbb9 94be 52c8 b9bd
000002e0: 38c5 25bd b23e 193d 2acb 1b3e bdfe 34be
000002f0: d1fe ec3c f05f 8abc 4a89 053e 2997 35ba
00000300: 2de3 0e3e c866 973e 7b0b f73d cd53 383e
00000310: b9e2 a73d 41e2 79be 3dd2 8cbe ce95 11be
00000320: 0a9f 8dbe 9f95 623c de45 103c 91fd 51b7
00000330: 0110 b5bd 0c3b 883e 689a b23d 4947 183e
00000340: df4b c93d bfba 2e3d 017c a1be 8ff5 ecbd
00000350: 3da8 b9bd fbc5 023d b9e0 acbd 855a 64be
00000360: b46c c0bd 6afc be3d 84a0 17be 12e6 cb3d
00000370: 95c7 5ebe 3924 533e fef3 543e ea80 393e
00000380: b0c5 aabd c542 5dbe a8af ffbd a952 e63c
00000390: 720c e4bd 1c2d 5fbd f467 34be e4d4 7cbd
000003a0: 8ab9 43bc d886 4d3e f416 cf3d eea4 07bd
000003b0: 0f89 683c abb7 6b3d a043 483e 6b84 f13d
000003c0: d51d 593e f386 d3be 0bb8 37be 251a 41bd
000003d0: 9dc0 b7bd 2658 d53d 7506 9d3c 76bb b9be
000003e0: a0e3 3bbe 6cf1 093e aa02 05bd d18f 17be
000003f0: 275e 8d3c d5fa 1b3e 29fc 80be 8f39 023e
0.28453946 0.13194469 -0.3386948 -0.11026313 -0.16663203 -0.20845814 0.14127195 0.10202889
-0.31872526 -0.13590178 0.22272077 -0.30270934 -0.012264101 -0.042431932 -0.10777091 -0.04367868
-0.2288947 -0.03104739 0.17782408 0.18848589 0.19980589 -0.0093979 0.11130057 0.22734635
-0.16809048 0.046451423 0.20928171 0.037985213 0.036984995 0.33373812 -0.17931068 0.22551383
-0.0414076 -0.21311064 -0.0202367 -0.04482632 -0.07920056 0.16187249 0.18004373 -0.32140148
-0.062131874 -0.3336965 -0.03442672 0.15258013 -0.19118933 -0.029712971 0.07099233 0.061298735
-0.0036155153 -0.10430023 -0.3403066 0.16741517 0.15480688 -0.006812085 -0.013932728 -0.03202007
-0.24258856 -0.08309306 0.21074507 0.139328 0.088823296 0.25049773 -0.05344164 -0.025384367
0.21652336 0.16796696 0.16602734 0.14199775 -0.16096953 -0.3134357 -0.32370684 -0.04207411
-0.13402767 -0.13633446 0.10955708 -0.04826885 0.0955243 0.1720416 0.07416846 -0.17797048
0.113778524 -0.056625273 -0.020552801 -0.18840532 0.049628425 -0.13116938 0.120729305 -0.16208853
-0.18269183 0.05552524 0.15864916 -0.12750138 -0.03223801 0.009611701 0.06914907 -0.1385977
-0.07549042 0.055696107 -0.09283476 0.10633945 0.1755754 0.14422439 0.055273335 -0.17218615
-0.24821173 0.22549506 0.11110745 -0.2232207 -0.45265874 0.23754512 0.021047844 0.15959547
0.21041588 -0.25598732 0.1142587 0.091982186 -0.14917395 0.09572445 -0.034113325 0.1494551
-0.038986515 0.033353057 -0.17991726 -0.23827553 0.08511369 -0.042735815 -0.113831 -0.22384313
-0.1075991 -0.19153574 -0.16611163 -0.06494138 0.06737493 -0.18388772 -0.13774337 -0.15686004
-0.07563184 0.035106678 0.103308916 -0.28257063 0.1221541 -0.053408783 -0.0549897 0.16844594
-0.0026985975 -0.19309287 0.09583598 0.31575704 0.2646781 0.20733921 -0.21411474 -0.21797854
-0.13398664 0.18529189 0.028893342 -0.19522302 -0.12307873 -0.0332695 0.12899564 0.18927576
-0.17951474 0.17076032 -0.18281588 0.1932289 0.0039436216 0.029067606 -0.048942573 -0.20192681
-0.09937987 0.34737784 -0.08661801 -0.2694887 0.14288747 0.11887354 0.047953647 -0.241592
0.16863734 0.17999189 0.10226185 -0.027777053 0.17049965 0.14445 -0.2904795 -0.09071411
-0.040471286 0.037413307 0.1521422 -0.176753 0.0289301 -0.01689145 0.13040653 -0.00069271267
0.13953848 0.29570603 0.120627366 0.18000717 0.08197541 -0.24402715 -0.2750415 -0.14217302
-0.276604 0.013829618 0.00880572 -1.2516409e-05 -0.08840943 0.2660755 0.08720857 0.14870943
0.098289244 0.042658564 -0.3153992 -0.11570274 -0.09065292 0.03192709 -0.084413 -0.22300155
-0.093957335 0.09325488 -0.14807326 0.09955992 -0.21755822 0.20619287 0.207962 0.18115583
-0.08338487 -0.21607502 -0.12484676 0.028115587 -0.11135186 -0.05448638 -0.1761778 -0.061726466
-0.011946091 0.2007097 0.101118 -0.033116274 0.014192834 0.057548206 0.19557047 0.11792835
0.21202786 -0.41313896 -0.179413 -0.047144074 -0.08972285 0.104172036 0.019168118 -0.36275834
-0.18348551 0.13471001 -0.032473244 -0.14800955 0.01725681 0.15232404 -0.25192383 0.1271727

block3.se1.fc.2.bias f4 [64]
00000000: cce7 883d 9000 11be 8a8f cfbd 45de c2bd
00000010: b661 46be 7891 31be 45c5 97be 9f21 04be
00000020: e63b edbc 4759 a4bd 6142 12be 7206 ecbd
00000030: 71b4 30bd f3c0 d7bd e7d5 30bd 0c58 5bbe
00000040: ee6c 3a3e d045 10be 3fd6 8f3d ca3d c0ba
00000050: 5dd6 62be 8c5a 923e 6bff 6f3d edc3 b5bb
00000060: 373d 2cbd f94c 0abe b9ad d73d 1190 ec3d
00000070: d06a cebd 70be c13d 18c6 9ebd e21b 273e
00000080: ceaf 333e f1dc 11bd 0596 f9bd 7ef4 273e
00000090: 6c9f 203e dcfc e5bc 5240 9a3d 3a75 ad3c
000000a0: ba34 72bd 43e2 3cbe e7f6 65be 7596 e23d
000000b0: 479b 893d cf86 6bbe e428 053e a5f9 debd
000000c0: c9be 2cbe 252b 11bb 1f42 8abe 95dc 1d3e
000000d0: c360 b5bd 4500 8b3d 1d0c ee3c 6eb5 263d
000000e0: a6e0 d1bd 4450 f6bd 9455 6f3e ea8b c03d
000000f0: 3fcc 383e 86e2 d8bb ecd5 263e 0d9c 363d
0.06684837 -0.14160371 -0.101348 -0.09515051 -0.19373211 -0.17340648 -0.29642692 -0.1290345
-0.028959226 -0.08024841 -0.14283134 -0.11524667 -0.043140832 -0.10534849 -0.043172743 -0.21420306
0.18205616 -0.14089131 0.07023286 -0.0014666852 -0.22152086 0.28584707 0.058593195 -0.005547038
-0.042050567 -0.13505925 0.10531182 0.11550916 -0.100789666 0.09460151 -0.07752627 0.1631923
0.17547533 -0.035611097 -0.12186817 0.1640186 0.15685815 -0.028074674 0.075317994 0.021174062
-0.059132315 -0.18445687 -0.22457467 0.11063854 0.0671907 -0.23000644 0.1300388 -0.1088746
-0.16869654 -0.002215096 -0.2700357 0.15416177 -0.088563465 0.06787161 0.02905851 0.04070037
-0.102479264 -0.12027028 0.23372489 0.094016865 0.18046664 -0.0066188006 0.16292542 0.044582415

block4.se1.fc.0.weight f4 [16, 64]
00000000: 77cd 72bd 9da7 1b3e 9d5d 573d 2456 6ebb
00000010: 6207 57be 0e2a 823d 8756 183d 3e16 543d
00000020: dae1 6abd 36f4 0e3d a301 333d c584 ae3d
00000030: f619 e33d 48fd c43d a4c3 023e a288 fa3d
00000040: c098 33bd 61c2 bbbd fc93 173e 81a5 aa3e
00000050: 2e17 b9bc 8405 933d c591 c13c aa5f 943d
00000060: fdfc 303e 1d67 c63c 1373 0a3e 69b6 3d3e
00000070: 1ebb 913d 6eb7 0a3e 200c 38be b928 533e
00000080: 3a6a 463b 6dd0 b13c 8711 9ebc 1e41 50bd
00000090: 6fbd 9a3d ed20 d9bd 4243 15bd 28c8 293d
000000a0: ded3 ab3c 6028 6c3d a606 cf3d 2dd7 bd3d
000000b0: 9c3d 2dbd 5da7 57bd 963f 533e 5efc 4d3e
000000c0: c9d0 b43d 1787 6bbc eedd 103d da8f 1a3e
000000d0: 3b58 1abc efd5 3b3e aaf8 153e 3c63 143e
000000e0: 9c27 113e 483f 3ebd 9d2b c5bd fa80 bd3d
000000f0: deae f639 0226 313e 0a5f 2a3c 7cbd 873d
00000100: c0f5 643e 2ab1 c5bd 9e1e 25bd 53b8 6dbd
00000110: 408f c23d 7742 54bd 5a77 c5be 97b8 dfbc
00000120: 1501 c13d c43f 633d 87ed 91bd e194 b2bd
00000130: 9583 d3bd 93ca ddbd 6a4b f2bd 24bd 303d
00000140: 86a6 033e 6925 5a3d bb8c 2fbe 6f85 a33c
00000150: 26d5 23be 5035 5abd 8410 b23c f9c8 34be
00000160: 0b5f 993d 6a7d dc3a 8eac 06bd 9c28 293d
00000170: 7c33 24be 5e82 923d 58a7 1dbd 4001 b2bd
00000180: 1ced 9abd c4b8 993d b1bf 8e3d 18dd e33c
00000190: dd02 803d 480b ea3d d00a 8d3e 4271 3abd
000001a0: 2069 de3c 73e7 533d 851e 013d 985c 823d
000001b0: 8fef 8abb 3a22 cdbd 5c3f 91bd 1566 a1bd
000001c0: 92e1 2fbe 58af 7cbd 817a 23be 93f0 91bd
000001d0: b0ff 33bd 823c 713d b7c7 38bc 1006 a5bb
000001e0: e2c5 10bd 74b4 7dbd 1026 873b ec95 58bc
000001f0: b54a 22be 45b0 623e 078e 4fbe 6b53 39be
00000200: 857e 3f3c f560 193d d501 943d 69e3 24bc
00000210: af7f 91bc 3e2a 0bbe 3368 d13d 9de9 fdba
00000220: 18f6 133e 64a5 a53c 2427 553e 7056 3abd
00000230: 9edb ef3d d78a 1d3d cfff 32be 4162 15bd
00000240: 5ab7 e3bd 027d c5bd cd50 1ebd f9be 25be
00000250: 77db 293e 4589 6ebe d163 a13d 088f 49bd
00000260: 16c4 89bd a392 17be bd3b 4a3e 0300 84bd
00000270: 6124 983d 3992 7ebe 9954 a33d 597c 46be
00000280: c7cb 3abd 6718 a83c 25c4 d73d d679 5abd
00000290: 594f 37bd 3454 a2bd 5641 d43c f1e0 27be
000002a0: bc99 9e3c 9783 53be b0d3 e4bd c382 d23c
000002b0: c347 823d cbae 11ba 2667 99bc 422c 343e
000002c0: 6ea4 393d ae33 0e3e b116 43bd 5b80 b7bd
000002d0: 8f18 17bd d665 d1bc 0204 e2bd 759d dabd
000002e0: 24b3 6bbe 265e 6abe e736 243e 3586 45bd
000002f0: 11f6 3e3d fda6 99bd b3e4 b7bc 503d 8ebc
00000300: 7cfc bb3d d785 3bbd b4fe c03c 01e6 da3d
00000310: 5665 7d3c 5a2c 07be 8d70 95be 496b 59bd
00000320: 4e03 d7bd c9f9 f53d 7dfd f43b 95e7 153e
00000330: f9ab fbbc 8b6c bcbd 401e dfbd e26f b2bd
00000340: 4a42 233d d7f7 473d 3b4b 123e 6077 03be
00000350: b176 d83d 0333 af3d cf24 313d 8e64 a9bd
00000360: 671f 353d 7338 3a3d daa3 54be 2eae 96bd
00000370: c60f 0bbe 48a5 3e3d ab95 1a3c 8054 cabd
00000380: 992a 573d b127 83bc 15d5 09bc 1216 283e
00000390: a5a6 8d3d a302 0cbb e671 57bd 4d76 c13d
000003a0: 1e30 473c 60c9 0ebd dad3 d43d 8e08 c83a
000003b0: b807 eebd b3f1 45bc 43b5 95bd 898b ec3d
000003c0: f86b 4fbe a9d2 903c b08e 083d b439 f43b
000003d0: dd66 993d 8683 c5bd 7321 103e 2757 2b3c
000003e0: 33d7 06be f436 283d 4b55 263e f2f4 be3d
000003f0: 2a25 4cbb 208a 203c b91b 8dbd 9c84 283e
-0.059277978 0.15200658 0.05257951 -0.0036367262 -0.2099891 0.063556775 0.037191894 0.051779024
-0.057344295 0.034900866 0.043702733 0.085214175 0.11088936 0.09618622 0.12769943 0.12233092
-0.043846846 -0.09167934 0.14802545 0.33329394 -0.02259406 0.071787864 0.023629079 0.07244809
0.17284007 0.02421909 0.1352046 0.18526615 0.07115768 0.13546535 -0.17973375 0.20621003
0.0030275718 0.02170583 -0.019295467 -0.05084335 0.07555663 -0.10601983 -0.036441095 0.04145065
0.02097505 0.057655692 0.1010869 0.09269557 -0.042295083 -0.052649844 0.20629725 0.20115802
0.08828885 -0.01437547 0.0353679 0.15093938 -0.00942045 0.18343328 0.14645639 0.1449098
0.14175266 -0.04644707 -0.09627459 0.09253116 0.00047051063 0.17299655 0.010398636 0.06627938
0.22359371 -0.09652932 -0.040312402 -0.058037113 0.09499979 -0.0518212 -0.3856762 -0.027309699
0.094240345 0.055480734 -0.07125383 -0.08719803 -0.10327832 -0.108296536 -0.1183079 0.04314913
0.12856492 0.053258333 -0.17143528 0.019961087 -0.15999278 -0.0532735 0.02173639 -0.1765479
0.07488831 0.0016822044 -0.032879405 0.041298494 -0.16035265 0.07153772 -0.03848967 -0.08691645
-0.07564756 0.07505944 0.06970156 0.027815387 0.06250546 0.11427933 0.27547312 -0.045518167
0.027149737 0.0517344 0.031523246 0.06365317 -0.0042399834 -0.10016294 -0.07092163 -0.07880799
-0.17175892 -0.06169066 -0.159647 -0.07125964 -0.043945014 0.058895595 -0.0112780845 -0.005036123
-0.035344966 -0.06193967 0.0041244105 -0.013219338 -0.15848811 0.22137554 -0.20269023 -0.18098228
0.011687879 0.03744598 0.07226912 -0.010063984 -0.01776108 -0.13590333 0.102249525 -0.001937199
0.14449346 0.020220466 0.20815712 -0.04549259 0.117118105 0.038462486 -0.17480396 -0.036470655
-0.11118956 -0.09642984 -0.038651276 -0.16186132 0.16587625 -0.23294552 0.078803666 -0.04920867
-0.067268535 -0.14802031 0.19749351 -0.06445315 0.07428814 -0.24860467 0.0797512 -0.19383372
-0.045604493 0.020519448 0.105354585 -0.053338848 -0.044753406 -0.07926217 0.02591006 -0.16394402
0.019360416 -0.20655666 -0.11173189 0.025697118 0.06361344 -0.0005557357 -0.018725943 0.17595008
0.045322828 0.13886902 -0.047629062 -0.08960029 -0.036888655 -0.025561254 -0.11035921 -0.10674564
-0.23017555 -0.22887477 0.16036569 -0.048223693 0.046621386 -0.075025536 -0.02244792 -0.01736322
0.09179017 -0.045781936 0.023558952 0.10688401 0.015466055 -0.13200513 -0.29187432 -0.05308083
-0.10498677 0.12010533 0.007476507 0.14639123 -0.030721651 -0.092003904 -0.108944416 -0.08712746
0.03985814 0.048820343 0.1428651 -0.12838507 0.105695136 0.085546516 0.043247994 -0.082711324
0.0442194 0.04546399 -0.2076563 -0.07357441 -0.13580236 0.046544343 0.009435098 -0.09879398
0.05253086 -0.016010137 -0.008412619 0.16414669 0.069165505 -0.0021363876 -0.052598856 0.09446392
0.012157468 -0.034860015 0.1039197 0.0015261339 -0.11622566 -0.012081551 -0.073099636 0.11550052
-0.2025603 0.017678576 0.033339202 0.007453168 0.07490323 -0.09644227 0.1407526 0.01045779
-0.1316803 0.041068032 0.16243474 0.09324063 -0.0031150081 0.009798557 -0.06890053 0.16456836

block4.se1.fc.0.bias f4 [16]
00000000: 17e0 903d 8e17 8abd d513 103e 0553 703d
00000010: efa3 4e3c d4b2 2a3c 2cc0 c63b 4684 a1bd
00000020: 5923 af3d 81eb 7d3c 31bc 86bd 8fa5 d43d
00000030: 2130 9c3d b551 253e 970d 813c 8f5b ac3d
0.07073992 -0.06742774 0.14070065 0.058672924 0.012612327 0.0104186125 0.006065389 -0.07886557
0.08551664 0.015498043 -0.065788634 0.1038314 0.07626367 0.1614445 0.01575355 0.08415901

block4.se1.fc.2.weight f4 [64, 16]
00000000: e713 70be 864e 1cbe 66dc eb3d 4a0e af3b
00000010: 424d 743e 9675 a9bd 9c91 1ebd bfd8 ee3c
00000020: 0992 70be 7909 673e bc2b 413e b100 08bd
00000030: 1005 03be 6d64 8cbe ee4b 993d 18b1 3c3d
00000040: 94c6 3b3e 98fc 123c cbdb 803d d087 b2bd
00000050: 8f2f cf3e cde8 18be 9156 8ebd b95b 02be
00000060: d8d5 9b3e e6c9 36bb 9baa 67be 01e1 413e
00000070: 5e61 9a3c 2532 aa3e e712 84be 2acd 9ebb
00000080: 8ee4 b53d 87e3 363d 9d6f 0a3d 1158 563e
00000090: fe5b 5cbe d738 bd3c 071d f63d 74a1 05be
000000a0: 3e63 283e 1b39 923d 5c18 fabd dbe0 6a3c
000000b0: 3928 023e 9933 b4be 0e4b 41be a822 ba3e
000000c0: 6e34 88be 08bf 653e f330 a03d 0a46 f3bc
000000d0: f269 903c 9147 07bd 7d60 09bc d40f 493d
000000e0: 996a cebd 5a50 cb3d a6b4 173e 7144 253e
000000f0: 7fb3 60bd 6ae8 5ebd ac8e 94be e18d ecbd
00000100: d027 093b db63 00bb a90a 383e a0ff 42bc
00000110: c091 903d d8eb a1bd e026 bb3d 4362 95be
00000120: 33a8 99be beda 4d3e d4d0 42be ca34 7a3d
00000130: a38c 263e 9db8 9c3e de22 f4bd 66a3 353e
00000140: ecb7 d1bd fe86 0f3e 9a58 163e 215e 763b
00000150: f0f4 43bd 3724 be3d 9fa9 21be 287e f9bc
00000160: d462 81be 1092 cd3d 8265 563e 49d6 153e
00000170: a188 61be f313 1abe 23be 01be fa0e 813e
00000180: ef84 123d affe 75be 98a9 d13d dd95 44be
00000190: c0a9 b1be 6d3f a7be 3809 3d3e a362 a1bd
000001a0: 67ba c5bd 2f3e 073d 9ab0 243e de24 8abe
000001b0: 89ab 683e eec7 60be 5686 6f3b b090 cabc
000001c0: 569b f53d b76b 43be 025d 3bbc 995d 99be
000001d0: 6e58 d1bd ae02 513e 36c4 49be a29d 03be
000001e0: becf 8fbe 29e1 dd3d 4bfb c1bc fb70 64bc
000001f0: 10e3 b23c 9f1a d03e 5168 82be 094b 31be
00000200: 8a4e 813d 2fa0 8abe 5d6a 13be ba39 0ebe
00000210: 0e82 72be 3926 3f3e d414 563e 7d87 61be
00000220: b275 f6bc 6127 c3bd cbff cdbc 5b49 82be
00000230: 928e 80bd 63fc bd3c 4263 41be 5cf5 f03d
00000240: 1e47 23be b184 523e 1642 333e e55f ddbd
00000250: 30cb b03d c19b 553e 0b95 4e3e 96d9 9cbe
00000260: a765 1cbe 5a77 383d b349 323e c5a5 8dbe
00000270: 9f65 c0bd 2641 d43d 6be9 bfbe 00ca b93c
00000280: a056 623e 501a 42be 187b a03e dd90 1d3e
00000290: 98a7 613e 60b8 3bbd cea1 edbd ba8f 90bd
000002a0: e7c0 6ebe 8ac0 0fbe 3170 84be 36cf 8cbe
000002b0: 6036 3fbe 7bbb 373e 9682 2abd 6da6 19bf
000002c0: d9b0 6fbe ae2f 04be d43b 5fbe fa0c 86be
000002d0: 10e1 f33d d7be 5c3d dcb1 323d 2acd 88bc
000002e0: 8b3b 423e 0d72 8d3d b6fb 13be d22b abbd
000002f0: 23af 34be dbb2 733e d53f b0bd d8a8 eb3d
00000300: b931 a9be dff9 b8be f21e a93c dc12 f53d
00000310: 089c 923e 040d 26bd 4d3d bf3d 12f7 983c
00000320: 1527 bdbe 6db2 eab9 56f6 aabd 0cfb 84be
00000330: 3759 db3d 873a b43e 6b41 813e 04d6 8fbe
00000340: 1006 c6bd aba9 98bd 4cb9 593d f28a 523e
00000350: 6da8 4f3e 907a d3bb 5f65 5abe 668c be3d
00000360: d3bc 47be 23a5 9d3d 3246 55be fe24 42bd
00000370: 492e 583e 91cb cbbd 0b50 7a3d fa79 38be
00000380: a175 b4bd 7d89 153e 3a9c 2bbe a914 95be
00000390: 3d81 8c3d b80b 8dbd c92a ee3d b61d bebe
000003a0: 1c87 19be f851 08be 216f 21bd c27c ebbd
000003b0: d15b 083e 5064 0d3e e2d7 00bc 535e d3be
000003c0: b1de 5fbe 0891 273e 11bf 32be 748c f33d
000003d0: cc54 15be d35f ccbe d35f b5bd e7e7 6ebe
000003e0: 99ab 8bbd 29c2 1cbd 556f cabc 7314 21bd
000003f0: 5221 553e 5ba4 17be 899e 083d bf6e fbbd
-0.23445092 -0.1526433 0.11516647 0.0053422796 0.23857597 -0.08274381 -0.038713083 0.029156087
-0.23493208 0.22562207 0.1886434 -0.033203784 -0.127949 -0.2742037 0.074851856 0.046067327
0.1833747 0.008971356 0.06291922 -0.087173104 0.40465972 -0.14932556 -0.06950105 -0.12730302
0.30436587 -0.0027891337 -0.22623675 0.18933488 0.018845256 0.33241382 -0.2579567 -0.004846235
0.08881484 0.04465058 0.03379785 0.20932032 -0.21519467 0.023098392 0.12017255 -0.1304987
0.16444108 0.07139798 -0.122116774 0.014335836 0.12710656 -0.35195616 -0.18876287 0.36354566
-0.266025 0.22436154 0.07821836 -0.029696483 0.017628644 -0.033027235 -0.008384821 0.04908736
-0.10078926 0.09927435 0.14815006 0.1613939 -0.05485868 -0.054420866 -0.290151 -0.11550499
0.002092827 -0.0019590768 0.17972817 -0.011901766 0.070590496 -0.07906312 0.09138274 -0.2917653
-0.30011138 0.20102975 -0.19024974 0.0610855 0.16264586 0.306096 -0.11920713 0.17738113
-0.102401584 0.14016339 0.14682236 0.0037592726 -0.047841012 0.09284251 -0.15787362 -0.030455664
-0.25270712 0.10037625 0.2093716 0.14632525 -0.22024776 -0.15046673 -0.12670188 0.2520674
0.035771307 -0.24022935 0.102374256 -0.19197793 -0.3469982 -0.32665578 0.18460548 -0.078801416
-0.09654694 0.033018287 0.16082993 -0.26981252 0.22721685 -0.21951267 0.0036548576 -0.024727196
0.119925186 -0.19084059 -0.011435749 -0.29954222 -0.10221945 0.20411178 -0.19703755 -0.12853101
-0.28088182 0.108339615 -0.023679396 -0.013942952 0.021836787 0.4064531 -0.25470212 -0.1731378
0.06313808 -0.27075335 -0.14396043 -0.13889208 -0.23682424 0.18666925 0.20906383 -0.22024341
-0.030085418 -0.09528995 -0.025146386 -0.2544659 -0.06277193 0.023191636 -0.1888552 0.117655486
-0.15945098 0.2055843 0.17505679 -0.10809306 0.08632505 0.20860197 0.20174043 -0.30634755
-0.15273152 0.045035698 0.17410927 -0.27665535 -0.09394383 0.103639886 -0.3748277 0.022679329
0.22103357 -0.1895535 0.31343913 0.15387292 0.22036588 -0.04583013 -0.116031274 -0.07058664
-0.23315774 -0.14038292 -0.25866845 -0.2750184 -0.18673086 0.17942612 -0.041628443 -0.6001957
-0.23407306 -0.12908813 -0.21800166 -0.26181775 0.11908162 0.053892937 0.04362665 -0.016699392
0.18968026 0.06906519 -0.14451489 -0.083579674 -0.17644934 0.23798697 -0.08605925 0.11506814
-0.33045748 -0.36128137 0.020644639 0.11966488 0.28634667 -0.040539756 0.09337864 0.0186725
-0.3694388 -0.00044764896 -0.08347766 -0.25972784 0.10710376 0.35200903 0.25245222 -0.28092968
-0.09669125 -0.074542366 0.05315523 0.20560816 0.20279093 -0.0064538196 -0.21327733 0.093041226
-0.19505624 0.07697513 -0.20827559 -0.04739856 0.21111406 -0.099509366 0.06111149 -0.1801528
-0.088114984 0.14603229 -0.16758814 -0.29117325 0.06860588 -0.06887001 0.11629254 -0.37132043
-0.14992946 -0.13312519 -0.03941262 -0.11498405 0.13316275 0.13807797 -0.0078639705 -0.412829
-0.21862294 0.16363919 -0.17455699 0.11892024 -0.14583129 -0.39916858 -0.08856168 -0.23330651
-0.06819839 -0.038271103 -0.02471129 -0.039326143 0.20813492 -0.1480879 0.033354316 -0.122769825

block4.se1.fc.2.bias f4 [64]
00000000: e9e8 32be 61cc c1bd 113a 39be 3c72 6d3d
00000010: b26f 1bbe e7b1 19bd 1a34 3c3e c91e 0c3d
00000020: 7c3d 613e d5c3 e83d e040 553d b833 973d
00000030: a000 c1bd 6149 9c3e 8660 50be 6317 4fbb
00000040: ab3e 2bbd 2a11 1fbd f655 2f3e 5815 633d
00000050: a3f8 d33c cb54 83be 317f 05bd 9345 87bd
00000060: 6d0a 89bc cf00 7f3e e2a3 25be 2970 72be
00000070: b22f 473e 9e16 903e de62 03be 146a 71bd
00000080: 9e5c 1cbe ee90 273e f7af 623e 2530 93bd
00000090: 125c 34be 610b 993e 6760 8abe 07bb 42be
000000a0: e453 153e fc4f 7d3d 30bf 8e3c 21f7 5bbe
000000b0: ef68 0f3e 7795 4bbe 3895 8f3b 08a9 303e
000000c0: 770b 5f3e 76d2 80bd a67a e43d f47c a33d
000000d0: 7225 9dbd 1ef6 023e 99be 39be 0ee2 15bc
000000e0: 9d0b 4dbc d855 86be bd99 1cbd aa7e a6bc
000000f0: a6b4 eb3d 229d f8bd f596 92be 820c 153e
-0.1747166 -0.0946281 -0.18088557 0.05797027 -0.15179327 -0.037523177 0.1837925 0.034209047
0.2199611 0.11365477 0.052063823 0.073829114 -0.09423947 0.30524734 -0.20349321 -0.0031599633
-0.04180781 -0.03883473 0.17122635 0.055440277 0.025875395 -0.2565063 -0.032592002 -0.06605067
-0.016728604 0.24902652 -0.16175798 -0.23675598 0.19451788 0.28142256 -0.12830684 -0.058939055
-0.15269706 0.1636388 0.22137438 -0.07186917 -0.17613247 0.29891494 -0.27026674 -0.19016658
0.14582783 0.061843857 0.01742515 -0.21480991 0.14004873 -0.19881235 0.004381802 0.1725198
0.21781717 -0.06290142 0.11156206 0.07982817 -0.07673158 0.12789199 -0.18139113 -0.009148134
-0.012514976 -0.2623737 -0.038232554 -0.02032407 0.11509065 -0.12139346 -0.28630796 0.14555553
