Project/Software/project_Mobilenet_q/N26122246_minist_best.ckpt (torch, 370054 bytes, 296 tensors)

total_ops f8 [1]
0	0x0000000000000000	0.0

total_params f8 [1]
0	0x0000000000000000	0.0

conv1.weight f4 [8, 1, 3, 3]
0	0x3e36e24e	0.17859766
1	0x3e35c7c3	0.17751984
2	0x3e81dba6	0.2536289
3	0x3e2a3c8d	0.16624661
4	0x3d854c81	0.065087326
5	0xbe69ed0e	-0.22844335
6	0xbe98a3b5	-0.298124
7	0xbe5b1d95	-0.21398003
8	0x3e717872	0.23581102
9	0x3dd04366	0.10169105
10	0x3d909400	0.07059479
11	0xbe7b7a3b	-0.24558346
12	0xbd8c2133	-0.0684227
13	0xbe622cd5	-0.22087415
14	0x3e50e30e	0.20399114
15	0xbd1d98a0	-0.038475633
16	0xbe85c83d	-0.26129332
17	0xbdad8ffa	-0.08474727
18	0x3e5d489b	0.21609728
19	0x3d647194	0.05577238
20	0x3e9ac858	0.30230975
21	0xbe917a3c	-0.2841357
22	0xbde3ee25	-0.11129407
23	0xbe166a4f	-0.14688991
24	0x3e9b7671	0.303638
25	0xbe1a2b4f	-0.15055583
26	0xbe39919d	-0.18121953
27	0xbe8156b0	-0.2526145
28	0xbdf1a352	-0.11798729
29	0xbde9d57a	-0.114176705
30	0x3dbcba99	0.09215278
31	0x3e1d1526	0.15340099
32	0xbe58e28b	-0.2118017
33	0xbde1bd73	-0.11022463
34	0xbd9745b9	-0.073863454
35	0x3e61f17d	0.22064777
36	0x3ea1da54	0.31611884
37	0xbe6b9731	-0.23006894
38	0x3da2a43e	0.07941483
39	0x3e42ac92	0.19011143
40	0x3e2af257	0.16694008
41	0xbe8e92b2	-0.27846295
42	0x3d04eece	0.032454304
43	0x3e9b951a	0.30387193
44	0xbe33ec8b	-0.17570703
45	0xbd36900d	-0.04457097
46	0x3d24e8d0	0.04026109
47	0xbe077f53	-0.13232164
48	0x3e8b3f0f	0.27196547
49	0xbebba06d	-0.36645833
50	0xbe677487	-0.22603045
51	0xbe43a44e	-0.19105646
52	0x3e25a56d	0.16176386
53	0xbc353d1d	-0.011061934
54	0x3e3456a9	0.17611183
55	0xbe8c35b9	-0.27384737
56	0xbe976077	-0.29565784
57	0xbda4d62f	-0.08048665
58	0x3cfa4312	0.03054956
59	0xbcabd4c8	-0.020975485
60	0x3e4546ac	0.1926524
61	0x3d2c9246	0.042131685
62	0xbb7402ea	-0.0037233182
63	0x3e70db43	0.23521142
64	0x3dcba6f2	0.09943952
65	0xbe1a69a0	-0.15079355
66	0x3e94b9e3	0.2904807
67	0x3e8c94c8	0.2745726
68	0x3d334854	0.04377015
69	0xbda39b76	-0.07988636
70	0xbea4f499	-0.32217863
71	0xbc1f1d93	-0.009711641

block1.total_ops f8 [1]
0	0x0000000000000000	0.0

block1.total_params f8 [1]
0	0x0000000000000000	0.0

block1.pw1.weight f4 [8, 8, 1, 1]
0	0xbd4455a8	-0.04793325
1	0xbe10f8ec	-0.14157456
2	0xbe0ac8db	-0.13553183
3	0xbe61d05e	-0.22052142
4	0x3e6e9f97	0.23303066
5	0xbd6df8cb	-0.058098596
6	0xbebeff84	-0.37304318
7	0x3e560820	0.20901537
8	0xbe578d1d	-0.21049924
9	0x3dbc0001	0.09179688
10	0x3cac1a8e	0.021008756
11	0x3e1ab660	0.15108633
12	0xbeceb4d9	-0.4037235
13	0xbe64091e	-0.22269103
14	0xbeb30621	-0.34965613
15	0xbd6b498f	-0.057443198
16	0xbee2dc75	-0.4430882
17	0x3e57e945	0.21085079
18	0xbe03166f	-0.12801526
19	0x3e3c1c12	0.18370083
20	0xbd85587b	-0.06511017
21	0x3e0cd962	0.137548
22	0xbd19202d	-0.0373842
23	0x3df62c5a	0.12020178
24	0x3e6edb1c	0.23325771
25	0x3eac787b	0.3368567
26	0x3e23e10c	0.16003817
27	0x3df5a6c7	0.11994701
28	0xbd95805f	-0.072998755
29	0x3e02d4fe	0.12776563
30	0xbd08f43b	-0.03343604
31	0x3dc12a95	0.0943195
32	0x3e8ed736	0.27898568
33	0xbd5a01a6	-0.05322423
34	0x3e2ac7c5	0.16677769
35	0xbc4a329e	-0.01234117
36	0x3eb8718d	0.36024132
37	0x3df53229	0.11972458
38	0xbe631dbf	-0.22179316
39	0x3e3cb49f	0.18428276
40	0x3c6082c5	0.013703053
41	0xbe198c4c	-0.14994925
42	0x3ca0efe0	0.019645631
43	0x3de3a5ce	0.11115609
44	0xbe808d5e	-0.25107855
45	0x3e2c2fa7	0.16815053
46	0x3eb2a2ca	0.34889823
47	0xbe74eaec	-0.2391774
48	0xbebbba21	-0.36665443
49	0x3dd4b561	0.10386158
50	0x3dc3ae3f	0.09554719
51	0x3e523bb7	0.20530592
52	0xbdcfd4ed	-0.10148034
53	0xbe2a857d	-0.16652484
54	0x3e8e5bdc	0.27804458
55	0x3dca5a88	0.09880549
56	0x3e395b99	0.18101348
57	0xbeb77751	-0.3583322
58	0xbeb246d9	-0.34819677
59	0xbe722b31	-0.23649289
60	0xbea2eef3	-0.3182293
61	0xbe8110d9	-0.25208166
62	0x3e89883c	0.2686175
63	0x3ae2a16e	0.0017290541

block1.bn1.weight f4 [8]
0	0x3f463381	0.7742234
1	0x3fb4853a	1.4103158
2	0x3f79ae69	0.97531754
3	0x3f9b5826	1.2136276
4	0x3f51a726	0.81895673
5	0x3f875229	1.0571948
6	0x3f883345	1.0640646
7	0x3f16b8d8	0.588758

block1.bn1.bias f4 [8]
0	0x3e33a321	0.17542697
1	0xbebd2192	-0.36939675
2	0xbbbeea74	-0.005826289
3	0xbe04e022	-0.12976125
4	0x3e3b2bb7	0.18278395
5	0xbd5643fa	-0.05231092
6	0xbcdba9f6	-0.026814442
7	0x3ecdd11d	0.40198603

block1.bn1.running_mean f4 [8]
0	0x3dffe582	0.12494947
1	0xbd48e79e	-0.049049012
2	0xbddaa38d	-0.10675726
3	0xbd6cd070	-0.05781597
4	0x3dc15ae0	0.09441161
5	0xbdb7ecd4	-0.08980718
6	0xbd8f8307	-0.07007413
7	0x3da79b61	0.08183933

block1.bn1.running_var f4 [8]
0	0x3cb0e2fe	0.021592613
1	0x3c2b468e	0.010453833
2	0x3c83d39b	0.016092112
3	0x3be15233	0.006876254
4	0x3c89a710	0.016803294
5	0x3c54217c	0.012947436
6	0x3c11d37f	0.008900522
7	0x3c394145	0.011307065

block1.hs1.total_ops f8 [1]
0	0x0000000000000000	0.0

block1.hs1.total_params f8 [1]
0	0x0000000000000000	0.0

block1.hs1.sigmoid.total_ops f8 [1]
0	0x0000000000000000	0.0

block1.hs1.sigmoid.total_params f8 [1]
0	0x0000000000000000	0.0

block1.dw1.weight f4 [8, 1, 3, 3]
0	0xbe0e6c13	-0.13908415
1	0x3e9d8c0a	0.30770904
2	0x3e435263	0.19074397
3	0x3e870d62	0.26377398
4	0x3e6b66fb	0.22988503
5	0xbe5b7b2b	-0.21433704
6	0xbc52a4da	-0.0128566865
7	0xbde659b4	-0.11247578
8	0xbcbb42ec	-0.02285906
9	0xbdfdc3b4	-0.12390843
10	0xbe0f34ae	-0.1398494
11	0xbeb3b442	-0.35098463
12	0xbd35dea0	-0.044401765
13	0xbdff0398	-0.12451857
14	0xbdabee70	-0.08395088
15	0xbd5de9c3	-0.05417801
16	0xbe6389cf	-0.22220539
17	0xbe36ab24	-0.17838722
18	0x3e5cd135	0.21564181
19	0x3db77270	0.08957374
20	0x3d639c85	0.05556919
21	0xbe86b1e2	-0.2630759
22	0xbe376e75	-0.1791323
23	0xbdb2dcaa	-0.087334946
24	0xbe83cd89	-0.25742748
25	0xbe6c8ff1	-0.23101784
26	0xbd97a446	-0.074043795
27	0x3e988885	0.29791656
28	0x3ebef3ad	0.37295285
29	0x3e4d6962	0.20059732
30	0x3e8382db	0.25685772
31	0x3ea1c3fc	0.31594837
32	0x3e694778	0.2278117
33	0xbc8a7c7f	-0.016905067
34	0xbb08a04b	-0.0020847495
35	0xbd1a6b9a	-0.037700273
36	0xbd96dc98	-0.07366294
37	0x3d735146	0.05940368
38	0x3ea453af	0.32095096
39	0xbdc7e33d	-0.09760139
40	0x3e0d66df	0.13808773
41	0x3e412437	0.18861471
42	0x3e598fb6	0.21246228
43	0x3e1fe22a	0.15613618
44	0x3e182428	0.14857543
45	0xbe37f55d	-0.17964692
46	0xbc752f6e	-0.014964921
47	0xbe761459	-0.240312
48	0x3acaca8d	0.0015471742
49	0xbcb85936	-0.022503477
50	0xbc925975	-0.017864922
51	0xbe8f0126	-0.27930564
52	0x3dbd505d	0.09243844
53	0xbdf096b4	-0.11747494
54	0xbce7ef9b	-0.028312495
55	0xbe0c6932	-0.13712004
56	0x3e66a283	0.22522931
57	0xbe9834dd	-0.2972783
58	0xbe949667	-0.29020998
59	0x3d1f1765	0.03884067
60	0x3e5b4a19	0.21414985
61	0x3ea1ac7e	0.31576914
62	0xbe797b4e	-0.24363443
63	0x3e276fe0	0.1635127
64	0xbdee21eb	-0.11627563
65	0x3e4ef8ee	0.20212147
66	0xbe6c17c6	-0.23055944
67	0xbe3a2548	-0.18178284
68	0x3e5751bd	0.21027274
69	0xbdec533c	-0.11539313
70	0xbeb59e8e	-0.3547253
71	0xbd902afe	-0.0703945

block1.bn2.weight f4 [8]
0	0x3f6a11e7	0.91433567
1	0x3f7b91d1	0.98269373
2	0x3f5d6ca0	0.86493874
3	0x3f8a3e74	1.0800309
4	0x3f613fbe	0.8798789
5	0x3f6d97ac	0.9280956
6	0x3f57bb7d	0.8427046
7	0x3f87ded3	1.0614876

block1.bn2.bias f4 [8]
0	0xbb61d4b5	-0.0034459059
1	0x3ec36681	0.38164142
2	0x3e67580d	0.22592182
3	0x3e9b92fe	0.30385584
4	0xbd861c28	-0.06548339
5	0x3e2c4142	0.16821769
6	0x3c31456c	0.010819774
7	0xbd5dd12a	-0.054154553

block1.bn2.running_mean f4 [8]
0	0x3dc35ab5	0.09538785
1	0xbe1cf2da	-0.15327016
2	0xbde3b340	-0.111181736
3	0x3e691644	0.227624
4	0x3e5fe67d	0.21865268
5	0xbdc67277	-0.09689801
6	0xbd1f653f	-0.038914915
7	0xbe10b2d8	-0.14130723

block1.bn2.running_var f4 [8]
0	0x3d80702e	0.062713966
1	0x3eb4cf53	0.35314426
2	0x3db41793	0.08793559
3	0x3eb9c04a	0.36279517
4	0x3e84cca2	0.25937372
5	0x3d8cf566	0.068827435
6	0x3cefe082	0.029281858
7	0x3d715c84	0.05892612

block1.hs2.total_ops f8 [1]
0	0x0000000000000000	0.0

block1.hs2.total_params f8 [1]
0	0x0000000000000000	0.0

block1.hs2.sigmoid.total_ops f8 [1]
0	0x0000000000000000	0.0

block1.hs2.sigmoid.total_params f8 [1]
0	0x0000000000000000	0.0

block1.se1.total_ops f8 [1]
0	0x0000000000000000	0.0

block1.se1.total_params f8 [1]
0	0x0000000000000000	0.0

block1.se1.fc.0.weight f4 [8, 8]
0	0xbe92bc7d	-0.2865943
1	0xbded587a	-0.11589141
2	0xbd8e2add	-0.06941769
3	0x3ebb224b	0.365496
4	0xbf004957	-0.5011191
5	0xbe8de996	-0.27717274
6	0xbe5c7dca	-0.2153236
7	0xbe1e02ae	-0.1543071
8	0x3ed4e3c6	0.41580027
9	0xbe102b53	-0.14079027
10	0x3e272127	0.1632124
11	0x3e9f5f5d	0.31127444
12	0x3d583c96	0.052792154
13	0xbdba7001	-0.09103394
14	0xbe256542	-0.16151908
15	0xbe1e7565	-0.1547447
16	0xbe721f90	-0.23644853
17	0x3c831cc0	0.01600492
18	0xbe89cae9	-0.2691262
19	0x3ee47ff3	0.44628868
20	0xbdd471d0	-0.103732705
21	0xbe12dd7c	-0.14342302
22	0x3db1a356	0.08673732
23	0x3e94883b	0.29010186
24	0x3ec193d2	0.3780809
25	0x3ec5fde3	0.38670263
26	0x3c09ade5	0.008403276
27	0xbe654d0e	-0.22392675
28	0x3eb0f2fb	0.3456038
29	0x3e6b24f7	0.2296332
30	0x3d3f8c58	0.0467647
31	0x3ea1d3f0	0.31607008
32	0xbe7ffd17	-0.2499889
33	0xbd2b30a9	-0.041794453
34	0x3d9a4c28	0.07534057
35	0x3e959c31	0.29220727
36	0xbce8d187	-0.028420223
37	0xbe6d16f8	-0.23153293
38	0xbe9f327c	-0.31093204
39	0x3e9f5ff2	0.31127888
40	0xbe0d9b0e	-0.1382868
41	0x3c271900	0.010198832
42	0xbda8e900	-0.08247566
43	0x3e0695b8	0.1314305
44	0xbdc86888	-0.09785563
45	0xbd93bc28	-0.07213622
46	0xbe18d1a5	-0.14923723
47	0xbe5c0661	-0.21486808
48	0x3da64be8	0.08119947
49	0x3e66cd0f	0.22539161
50	0xbe61d648	-0.22054398
51	0xbe6cbdae	-0.23119232
52	0x3ef88207	0.48536703
53	0x3eaf35dc	0.3422078
54	0x3e3f7bf1	0.18699624
55	0x3e5b0c75	0.2139147
56	0xbe1f09b7	-0.1553105
57	0x3d260cd0	0.040539563
58	0x3e8455c4	0.25846684
59	0xbde611b6	-0.11233847
60	0xbef970b9	-0.48718813
61	0xbeadda3b	-0.3395556
62	0x3e29b134	0.16571504
63	0x3e615dcc	0.22008437

block1.se1.fc.0.bias f4 [8]
0	0x3e188729	0.1489531
1	0x3cd2ec90	0.025747567
2	0xbd24bc73	-0.04021878
3	0x3eb0dc86	0.34543246
4	0x3edff4fd	0.437416
5	0xbe901231	-0.2813888
6	0x3e3c49d9	0.18387546
7	0x3dff27ca	0.12458761

block1.se1.fc.2.weight f4 [8, 8]
0	0xbd09f847	-0.03368404
1	0xbe189da9	-0.14903893
2	0xbdecad1c	-0.115564555
3	0xbcdb32bd	-0.026757592
4	0xbe787b7b	-0.24265854
5	0x3e3e3e2e	0.18578407
6	0xbe9181a9	-0.28419235
7	0x3e1a436b	0.1506478
8	0x3e81a7be	0.2532329
9	0xbe30b539	-0.17256631
10	0x3d0b4e22	0.03401006
11	0xbd510673	-0.05103154
12	0x3ebe1361	0.3712416
13	0xbea82282	-0.32838827
14	0xbee48c4c	-0.44638288
15	0x3dcba8d0	0.09944308
16	0x3e6e7fd9	0.23290958
17	0x3e7059f3	0.23471813
18	0x3da24270	0.07922828
19	0xbe9df8ed	-0.30853978
20	0xbe253ba0	-0.16136026
21	0x3e93f12f	0.28894946
22	0xbe9e57b2	-0.3092628
23	0x3e96192a	0.29316074
24	0x3e9a2029	0.3010266
25	0xbe88a650	-0.26689386
26	0xbe1659c9	-0.14682688
27	0xbd9b5ef2	-0.07586469
28	0x3ec62c6a	0.3870576
29	0xbd0b7218	-0.034044355
30	0xbdc14a6a	-0.094380215
31	0x3e33793f	0.1752672
32	0xbeee3c3d	-0.46530333
33	0x3c89db1c	0.016828112
34	0xbe0e781c	-0.13913006
35	0x3dfc889a	0.12330742
36	0xbf043b6e	-0.5165318
37	0xbe8d2f51	-0.27575162
38	0xbe1e8c79	-0.15483274
39	0x3e1f6567	0.15566026
40	0xbd0956f3	-0.033530187
41	0x3da4536a	0.080237225
42	0x3f044407	0.516663
43	0x3e9a59f5	0.30146757
44	0x3d75444a	0.05987958
45	0xb8bdf000	-9.056926e-05
46	0xbe150b21	-0.14555027
47	0x3d83501c	0.06411764
48	0x3e480a0e	0.19535086
49	0xbec37412	-0.38174492
50	0x3e80d42a	0.25161868
51	0xbe7425fa	-0.23842612
52	0xbd3fa8d6	-0.046791874
53	0x3ea9ce59	0.33165243
54	0xbe247ab8	-0.16062438
55	0x3e11f129	0.14252152
56	0xbe3a1623	-0.18172507
57	0xbed9ee00	-0.42564392
58	0xbd188cc7	-0.03724363
59	0xbeb09022	-0.34484965
60	0x3e730dd4	0.23735744
61	0xbe09418d	-0.13403912
62	0x3deec80a	0.11659248
63	0xbe14bd7a	-0.14525405

block1.se1.fc.2.bias f4 [8]
0	0xbdfa6273	-0.12225809
1	0x3e20f17a	0.15717116
2	0xbdc3a918	-0.095537364
3	0xbe2cb268	-0.16864932
4	0xbe289833	-0.1646431
5	0xbe5ab0d3	-0.21356516
6	0xbe900281	-0.2812691
7	0xbd91610d	-0.07098589

block1.se1.fc.3.total_ops f8 [1]
0	0x0000000000000000	0.0

block1.se1.fc.3.total_params f8 [1]
0	0x0000000000000000	0.0

block1.hs3.total_ops f8 [1]
0	0x0000000000000000	0.0

block1.hs3.total_params f8 [1]
0	0x0000000000000000	0.0

block1.hs3.sigmoid.total_ops f8 [1]
0	0x0000000000000000	0.0

block1.hs3.sigmoid.total_params f8 [1]
0	0x0000000000000000	0.0

block1.pw2.weight f4 [16, 8, 1, 1]
0	0xbd9e189f	-0.0771954
1	0x3edeef69	0.4354203
2	0x3ca5f269	0.020257192
3	0xbde0cfac	-0.1097711
4	0x3e98f859	0.29876974
5	0x3d67bac8	0.056574613
6	0x3e97c527	0.29642603
7	0xbe450e7e	-0.1924381
8	0x3ebe5c61	0.37179855
9	0xbe30caf5	-0.17264922
10	0x3e950cc4	0.29111302
11	0xbe5bb964	-0.2145744
12	0x3dd41f5e	0.10357545
13	0xbe7721b4	-0.2413395
14	0x3e5c74d0	0.21528935
15	0xbe966c4c	-0.293795
16	0xbd5d7206	-0.05406382
17	0xbead90e6	-0.3389961
18	0x3e7d86d9	0.24758472
19	0xbd82cde5	-0.063869275
20	0xbe3e7476	-0.18599114
21	0x3e8d07a9	0.27544907
22	0xbd01af4b	-0.031661313
23	0xbe3f2794	-0.18667442
24	0x3dbec7b1	0.09315432
25	0xbe1a7170	-0.15082335
26	0x3ca2f4ae	0.019892063
27	0x3d69c304	0.057070747
28	0xbe8eb614	-0.2787329
29	0xbedce211	-0.43141225
30	0xbbed56d5	-0.007243017
31	0xbea1553f	-0.3151035
32	0x3e66109d	0.22467275
33	0x3c737d14	0.014861364
34	0xbe6835db	-0.22676794
35	0x3e8af2a7	0.27138254
36	0xbeacd63c	-0.33757198
37	0x3cec9a0d	0.02888205
38	0x3e815821	0.2526255
39	0xbe2f715c	-0.17133087
40	0x3e944601	0.2895966
41	0x3e827207	0.2547762
42	0xbdd4464c	-0.103649706
43	0x3eb43251	0.35194638
44	0x3e8c5a51	0.27412656
45	0xbd51840d	-0.051151324
46	0xbe49bac6	-0.19700155
47	0x3dd703e7	0.10498791
48	0xbec9f464	-0.39444268
49	0xbe389320	-0.18024874
50	0x3c521f34	0.012824822
51	0xbe9faba9	-0.31185654
52	0xbeb1e8fa	-0.3474806
53	0xbecc7513	-0.3993307
54	0x3e923f9e	0.2856416
55	0xbde7b9ff	-0.11314773
56	0xbd5ede31	-0.054411117
57	0xbeb1442a	-0.34622318
58	0xbe8d79a6	-0.27631873
59	0x3d26193d	0.040551413
60	0x3e770244	0.24121958
61	0xbd8fae14	-0.07015625
62	0xbe91a62f	-0.284471
63	0x3db43fb0	0.0880121
64	0xbe9eaffa	-0.30993634
65	0x3c8b1c2e	0.01698121
66	0xbea0311a	-0.31287462
67	0x3da4bfda	0.08044405
68	0xbdd96630	-0.10615194
69	0x3e1d12ec	0.1533925
70	0x3e3e488f	0.18582366
71	0xbeb8165a	-0.35954553
72	0xbe1c2030	-0.15246654
73	0xbe8fa9fc	-0.28059375
74	0x3e1a7ca0	0.15086603
75	0xbe9d7206	-0.30751055
76	0xbda53a4b	-0.08067759
77	0xbd6dd923	-0.058068406
78	0xbe6c7924	-0.23093086
79	0x3e913d2a	0.28366977
80	0x3dab588f	0.083665006
81	0x3cef1478	0.029184565
82	0xbd0c6a78	-0.034281224
83	0x3e1dc11b	0.15405695
84	0x3e14241b	0.14466898
85	0xbe6b8bc8	-0.23002541
86	0xbda6fa28	-0.08153182
87	0xbce41a8c	-0.02784469
88	0xbeb8225b	-0.3596371
89	0x3e4f4b8c	0.20243663
90	0x3e401c12	0.18760708
91	0xbeb8c373	-0.36086616
92	0xbe032e3a	-0.12810603
93	0x3d703056	0.058639847
94	0x3e2baa8e	0.1676428
95	0xbec0fe26	-0.376939
96	0xbdd2c36a	-0.102911785
97	0x3daee4f4	0.08539763
98	0x3e5ce670	0.2157228
99	0x3e9eb006	0.3099367
100	0x3e7c1c0a	0.24620071
101	0x3ed16c96	0.40903157
102	0x3eb94608	0.36186242
103	0xbdd94cda	-0.106103614
104	0x3e52b3da	0.2057642
105	0xbee6631a	-0.44997483
106	0xbe0e2423	-0.13880973
107	0x3e85927a	0.26088315
108	0x3e7ebac3	0.24875931
109	0x3e0e0979	0.13870801
110	0x3e90c8f9	0.2827833
111	0x3eb9650e	0.3620991
112	0x3e948613	0.2900854
113	0xbe6152b0	-0.22004199
114	0xbe7f20dd	-0.2491488
115	0x3da53f59	0.08068723
116	0xbda9da59	-0.082936
117	0xbe5b445b	-0.21412794
118	0x3ea0c2a5	0.31398502
119	0xbe63c391	-0.22242571
120	0xbdf9a398	-0.12189406
121	0xbec2d511	-0.38053182
122	0xbdb02b2f	-0.086019866
123	0x3e6ee47e	0.2332935
124	0xbe82bdcd	-0.25535432
125	0xbdd1a1eb	-0.102359615
126	0x3d8779dc	0.0661504
127	0xbd641325	-0.05568232

block1.bn3.weight f4 [16]
0	0x3f89941d	1.0748326
1	0x3f81de73	1.0146011
2	0x3f89c704	1.076386
3	0x3f8d0acb	1.1018919
4	0x3f8385be	1.027519
5	0x3f6eba07	0.93252605
6	0x3f8dff16	1.1093471
7	0x3f8e3b2a	1.1111805
8	0x3f6d244c	0.9263351
9	0x3f993636	1.1969669
10	0x3f820bad	1.0159813
11	0x3f7c97d3	0.98669165
12	0x3f75135c	0.95732665
13	0x3f6ec6e3	0.9327223
14	0x3f67034b	0.902394
15	0x3f8555fa	1.0416863

block1.bn3.bias f4 [16]
0	0x3d82d129	0.063875504
1	0x3d3cce41	0.046095137
2	0x3dd6f21e	0.10495399
3	0xbd005afd	-0.031336773
4	0x3e04d111	0.12970378
5	0xbd0c4c14	-0.03425224
6	0xbcbf8d42	-0.023382787
7	0x3dd2b7d7	0.10288971
8	0x3dbd8214	0.09253326
9	0x3df25f32	0.11834563
10	0x3dda1ec3	0.106503986
11	0x3e10ca28	0.14139616
12	0xbb7855db	-0.003789297
13	0xbcc73937	-0.024319274
14	0x3d872f8f	0.06600868
15	0x3e10b4ca	0.14131466

block1.bn3.running_mean f4 [16]
0	0x3d3b6041	0.04574609
1	0xbcfad9a7	-0.030621363
2	0xbcd245f7	-0.025668127
3	0xbd72fb07	-0.05932143
4	0x3c9509cd	0.01819315
5	0x3da01e83	0.0781832
6	0xbdded77d	-0.10880945
7	0xbd577547	-0.05260208
8	0xbcc885bd	-0.024477834
9	0xbd815ad9	-0.06316156
10	0x3be058bb	0.006846515
11	0xbd10c6d7	-0.03534588
12	0x3dc7493c	0.09730765
13	0x3cc5bd86	0.024138223
14	0xbd182f25	-0.037154336
15	0xbd27a29e	-0.04092657

block1.bn3.running_var f4 [16]
0	0x3c687b2d	0.014189524
1	0x3c58869e	0.013215689
2	0x3b48b427	0.0030624957
3	0x3c0d4778	0.0086229965
4	0x3c0b154c	0.008488964
5	0x3c4ddf3f	0.012565433
6	0x3cd29138	0.025704011
7	0x3be3d4b1	0.006952845
8	0x3ba4a8f3	0.005025023
9	0x3c1a78a1	0.009428174
10	0x3b2b6c5a	0.0026157112
11	0x3c90bbd8	0.017667696
12	0x3c8651fe	0.016396519
13	0x3c4e2a7b	0.01258337
14	0x3b8fdc4b	0.0043902746
15	0x3c9bd3ef	0.019021956

block1.hs4.total_ops f8 [1]
0	0x0000000000000000	0.0

block1.hs4.total_params f8 [1]
0	0x0000000000000000	0.0

block1.hs4.sigmoid.total_ops f8 [1]
0	0x0000000000000000	0.0

block1.hs4.sigmoid.total_params f8 [1]
0	0x0000000000000000	0.0

block2.total_ops f8 [1]
0	0x0000000000000000	0.0

block2.total_params f8 [1]
0	0x0000000000000000	0.0

block2.pw1.weight f4 [48, 16, 1, 1]
0	0xbe7cfd8f	-0.247061
1	0x3d8bd7fe	0.068283066
2	0xbe5c4fac	-0.21514767
3	0x3e2b64ed	0.16737719
4	0x3e645da8	0.22301352
5	0x3dc72b1b	0.097250186
6	0xbebcf86a	-0.36908275
7	0xbe6b5580	-0.22981834
8	0xbe020e14	-0.12700683
9	0xbe95da1a	-0.2926796
10	0x3e545f05	0.20739372
11	0xbe1438ab	-0.14474742
12	0x3e214ba7	0.15751515
13	0xbe1cdf96	-0.15319666
14	0xbcc85e1d	-0.02445894
15	0xbe02c8af	-0.12771867
16	0xbea0a422	-0.31375223
17	0xbe80e72e	-0.25176376
18	0xbcf66d92	-0.030081544
19	0xbe62154f	-0.22078441
20	0xbe0a50a3	-0.13507323
21	0xbceebc69	-0.029142575
22	0x3e0f665e	0.14003894
23	0xbe0a3708	-0.13497555
24	0xbe3c9d54	-0.18419391
25	0xbdf4e4d8	-0.11957711
26	0x3dfdee94	0.12399021
27	0xbcd3647a	-0.025804747
28	0x3e2b22c4	0.16712481
29	0x3e5b48b4	0.21414453
30	0x3d383e7e	0.044981472
31	0xba6b3153	-0.00089718885
32	0xbe282c80	-0.16423225
33	0x3e068a96	0.13138804
34	0xbe0c4646	-0.13698682
35	0xbd34031e	-0.043948285
36	0xbe68970b	-0.22713868
37	0xbe7ad218	-0.24494207
38	0x3e58cbae	0.21171448
39	0x3eb75b9c	0.3581208
40	0x3dda415a	0.10656996
41	0x3df0d295	0.11758915
42	0x3cffc6ab	0.031222662
43	0xbdb88032	-0.09008826
44	0x3e2435a0	0.16036081
45	0x3e1264ec	0.14296311
46	0x3e00f8c4	0.12594897
47	0x3e46117f	0.19342612
48	0x3e137195	0.14398797
49	0xbde05453	-0.109535836
50	0xbe5e02b1	-0.21680714
51	0x3e51a833	0.20474319
52	0xbdf629e6	-0.1201971
53	0x3da5e556	0.08100383
54	0x3d12473f	0.035712477
55	0xbe04f052	-0.129823
56	0x3e2e6305	0.1702996
57	0x3d05a3fc	0.03262709
58	0xbe5514d9	-0.20808734
59	0x3dc506fe	0.09620474
60	0x3ccdc935	0.025120357
61	0xbe96705e	-0.29382604
62	0xbe5fd719	-0.21859397
63	0xbe1d9b40	-0.15391254
64	0x3da695c1	0.08134032
65	0xbd687a36	-0.056757174
66	0x3e845d6f	0.25852534
67	0x3d0c64b4	0.034275725
68	0x3e34200f	0.17590354
69	0x3e484718	0.1955837
70	0x3de0ed94	0.109828144
71	0xbc6930c8	-0.014232822
72	0x3e2a4377	0.16627298
73	0x3e848ce2	0.25888735
74	0x3e668e55	0.22515233
75	0x3dc373b0	0.0954355
76	0xbdc83cc5	-0.09777216
77	0xbdb45243	-0.08804753
78	0xbe138dac	-0.14409512
79	0xbb4b365e	-0.0031007747
80	0x3e02abad	0.12760802
81	0xbe354505	-0.1770211
82	0xbe938454	-0.28811896
83	0x3dde7465	0.10862044
84	0x3e5bd3d0	0.21467519
85	0x3e85c2fe	0.2612533
86	0xbe34b61c	-0.17647594
87	0xbe46f6e0	-0.19430113
88	0xbe27d3cf	-0.16389392
89	0x3ae1d005	0.0017228132
90	0xbd922b74	-0.07137194
91	0x3e0a0de4	0.13481861
92	0x3e400a25	0.1875387
93	0x3c51ce24	0.012805495
94	0x3e2b61b0	0.16736484
95	0xbb2e359f	-0.0026582254
96	0x3da29d4c	0.07940158
97	0xbe5ff19d	-0.21869512
98	0x3e9cdcec	0.306373
99	0x3df15a8d	0.11784849
100	0xbd372b7c	-0.044719204
101	0xbc7b6766	-0.015344476
102	0x3e35c805	0.17752083
103	0x3d973d5d	0.07384751
104	0xbde9224c	-0.11383495
105	0x3d0f3bb0	0.03496903
106	0xbd63fd5d	-0.055661548
107	0xbe450009	-0.19238295
108	0xbe36974f	-0.17831157
109	0xbd5b85a5	-0.05359425
110	0xbe1ed94e	-0.15512583
111	0x3d134f20	0.03596413
112	0x3c89eaef	0.016835658
113	0x3d5ebbd9	0.054378364
114	0xbd63fbd0	-0.05566007
115	0x3c20f191	0.009823219
116	0xbde063cb	-0.10956534
117	0x3cc94b11	0.024571927
118	0xbe23a0f7	-0.15979372
119	0xbded91fa	-0.116001084
120	0x3d3fbeb2	0.04681272
121	0x3e6ad35e	0.22932193
122	0xbcbf9ba7	-0.02338965
123	0x3e23b42d	0.159867
124	0xbe6d7918	-0.23190725
125	0xbe80bb83	-0.2514306
126	0x3c844f9d	0.016151244
127	0xbde3a473	-0.111153506
128	0x3e3cde21	0.1844411
129	0x3dede0b3	0.116151236
130	0xbea3ff65	-0.32030788
131	0x3dd4af8e	0.10385047
132	0x3e74ca47	0.23905288
133	0x3e6afa2a	0.22946993
134	0x3e3aa48f	0.18226837
135	0xbb89089d	-0.004181935
136	0x3d8ad7a0	0.067794085
137	0x3dbcf82a	0.09227021
138	0xbdff7ee1	-0.12475372
139	0xbdfc8f84	-0.12332061
140	0x3db6a427	0.08918028
141	0x3e056dc9	0.13030161
142	0xbc0cae51	-0.008586482
143	0x3e8b36b1	0.27190164
144	0xbd872b01	-0.06599999
145	0x3e6e94c7	0.23298942
146	0xbe11326c	-0.1417939
147	0xbe8a4b4e	-0.27010578
148	0x3d7838fd	0.060601223
149	0x3e76b384	0.24091917
150	0xbe204feb	-0.15655486
151	0xbe3fcfb0	-0.1873157
152	0xbda2329d	-0.0791981
153	0x3dfbaaec	0.1228846
154	0x3e4306c5	0.19045551
155	0xbda2a96a	-0.079424694
156	0x3aae7b2c	0.0013311855
157	0x3d27c1e1	0.04095638
158	0x3d2bf5a0	0.041982293
159	0xbd4aa86e	-0.049477033
160	0x3e07835b	0.13233702
161	0x3e4ad678	0.19808376
162	0x3da1912b	0.07889017
163	0x3e9434f8	0.28946662
164	0x3d9b5691	0.075848706
165	0xbcfbe842	-0.030750398
166	0x3bbcdb52	0.0057634497
167	0x3d66e398	0.056369394
168	0x3de9a844	0.11409047
169	0xbe4fb7a3	-0.20284896
170	0x3dfa5102	0.12222482
171	0xbe43659c	-0.1908173
172	0x3e20580f	0.15658592
173	0x3b20c39e	0.002453066
174	0xbc9068fe	-0.01762819
175	0x3d9d5979	0.07683081
176	0xbcded5bd	-0.027201528
177	0x3c68d163	0.014210078
178	0x3dc8907c	0.09793183
179	0xbea30f03	-0.3184739
180	0xbe73f218	-0.2382282
181	0x3d8cb799	0.06870956
182	0x3cd0c4a5	0.025484392
183	0x3de85c23	0.11345699
184	0x3e5567d9	0.20840396
185	0xbd73e1e5	-0.0595416
186	0xbe6f6828	-0.23379576
187	0x3e424ff6	0.18975815
188	0xbd51095c	-0.051034316
189	0x3ddfdea3	0.109311365
190	0xbdcae8d5	-0.099076904
191	0xbd887c90	-0.066643834
192	0xbe1cd638	-0.15316093
193	0xbe754b77	-0.23954569
194	0xbe801357	-0.25014755
195	0xbceb2c09	-0.028707521
196	0x3c20bbd9	0.009810411
197	0x3e24da5f	0.16098927
198	0xbd5540e2	-0.05206383
199	0xbe3ddc37	-0.18541037
200	0x3e3ddbdd	0.18540902
201	0xbe00be9e	-0.12572715
202	0xbd03b598	-0.032155603
203	0xbd026f1f	-0.031844255
204	0x3daf4a72	0.08559121
205	0xbd801fab	-0.0625604
206	0xbe130132	-0.14355925
207	0x3deddeeb	0.11614784
208	0x3e28b454	0.1647504
209	0xbe29f44b	-0.16597097
210	0x3dce0c5b	0.1006095
211	0x3e9b2772	0.30303532
212	0xbd857cce	-0.06517945
213	0xbe8630f8	-0.26209235
214	0x3d97b657	0.074078254
215	0x3e2f05f3	0.17092113
216	0xbceabdd5	-0.028654972
217	0xbdbb85d1	-0.09156383
218	0x3e77f764	0.24215466
219	0xbe3fa981	-0.18717004
220	0xbd7c9d4e	-0.061673455
221	0xbe1f3691	-0.15548159
222	0xbdb5bb23	-0.08873584
223	0xbdb75630	-0.08951986
224	0xbe675e1c	-0.22594494
225	0x3e4e1db8	0.20128524
226	0xbce52248	-0.027970448
227	0xbda7c329	-0.08191521
228	0xbd91ea91	-0.07124818
229	0x3e558286	0.20850572
230	0xbe2c8831	-0.16848828
231	0x3d89cf16	0.06728952
232	0x3c2ffd53	0.01074155
233	0xbe0d227d	-0.13782687
234	0xbe7d742e	-0.2475135
235	0xbd164abe	-0.036692373
236	0xbe2cf18f	-0.16889022
237	0x3e123f50	0.14281964
238	0x3dfc39b8	0.123156965
239	0xbe002dd5	-0.12517484
240	0x3dd45b5f	0.1036899
241	0xbdf81c6c	-0.12114796
242	0xbe0bbf46	-0.13647184
243	0x3d9d1676	0.076703
244	0xbe106396	-0.14100489
245	0xbe312a95	-0.173014
246	0x3e98a7e6	0.29815596
247	0x3e85514d	0.2603859
248	0x3d4d93db	0.050189834
249	0xbd15b2e0	-0.03654754
250	0xbb1334b7	-0.002246184
251	0x3d9a463b	0.07532927
252	0xbd9b99af	-0.07597672
253	0x3df94e6a	0.121731594
254	0xbe1cf8ec	-0.15329331
255	0x3e09bfc9	0.13452066

block2.bn1.weight f4 [48]
0	0x3f8b8544	1.0900044
1	0x3f6e5cf4	0.93110585
2	0x3f912893	1.1340507
3	0x3f7ee0c9	0.99561745
4	0x3f5fb416	0.87384164
5	0x3f8f209b	1.1181825
6	0x3f898dfb	1.0746454
7	0x3f74eeb5	0.9567674
8	0x3f6f3b47	0.93449825
9	0x3f8d2c7c	1.10292
10	0x3f7f22e3	0.9966261
11	0x3f6c9d93	0.9242794
12	0x3f91b56f	1.1383494
13	0x3f756a7e	0.9586562
14	0x3f8b0afb	1.0862726
15	0x3f928d1c	1.1449313
16	0x3f612d90	0.8796015
17	0x3f975d67	1.1825379
18	0x3f825548	1.0182276
19	0x3f7ea2fe	0.99467456
20	0x3f8ee3b3	1.1163238
21	0x3f6a5886	0.91541326
22	0x3fa37c73	1.2772354
23	0x3f75ed9c	0.9606569
24	0x3f80c8d6	1.006129
25	0x3f6b82fe	0.91996753
26	0x3f5ebea7	0.8700966
27	0x3f86d229	1.0532886
28	0x3fa20051	1.2656347
29	0x3f6afb8d	0.91790086
30	0x3f8f3276	1.1187274
31	0x3f88566c	1.0651374
32	0x3f8fc7ae	1.1232812
33	0x3f87eb0e	1.0618608
34	0x3f8d91fa	1.1060174
35	0x3f98e5f3	1.1945175
36	0x3f789c85	0.9711383
37	0x3f829958	1.0203047
38	0x3f7dc977	0.99135536
39	0x3f8a7427	1.0816697
40	0x3f97048d	1.1798264
41	0x3f51bfe4	0.81933427
42	0x3f7edd9e	0.9955691
43	0x3f87f57f	1.0621794
44	0x3f8084c0	1.0040512
45	0x3f6e33bd	0.93047696
46	0x3f70a8e3	0.940077
47	0x3f7cb8df	0.9871959

block2.bn1.bias f4 [48]
0	0x3df01959	0.11723585
1	0x3d7a1b58	0.061061233
2	0x3bf10e51	0.007356443
3	0x3d972b09	0.07381255
4	0x3af5789b	0.001872796
5	0x3e8013b6	0.25015038
6	0x3d21e548	0.0395253
7	0x3de1fc3b	0.11034437
8	0x3db0188a	0.085984305
9	0xbd156a87	-0.036478546
10	0x3e05083b	0.12991421
11	0x3e308e58	0.172418
12	0x3db3c782	0.087782875
13	0x3e16b92a	0.14719072
14	0x3d5aea86	0.053446315
15	0xbdff7cdd	-0.12474988
16	0x3e634f29	0.22198166
17	0x3e226b12	0.15861157
18	0x3e2ed35f	0.17072819
19	0x3e5784fa	0.2104682
20	0x3df720d1	0.12066806
21	0x3da73842	0.08165027
22	0x3e02af60	0.12762213
23	0xbcdc1879	-0.026867138
24	0x3d94397d	0.072375275
25	0x3e0626a6	0.1310068
26	0x3df9b14b	0.12192019
27	0x3e2f1caa	0.17100778
28	0x3e8616d6	0.26189297
29	0xbd54b26c	-0.05192797
30	0x3daad159	0.08340711
31	0x3c385208	0.0112500265
32	0xbdb3c4b7	-0.08777755
33	0x3d89869f	0.0671513
34	0x3df4d118	0.11953944
35	0xbdbafebc	-0.09130618
36	0x3b4e5a3c	0.003148689
37	0x3d9d064e	0.07667218
38	0x3d6ecee0	0.05830276
39	0xbc6bcce3	-0.0143921105
40	0x3dd716f5	0.105024256
41	0x3db99c63	0.090630315
42	0x3db098ae	0.08622871
43	0xbda54ec2	-0.080716625
44	0x3df0dbf8	0.11760706
45	0xbe3e2f17	-0.18572651
46	0xbd2c86b9	-0.04212067
47	0x3e2df11e	0.1698651

block2.bn1.running_mean f4 [48]
0	0xbe7995cd	-0.2437355
1	0xbe4616ad	-0.19344588
2	0x3e168ad8	0.14701402
3	0xbe03de1a	-0.12877694
4	0x3e815957	0.25263473
5	0xbcf361ec	-0.029709779
6	0x3a615f3c	0.000859726
7	0xbd8ddff4	-0.06927481
8	0x3e3c1cdc	0.18370384
9	0xbd77b778	-0.060477704
10	0x3e26e0d3	0.16296701
11	0xbd5ecac4	-0.05439259
12	0xbe3839ed	-0.17990847
13	0x3cb9ec58	0.022695705
14	0xbe169b14	-0.14707595
15	0x3daf3514	0.08555046
16	0x3e193318	0.14960897
17	0xbe2f621a	-0.17127267
18	0xbd55c6d3	-0.052191567
19	0x3e2da180	0.16956139
20	0xbd591621	-0.05299962
21	0xbbc54c5c	-0.0060210656
22	0x3e620a30	0.22074199
23	0xbea8f992	-0.33002907
24	0xbd9458f7	-0.07243531
25	0xbe1b1683	-0.15145306
26	0x3da9bbba	0.08287759
27	0xbd4852c1	-0.048907045
28	0xbe4710b8	-0.19439971
29	0xbe3c083d	-0.18362518
30	0xbe643b2d	-0.22288199
31	0x3d6a73e0	0.057239413
32	0xbdbac985	-0.09120468
33	0x3d74d4dc	0.05977331
34	0x3cc78249	0.024354117
35	0xbdb9eff1	-0.09078968
36	0xbe58771d	-0.21139188
37	0x3d6ddd10	0.05807215
38	0xbdefe932	-0.117144
39	0xbe298dec	-0.16558045
40	0x3d91fa2f	0.07127797
41	0xbcfa348f	-0.03054264
42	0xbe981496	-0.29703206
43	0xbd8284f9	-0.06373019
44	0x3e34913d	0.17633529
45	0xbda7ad04	-0.08187297
46	0x3d5fcc7e	0.05463838
47	0xbe25b119	-0.16180839

block2.bn1.running_var f4 [48]
0	0x3e6c0ae3	0.23051028
1	0x3db17058	0.08664006
2	0x3e34936b	0.1763436
3	0x3e8ee2f5	0.2790753
4	0x3dc53da3	0.09630897
5	0x3e92fa0b	0.28706393
6	0x3e1b83b7	0.15186964
7	0x3e4d8a43	0.20072274
8	0x3ebdbe2e	0.37059158
9	0x3e4ff687	0.20308886
10	0x3df12cb7	0.11776107
11	0x3e2caaba	0.16862002
12	0x3defb102	0.117036834
13	0x3e0219c0	0.12705135
14	0x3cccf3e3	0.025018638
15	0x3e05bdf8	0.13060749
16	0x3d83f426	0.06443052
17	0x3e6319bf	0.2217779
18	0x3e233f36	0.15942082
19	0x3de9f230	0.11423147
20	0x3e9c2520	0.30497074
21	0x3e8b7861	0.2724028
22	0x3eab40cf	0.33447883
23	0x3ebac5bd	0.36478987
24	0x3e2835b0	0.1642673
25	0x3e598337	0.2124146
26	0x3e0a7e45	0.1352473
27	0x3e69105e	0.2276015
28	0x3dffb882	0.12486364
29	0x3eba84a7	0.3642933
30	0x3d35be76	0.04437109
31	0x3e0e4ac7	0.13895713
32	0x3e29e73a	0.16592112
33	0x3df266cc	0.11836013
34	0x3de8b8f2	0.113634005
35	0x3e1ac6cb	0.15114896
36	0x3d8c56df	0.06852507
37	0x3eb30dba	0.3497141
38	0x3e898370	0.2685809
39	0x3e887d20	0.26657963
40	0x3e501def	0.20323919
41	0x3df9252d	0.12165294
42	0x3da999c2	0.0828128
43	0x3e60b947	0.21945678
44	0x3dcc64c8	0.0998016
45	0x3ebb306a	0.36560374
46	0x3e2f34b6	0.17109951
47	0x3e58abb2	0.21159247

block2.hs1.total_ops f8 [1]
0	0x0000000000000000	0.0

block2.hs1.total_params f8 [1]
0	0x0000000000000000	0.0

block2.hs1.sigmoid.total_ops f8 [1]
0	0x0000000000000000	0.0

block2.hs1.sigmoid.total_params f8 [1]
0	0x0000000000000000	0.0

block2.dw1.weight f4 [48, 1, 3, 3]
0	0x3d63d3ef	0.055622038
1	0xbd120b21	-0.035655145
2	0x3e938a1c	0.28816307
3	0xbe067e95	-0.13134225
4	0xbe1f43b1	-0.15553166
5	0x3e0d93b3	0.13825874
6	0x3d64e01d	0.055877794
7	0xbe1a6a2f	-0.15079568
8	0xbd2896aa	-0.04115931
9	0xbe20788e	-0.15670988
10	0x3e85ff04	0.26171124
11	0xbda87031	-0.08224524
12	0xbd9bfb64	-0.07616308
13	0x3e0cd598	0.13753355
14	0xbdee81e5	-0.11645869
15	0x3e987634	0.29777682
16	0x3bd0ea3d	0.0063755796
17	0xbea65d70	-0.32493162
18	0xbe8f555c	-0.27994812
19	0x3e08cd9b	0.13359682
20	0x3e626cd5	0.22111829
21	0xbe9b0001	-0.3027344
22	0x3bdd1ac9	0.006747578
23	0xbe8d2162	-0.27564532
24	0x3e46aa1c	0.19400829
25	0x3d937b18	0.07201213
26	0xbeed0f99	-0.46300963
27	0x3d69b06e	0.057053022
28	0x3e0604ce	0.1308777
29	0xbe494ae3	-0.19657473
30	0x3dfb0334	0.1225647
31	0x3d454593	0.048162054
32	0x3e85567b	0.26042542
33	0x3d87594c	0.06608829
34	0x3ec4442c	0.3833326
35	0x3ef815fb	0.4845427
36	0xbe214998	-0.1575073
37	0x3e97fb6a	0.29684
38	0xbd9ee12c	-0.07757792
39	0x3e2970a3	0.16546874
40	0x3e24c498	0.1609062
41	0xbe128309	-0.14307798
42	0x3e073ccd	0.13206787
43	0x3ea59410	0.32339525
44	0xbe909749	-0.2824042
45	0x3e86c695	0.2632338
46	0xbe9630b6	-0.29334038
47	0x3e9e943f	0.30972478
48	0x3def5cc6	0.11687617
49	0x3e15ba6f	0.146219
50	0xbea86f61	-0.32897475
51	0xbea25b55	-0.31710306
52	0x3e519717	0.20467792
53	0x3dcdc80c	0.100479215
54	0xbe35bc67	-0.17747651
55	0x3e6d0a93	0.23148565
56	0x3d0e8bd1	0.034801308
57	0x3d8e4337	0.06946414
58	0xbe089d1c	-0.13341182
59	0xbed79d41	-0.42112163
60	0xbe254a69	-0.16141666
61	0xbe7e11f8	-0.24811542
62	0xbe280daf	-0.1641147
63	0x3defc865	0.11708144
64	0xbe00ce6e	-0.12578747
65	0xbe7b0a40	-0.24515629
66	0x3e42f78a	0.19039741
67	0xbe96f49b	-0.29483494
68	0xbdff191f	-0.12455963
69	0x3e862555	0.26200357
70	0xbe3f9a35	-0.18711169
71	0xbe2a9c38	-0.16661155
72	0x3e92600d	0.28588906
73	0xbea14480	-0.31497574
74	0x3ea57d09	0.32321957
75	0x3eb35f9e	0.35033888
76	0x3d522e69	0.05131379
77	0x3e26532a	0.16242662
78	0x3e291208	0.16510785
79	0x3e2f0e50	0.17095304
80	0xbec4a5b1	-0.38407663
81	0xbe57565d	-0.21029039
82	0xbe4fdcf8	-0.20299137
83	0xbd6164f8	-0.055027932
84	0xbe55c710	-0.20876718
85	0x3e5a4660	0.21315908
86	0x3d3d64ea	0.046238817
87	0x3ea0d0fd	0.31409445
88	0xbe13a0c5	-0.14416797
89	0x3bf58a21	0.007493273
90	0xbeb03d58	-0.34421802
91	0x3c23e999	0.0100044245
92	0x3e4c5373	0.19953708
93	0xbe34691f	-0.17618226
94	0x3dd65cfb	0.10466953
95	0xbd0579b2	-0.03258676
96	0x3e4bd0e8	0.1990391
97	0xbeab0b1a	-0.33406907
98	0x3e127ab5	0.14304622
99	0xbdba81de	-0.091068015
100	0xbe730168	-0.23731005
101	0xbdf13b0f	-0.11778843
102	0xbea22ee8	-0.31676412
103	0x3db78b40	0.08962107
104	0x3dbb5114	0.09146324
105	0x3d1cce5d	0.03828274
106	0xbe3a31c4	-0.18183047
107	0x3e30208d	0.17199917
108	0xbd4d5ebf	-0.050139185
109	0xbe00d793	-0.12582235
110	0x3e806d0e	0.25083202
111	0xbe49f6b2	-0.19723013
112	0x3b8e69fc	0.0043461304
113	0x3d990274	0.07471171
114	0x3c8a3557	0.016871138
115	0x3db6e1bb	0.089297734
116	0x3eb18f69	0.34679726
117	0x3dbd0ae3	0.09230592
118	0xbe23ac0f	-0.15983604
119	0xbe42aac1	-0.1901045
120	0x3e5ef5bd	0.21773429
121	0xbe649304	-0.22321707
122	0xbe503eba	-0.20336428
123	0xbc94c89b	-0.018162062
124	0xbec0703c	-0.37585628
125	0x3ca7587e	0.020427939
126	0xbc1bad91	-0.009501831
127	0xbc90e8be	-0.017689105
128	0x3e65360b	0.22383897
129	0xbe846a31	-0.25862268
130	0xbe495066	-0.19659576
131	0xbb9ed7f2	-0.00484752
132	0x3cef228f	0.029191284
133	0x3e9ccbc8	0.30624223
134	0xbe7ca42f	-0.24672006
135	0xbe77f04c	-0.2421276
136	0x3e301642	0.1719599
137	0xbe3e3c8c	-0.18577784
138	0x3e85f9d5	0.2616717
139	0x3d79a0a9	0.060944233
140	0x3d554390	0.052066386
141	0xbeac706d	-0.33679524
142	0xbd1a3e6a	-0.03765718
143	0x3e9788e3	0.29596624
144	0x3e018e59	0.12651958
145	0x3d3509f9	0.044198964
146	0xbe611eaa	-0.21984354
147	0x3db552b5	0.08853666
148	0x3e1e1152	0.15436295
149	0x3e9b0a9c	0.30281532
150	0xbe012ef0	-0.12615561
151	0xbe90a359	-0.28249624
152	0xbd6d0543	-0.057866346
153	0x3e3cdd40	0.18443775
154	0x3da7ee39	0.08199734
155	0xbe9e9ffa	-0.30981427
156	0x3e725236	0.23664173
157	0x3cefc3ce	0.029268172
158	0xbdebe876	-0.11518948
159	0xbe1ef918	-0.15524709
160	0xbe368395	-0.17823632
161	0x3e3e85a0	0.18605661
162	0xbe2810d7	-0.16412674
163	0xbe8a0383	-0.26955804
164	0x3e4ad1d9	0.19806613
165	0x3e1c2791	0.15249468
166	0xbe20b3cf	-0.15693592
167	0xbe8544c7	-0.26029035
168	0x3e9b7d65	0.30369106
169	0x3e407bbd	0.18797202
170	0x3e5b055f	0.21388768
171	0x3e96a342	0.2942143
172	0x3e7e3317	0.24824177
173	0x3df564c8	0.11982113
174	0xbe4cdaec	-0.20005387
175	0xbc2e762a	-0.01064829
176	0x3ddd10d3	0.107942246
177	0xbead7896	-0.33881062
178	0x3e0cc1d9	0.13745822
179	0xbe305b66	-0.17222366
180	0xbea1059c	-0.31449592
181	0x3e73f70c	0.2382471
182	0x3dd8ca2e	0.10585438
183	0x3eb21723	0.34783277
184	0x3e74f5ad	0.23921843
185	0x3dc5cdde	0.09658407
186	0x3e2d3543	0.16914849
187	0xbead9a04	-0.33906567
188	0xbece8dcc	-0.40342557
189	0x3d4e3309	0.05034164
190	0x3e8923ce	0.2678513
191	0xbe3bff57	-0.18359123
192	0x3e4cb08a	0.1998922
193	0x3d9b41e3	0.07580926
194	0x3e8cb1cb	0.27479395
195	0xbe838680	-0.25688553
196	0xbe038644	-0.12844187
197	0xbdebe076	-0.11517422
198	0xbe3838a7	-0.17990361
199	0x3deabdbf	0.114619724
200	0x3dd5de96	0.104428455
201	0x3dba2e95	0.09090916
202	0x3e515912	0.20444134
203	0x3e42f04e	0.19036981
204	0x3e96f8fc	0.29486835
205	0x3d09d383	0.03364898
206	0x3e5c2247	0.21497451
207	0xbe2431c8	-0.16034615
208	0xbea2b1cd	-0.31776276
209	0xbe994b71	-0.2994037
210	0x3e123b80	0.1428051
211	0xbe511931	-0.20419766
212	0x3e16e2ac	0.14734906
213	0x3dab81e7	0.08374386
214	0x3e2fddfa	0.17174521
215	0x3ecab83b	0.39593682
216	0xbe47b7ba	-0.1950368
217	0x3c8c8dfd	0.017157549
218	0x3d917b9f	0.07103657
219	0xbe9c84ee	-0.30570167
220	0xbe09c651	-0.13454558
221	0x3dfb86be	0.122815594
222	0x3e6aa13a	0.22913066
223	0xbe888736	-0.26665658
224	0x3d91ac97	0.07112997
225	0x3d18583c	0.03719352
226	0x3e2d17bc	0.16903585
227	0xbe8a9f33	-0.27074584
228	0x3dac8ea9	0.08425648
229	0x3c3382ed	0.010956508
230	0xbd319204	-0.043352142
231	0x3c57d784	0.0131739415
232	0xbe74a284	-0.2389012
233	0xbee75d5c	-0.45188415
234	0x3e062350	0.13099408
235	0x3dbcf05e	0.09225534
236	0x3e274717	0.16335712
237	0xbca4173e	-0.020030614
238	0xbe6bc222	-0.23023275
239	0xbe3971a6	-0.1810976
240	0xbc8cbd18	-0.01718001
241	0xbdcde85c	-0.10054085
242	0xbe1df1d5	-0.15424283
243	0xbe2028a4	-0.15640503
244	0xbd8aba1a	-0.06773777
245	0x3e4c0d13	0.19926862
246	0xbe85de4f	-0.2614617
247	0x3e74dd5e	0.2391257
248	0xbcece973	-0.028919911
249	0xbd1f4fed	-0.038894583
250	0x3e558deb	0.20854919
251	0xbe4b4454	-0.19850284
252	0xbe4aee13	-0.1981738
253	0xbcffe2d1	-0.031236084
254	0x3e244138	0.16040504
255	0x3d17b9bd	0.03704237

block2.bn2.weight f4 [48]
0	0x3f89ef03	1.0776066
1	0x3f80690f	1.0032061
2	0x3f726b6a	0.9469515
3	0x3f888d3e	1.0668104
4	0x3f738730	0.95128155
5	0x3f79ebaa	0.9762522
6	0x3f815c16	1.0106227
7	0x3f84e14b	1.0381254
8	0x3f75cf90	0.9601984
9	0x3f784eb3	0.96995085
10	0x3f7192f2	0.94364846
11	0x3f8cad65	1.0990416
12	0x3f7c5c9d	0.98578817
13	0x3f86e48c	1.0538497
14	0x3f8110b6	1.0083225
15	0x3f8661cf	1.0498599
16	0x3f8354f2	1.0260298
17	0x3f810e28	1.0082445
18	0x3f84508f	1.0337085
19	0x3f7c6471	0.9859076
20	0x3f5f7d9e	0.8730105
21	0x3f7d7126	0.99000776
22	0x3f72373a	0.9461552
23	0x3f88a439	1.0675117
24	0x3f7df65e	0.9920405
25	0x3f851ce8	1.0399446
26	0x3f84df45	1.0380636
27	0x3f7abd39	0.9794498
28	0x3f851255	1.039622
29	0x3f8525b8	1.0402136
30	0x3f7e4bf4	0.99334645
31	0x3f74c98a	0.95620024
32	0x3f79efc4	0.9763148
33	0x3f7c461b	0.9854447
34	0x3f81d33c	1.0142589
35	0x3f8dd461	1.1080438
36	0x3f85b992	1.0447257
37	0x3f6fca30	0.9366789
38	0x3f9798c6	1.1843498
39	0x3f833681	1.0251008
40	0x3f8797bc	1.0593181
41	0x3f8ef71f	1.1169165
42	0x3f73326d	0.9499882
43	0x3f908892	1.1291678
44	0x3f827477	1.0191792
45	0x3f8701ea	1.0547459
46	0x3f846a37	1.0344914
47	0x3f8bbebf	1.0917586

block2.bn2.bias f4 [48]
0	0x3e179ed2	0.14806679
1	0x3da3febe	0.080075726
2	0xbca6fd2f	-0.0203844
3	0x3e6be2eb	0.23035781
4	0xbd9924c9	-0.07477719
5	0xbd629629	-0.055318985
6	0x3dac6632	0.0841793
7	0x3cebecda	0.028799463
8	0x3d0a73de	0.033801906
9	0x3d390e9d	0.045179952
10	0x3cf67f7f	0.030090092
11	0x3e08930c	0.13337344
12	0x3dbe5368	0.09293252
13	0x3dcbecd0	0.09957278
14	0x3e07c749	0.13259615
15	0x3cb1dca5	0.021711657
16	0x3d066384	0.03280975
17	0xbd3fe088	-0.04684499
18	0x3e103702	0.14083484
19	0x3d0d714e	0.034531884
20	0xbd8e7c1b	-0.06957265
21	0x3d888baf	0.066672675
22	0xbca48382	-0.020082239
23	0x3e269ccc	0.16270751
24	0x3e00d71e	0.1258206
25	0x3e23583a	0.15951625
26	0x3dbee8b9	0.09321732
27	0x3db1e80b	0.08686837
28	0x3e30ad45	0.17253597
29	0x3e24fb1a	0.16111413
30	0x3d94fe25	0.07275037
31	0xbdd24ac6	-0.10268168
32	0x3cf38a74	0.029729106
33	0xbc2b83a0	-0.010468394
34	0x3dd51ead	0.104062416
35	0x3e361ffe	0.17785642
36	0x3d52df54	0.051482514
37	0xbd9dda30	-0.077076316
38	0x3e20d3c2	0.15705779
39	0x3e5b0abc	0.21390814
40	0x3db329b0	0.08748186
41	0xbd37b40f	-0.04484945
42	0x3df3f579	0.119120546
43	0x3e72f17d	0.23724933
44	0x3ca5cec7	0.0202402
45	0x3d55f160	0.052232146
46	0x3df69b3a	0.12041326
47	0x3e2d5f37	0.16930853

block2.bn2.running_mean f4 [48]
0	0x3c1a4493	0.009415763
1	0xbc6091e7	-0.013706661
2	0xbe17d8bc	-0.14828771
3	0x3e468302	0.19385913
4	0x3d1bff02	0.03808499
5	0x3d1944b3	0.037419032
6	0xbe13484d	-0.1438305
7	0xbdd1f360	-0.10251498
8	0x3da8a2d7	0.08234184
9	0xbbfa3909	-0.0076361937
10	0xbcaff556	-0.02147929
11	0xbdeb6671	-0.114941485
12	0x3dfbb094	0.12289539
13	0xbe2d3f74	-0.16918737
14	0xbd14843d	-0.036258925
15	0x3cee27a5	0.029071638
16	0x3c2cffea	0.010559062
17	0xbcaa4904	-0.02078677
18	0x3d8f97e0	0.0701139
19	0x3ce0411e	0.0273748
20	0xbc596d23	-0.013270649
21	0xbc338f43	-0.010959449
22	0x3e6dcd81	0.23222925
23	0xbba9341c	-0.0051636826
24	0xbd256510	-0.040379584
25	0xbde569b4	-0.11201802
26	0xbd88db26	-0.06682424
27	0xbcac9af2	-0.021069977
28	0x3e54857d	0.20754047
29	0xbb6bae1b	-0.003596193
30	0x3d17e123	0.03707994
31	0x3e4050ea	0.18780866
32	0x3d7308a0	0.059334397
33	0xbd9edf99	-0.077574916
34	0xbe0e31c8	-0.13886178
35	0x3e467e32	0.19384077
36	0x3b956e09	0.0045602364
37	0x3dfa21c9	0.12213475
38	0xbe2b0e7f	-0.16704749
39	0xbdc0f0ac	-0.094209045
40	0xbe36d26c	-0.17853707
41	0x3ccc94cc	0.024973296
42	0x3dd4bed7	0.10387962
43	0x3e0ac6b6	0.13552365
44	0xbd878107	-0.06616407
45	0xbcaa25f1	-0.020770045
46	0xbdc43f26	-0.09582357
47	0xbb514ffe	-0.0031938548

block2.bn2.running_var f4 [48]
0	0x3d94269f	0.07233929
1	0x3d8d0862	0.068863645
2	0x3e090714	0.13381606
3	0x3ddae53c	0.10688254
4	0x3de30f6a	0.110869244
5	0x3e2b9c2f	0.16758798
6	0x3d83f4bf	0.06443166
7	0x3cbda962	0.023152057
8	0x3e90dbdc	0.2829274
9	0x3e2efdf0	0.17089057
10	0x3dc277f4	0.094955355
11	0x3d42c09f	0.04754698
12	0x3def435c	0.1168277
13	0x3d99c945	0.07509092
14	0x3df7d582	0.1210127
15	0x3cabc377	0.020967228
16	0x3df2c24a	0.11853464
17	0x3da55b36	0.08074038
18	0x3dc33b3d	0.09532783
19	0x3e687ef1	0.22704674
20	0x3eeab7b4	0.4584328
21	0x3e679cf9	0.22618474
22	0x3f1739a4	0.5907233
23	0x3d782584	0.060582653
24	0x3db6396c	0.08897671
25	0x3d06de5c	0.032926902
26	0x3cf74ab6	0.030186992
27	0x3d849898	0.064744174
28	0x3ed2ae45	0.41148582
29	0x3cf3c33f	0.029756187
30	0x3e3b7b09	0.18308653
31	0x3e351f20	0.17687654
32	0x3dc5e22a	0.09662278
33	0x3e39ea92	0.18155888
34	0x3e8fef53	0.28112277
35	0x3e6c683a	0.23086634
36	0x3d2458f8	0.04012391
37	0x3d9fa4b4	0.077950865
38	0x3d8726e6	0.06599216
39	0x3db332d5	0.0874993
40	0x3f17555d	0.5911463
41	0x3cd5f216	0.026116412
42	0x3cbbed9e	0.022940453
43	0x3e2b7811	0.1674502
44	0x3e953208	0.29139733
45	0x3cc00673	0.023440575
46	0x3dd6959f	0.10477757
47	0x3d6da77a	0.058021046

block2.hs2.total_ops f8 [1]
0	0x0000000000000000	0.0

block2.hs2.total_params f8 [1]
0	0x0000000000000000	0.0

block2.hs2.sigmoid.total_ops f8 [1]
0	0x0000000000000000	0.0

block2.hs2.sigmoid.total_params f8 [1]
0	0x0000000000000000	0.0

block2.se1.total_ops f8 [1]
0	0x0000000000000000	0.0

block2.se1.total_params f8 [1]
0	0x0000000000000000	0.0

block2.se1.fc.0.weight f4 [16, 48]
0	0xbd9822aa	-0.07428487
1	0x3d260ff4	0.040542558
2	0xbe631e74	-0.22179586
3	0x3e57424a	0.21021381
4	0x3bbf2418	0.00583316
5	0xbde16e3e	-0.11007355
6	0xbc56a928	-0.013101853
7	0x3e02105b	0.12701552
8	0x3e13665c	0.14394516
9	0x3e0b6bef	0.13615392
10	0xbd053557	-0.032521572
11	0x3da34f88	0.07974154
12	0x3e1de5ba	0.15419665
13	0x3c074514	0.008256216
14	0x3c8c902a	0.017158587
15	0xbd867907	-0.06566053
16	0x3d5a2acd	0.053263474
17	0x3d9c2f30	0.07626188
18	0x3d3eb8a3	0.046562802
19	0x3c946686	0.018115293
20	0x3db301e6	0.087405965
21	0x3d69d623	0.057088982
22	0x3da086d8	0.078382194
23	0x3e4d34d3	0.20039682
24	0x3c9441dd	0.018097812
25	0xbdd050a0	-0.10171628
26	0xbd1e5d27	-0.038663056
27	0x3de57c2c	0.112053245
28	0xbd1faeb5	-0.038984973
29	0x3e0ab18e	0.13544294
30	0x3dd30958	0.103045166
31	0xbe1a342e	-0.15058967
32	0xbd132abd	-0.03592943
33	0xbe100213	-0.14063291
34	0x3d0031c2	0.031297453
35	0x3b83e11c	0.004024638
36	0x3d1efd3f	0.038815733
37	0xbd9ba34e	-0.07599507
38	0x3dcc7259	0.099827476
39	0xbdec34b4	-0.1153349
40	0x3da549fb	0.08070751
41	0xbe70d8a4	-0.23520142
42	0xbd3f8d46	-0.04676559
43	0xbdc7a09d	-0.097474314
44	0xbdec72ff	-0.11545371
45	0xbe0d7cf3	-0.13817196
46	0xbca297c3	-0.019847756
47	0xbd31b142	-0.043381937
48	0x3c895897	0.016765876
49	0xbd3413a7	-0.043964054
50	0x3d666282	0.056246288
51	0x3d9ce01a	0.076599315
52	0xbda98068	-0.08276445
53	0x3c6884da	0.0141918305
54	0x3c20f0f0	0.009823069
55	0x3c970a87	0.018437637
56	0x3dba233e	0.09088753
57	0x3ccacb81	0.024755241
58	0x3dc92ea2	0.09823348
59	0x3dc52f31	0.09628142
60	0xbd999ff0	-0.07501209
61	0x3e579ca6	0.2105585
62	0x3dda3465	0.10654525
63	0x3da43cd4	0.080194145
64	0xbde2f127	-0.110811524
65	0xbbe95f3a	-0.0071219476
66	0xbd086a76	-0.033304654
67	0xbcab949a	-0.020944882
68	0xbe09ebf8	-0.13468921
69	0x3d52e199	0.051484678
70	0xbd5d0efa	-0.05396936
71	0x3cdb3445	0.026758322
72	0x3e12846f	0.14308332
73	0x3e043bfc	0.12913507
74	0x3d5117bb	0.05104802
75	0xbda15239	-0.07877011
76	0x3d91370c	0.070905775
77	0xbdd0bdef	-0.10192477
78	0x3d98b069	0.074555226
79	0x3d9530be	0.072846875
80	0xbe08d61a	-0.13362923
81	0x3e534cef	0.20634817
82	0xbdb6c5d3	-0.08924451
83	0x3ca1130c	0.019662403
84	0x3da4bb44	0.080435306
85	0x3e90af8b	0.2825893
86	0xbdac4050	-0.08410704
87	0xbca0310b	-0.019554636
88	0x3d939074	0.072052866
89	0xbd8cafea	-0.068694904
90	0x3d512ba7	0.05106702
91	0x3d5ad8d9	0.05342946
92	0x3e2457d2	0.16049126
93	0x3d95daf6	0.07317154
94	0x3e598deb	0.21245544
95	0xbd856732	-0.065138236
96	0x3cd09a4a	0.025464196
97	0x3d58acf0	0.0528993
98	0xbae8f0e9	-0.0017771992
99	0xbdf7fe16	-0.1210901
100	0x3e252eb1	0.16131093
101	0x3c78859e	0.015168576
102	0x3d2bb411	0.04191977
103	0xbd91438c	-0.07092962
104	0xbd31083e	-0.04322075
105	0x3daac7e3	0.083389066
106	0x3d5bc30e	0.053652816
107	0xbcdd1317	-0.026986642
108	0x3e12d1d2	0.14337853
109	0xbdc7d0e6	-0.09756641
110	0xbdeb8c36	-0.115013525
111	0x3d52e9eb	0.051492613
112	0x3e05d763	0.13070445
113	0x3e13e4fb	0.14442818
114	0x3e01bae2	0.12668946
115	0x3dd4e679	0.10395522
116	0x3bdfce2d	0.006829998
117	0x3ce00b81	0.027349235
118	0x3e0151ba	0.12628832
119	0x3dc5058e	0.096202
120	0x3daabd77	0.08336919
121	0x3b4d028d	0.0031282038
122	0xbc04e11a	-0.008110309
123	0x3d99da63	0.07512357
124	0x3bd2f4e7	0.006437886
125	0x3e0981b6	0.13428387
126	0x3e02a498	0.127581
127	0x3ddaf408	0.106910765
128	0x3e279ffd	0.16369624
129	0xbcb6eb52	-0.022329006
130	0xbd18fab5	-0.037348468
131	0xbe1904d3	-0.14943247
132	0x3d5904ce	0.052983098
133	0x3b978d92	0.004625031
134	0xbdbf1e0f	-0.09331905
135	0x3e031f42	0.12804893
136	0x3cc2a2fd	0.02375936
137	0x3e9581a8	0.29200482
138	0x3e1d8575	0.15382941
139	0xbdfc75ec	-0.12327179
140	0x3d664313	0.05621631
141	0xbde40ba3	-0.11135032
142	0xbd1febb2	-0.039043136
143	0x3d16e957	0.036843624
144	0x3d845792	0.06462015
145	0xbd15025a	-0.036379196
146	0x3e387b91	0.18015887
147	0x3ec8611a	0.39136583
148	0xbdfdb68d	-0.123883344
149	0xbd5755f7	-0.052572217
150	0xbde594b2	-0.11210002
151	0xbd7493c7	-0.059711244
152	0x3d6adde1	0.057340506
153	0xbe13794d	-0.14401741
154	0xbd5e4f67	-0.054274943
155	0xbdcabb2f	-0.09898984
156	0xbce9e220	-0.028550208
157	0xbe22a84f	-0.15884517
158	0x3e2a7505	0.16646202
159	0x3dbb8546	0.09156279
160	0x3e42405d	0.18969865
161	0x3e239f7b	0.15978806
162	0xbdf0cc23	-0.11757686
163	0xbd25ca8a	-0.04047636
164	0xbdba8415	-0.09107224
165	0x3d88b5ed	0.066753246
166	0xbd6a8f5a	-0.057265617
167	0x3c385fb8	0.01125329
168	0x3e249018	0.16070592
169	0xbd800860	-0.062515974
170	0xbd739bdc	-0.05947481
171	0xbdbd7171	-0.09250153
172	0x3debbedd	0.11511014
173	0xbc85fa50	-0.01635471
174	0xbc9f3c5b	-0.01943796
175	0xbc6af529	-0.014340677
176	0xbd27fd51	-0.041013066
177	0x3e0eb4c2	0.13936141
178	0x3da974be	0.0827422
179	0xbd622d55	-0.055219013
180	0x3e223a10	0.15842462
181	0xbd4f77d9	-0.050651405
182	0xbd5bb31e	-0.053637616
183	0x3e29f695	0.1659797
184	0x3d896d20	0.06710267
185	0xbd072687	-0.032995727
186	0xbdf6c690	-0.120495915
187	0x3d273825	0.040825028
188	0x3e1f0461	0.15529014
189	0x3d9fcd70	0.07802856
190	0x3db310f5	0.08743469
191	0xbe017b63	-0.12644725
192	0xbdd3c34c	-0.10339984
193	0xbbfaba4d	-0.0076516033
194	0x3e93805e	0.28808874
195	0x3ebd39e4	0.3695823
196	0xbdbecdd0	-0.09316599
197	0x3d143de0	0.03619182
198	0xbe569e0a	-0.20958725
199	0x3cf4da38	0.029889211
200	0x3d6bd719	0.05757818
201	0x3e600aaf	0.21879075
202	0x3df44ca2	0.11928679
203	0x3e7a1d2d	0.24425192
204	0xbe12d988	-0.14340794
205	0xbddf4023	-0.10900905
206	0x3ddf59b4	0.109057814
207	0x3e25ea97	0.1620277
208	0xbd97fbec	-0.07421097
209	0xbd9a5f7b	-0.07537743
210	0xbd095b39	-0.033534262
211	0xbe06b251	-0.1315396
212	0x3e2a1b73	0.16612034
213	0xbd3e6632	-0.04648418
214	0xbd66f16b	-0.056382578
215	0x3dbf5058	0.09341496
216	0xbd2d9ed9	-0.042387817
217	0xbe40d9f3	-0.18833141
218	0xbea044ab	-0.3130239
219	0xbd9d6d41	-0.07686854
220	0x3dcdcb01	0.100484855
221	0x3dd28843	0.10279896
222	0x3d636fc7	0.05552652
223	0x3e6262b6	0.22107968
224	0x3cbdcaa1	0.02316791
225	0x3c428196	0.011871716
226	0x3e45271d	0.19253202
227	0x3dd67812	0.1047212
228	0x3e2b38ac	0.16720837
229	0xbd6be96d	-0.05759566
230	0xbd495987	-0.049157646
231	0x3e49451f	0.19655274
232	0x3e1d8fc9	0.15386881
233	0xbd3abc56	-0.045589767
234	0xbe8f9538	-0.28043532
235	0x3e62cec1	0.22149183
236	0xbd52e705	-0.05148985
237	0x3bf3b223	0.007437007
238	0xbd13536b	-0.035968225
239	0xbe541061	-0.20709373
240	0xbe0d7d5d	-0.13817354
241	0xbd20a8e9	-0.039223585
242	0x3deef74a	0.116682604
243	0x3d5634b1	0.052296344
244	0xbde2c4fe	-0.110727295
245	0x3d4fb7d5	0.050712425
246	0xbd902b9e	-0.07039569
247	0xbcb3cb30	-0.021947473
248	0x3d9323f6	0.071845934
249	0x3b043469	0.002017284
250	0xbe1fecb5	-0.1561764
251	0xbe056aeb	-0.13029067
252	0x3de98ffb	0.11404415
253	0xbcacb708	-0.02108337
254	0x3de4e4e5	0.11176471
255	0xbd6127c6	-0.05496957

block2.se1.fc.0.bias f4 [16]
0	0x3d9659d1	0.0734135
1	0xbd82f344	-0.063940555
2	0xbdc27c85	-0.094964065
3	0xbb9157d5	-0.004435519
4	0x3c712c42	0.014720025
5	0xbda70859	-0.08155889
6	0xbdf490ac	-0.119416565
7	0x3e38e63f	0.18056582
8	0x3d16e1c4	0.0368364
9	0xbdef2b46	-0.11678176
10	0xbdbb5d0c	-0.09148607
11	0x3cc867a3	0.02446348
12	0xbc618211	-0.01376392
13	0x3e257481	0.16157724
14	0xbc02984f	-0.0079708835
15	0x3e06c6e0	0.13161802
