Project/Software/project_Mobilenet_q/saved_test.ckpt (torch, 277450 bytes, 73 tensors)

conv1.weight f4 [8, 1, 3, 3]
000000 4e e2 36 3e c3 c7 35 3e a6 db 81 3e 8d 3c 2a 3e
       0.17859766 0.17751984 0.2536289 0.16624661
000010 81 4c 85 3d 0e ed 69 be b5 a3 98 be 95 1d 5b be
       0.065087326 -0.22844335 -0.298124 -0.21398003
000020 72 78 71 3e 66 43 d0 3d 00 94 90 3d 3b 7a 7b be
       0.23581102 0.10169105 0.07059479 -0.24558346
000030 33 21 8c bd d5 2c 62 be 0e e3 50 3e a0 98 1d bd
       -0.0684227 -0.22087415 0.20399114 -0.038475633
000040 3d c8 85 be fa 8f ad bd 9b 48 5d 3e 94 71 64 3d
       -0.26129332 -0.08474727 0.21609728 0.05577238
000050 58 c8 9a 3e 3c 7a 91 be 25 ee e3 bd 4f 6a 16 be
       0.30230975 -0.2841357 -0.11129407 -0.14688991
000060 71 76 9b 3e 4f 2b 1a be 9d 91 39 be b0 56 81 be
       0.303638 -0.15055583 -0.18121953 -0.2526145
000070 52 a3 f1 bd 7a d5 e9 bd 99 ba bc 3d 26 15 1d 3e
       -0.11798729 -0.114176705 0.09215278 0.15340099
000080 8b e2 58 be 73 bd e1 bd b9 45 97 bd 7d f1 61 3e
       -0.2118017 -0.11022463 -0.073863454 0.22064777
000090 54 da a1 3e 31 97 6b be 3e a4 a2 3d 92 ac 42 3e
       0.31611884 -0.23006894 0.07941483 0.19011143
0000a0 57 f2 2a 3e b2 92 8e be ce ee 04 3d 1a 95 9b 3e
       0.16694008 -0.27846295 0.032454304 0.30387193
0000b0 8b ec 33 be 0d 90 36 bd d0 e8 24 3d 53 7f 07 be
       -0.17570703 -0.04457097 0.04026109 -0.13232164
0000c0 0f 3f 8b 3e 6d a0 bb be 87 74 67 be 4e a4 43 be
       0.27196547 -0.36645833 -0.22603045 -0.19105646
0000d0 6d a5 25 3e 1d 3d 35 bc a9 56 34 3e b9 35 8c be
       0.16176386 -0.011061934 0.17611183 -0.27384737
0000e0 77 60 97 be 2f d6 a4 bd 12 43 fa 3c c8 d4 ab bc
       -0.29565784 -0.08048665 0.03054956 -0.020975485
0000f0 ac 46 45 3e 46 92 2c 3d ea 02 74 bb 43 db 70 3e
       0.1926524 0.042131685 -0.0037233182 0.23521142
000100 f2 a6 cb 3d a0 69 1a be e3 b9 94 3e c8 94 8c 3e
       0.09943952 -0.15079355 0.2904807 0.2745726
000110 54 48 33 3d 76 9b a3 bd 99 f4 a4 be 93 1d 1f bc
       0.04377015 -0.07988636 -0.32217863 -0.009711641

block1.pw1.weight f4 [8, 8, 1, 1]
000000 d0 46 81 be 0b ea 3e bf fc c3 36 bf f3 af 94 bf
       -0.25249338 -0.7457587 -0.713928 -1.1616195
000010 27 1f 9d 3f 53 b1 9c be 8d 86 fb bf e7 ed 8c 3f
       1.2275132 -0.30604038 -1.9650437 1.1010102
000020 01 bd 39 c0 69 ff a1 3f cf 4c 94 3e 69 50 05 40
       -2.902161 1.265607 0.2896485 2.0830328
000030 e8 1d b2 c0 f7 7e 44 c0 5b 43 9a c0 a5 be 4a bf
       -5.5661507 -3.0702493 -4.820722 -0.7919715
000040 80 f5 59 c0 4f 70 cf 3f 28 e3 7b bf 65 ba b4 3f
       -3.4056091 1.6206149 -0.9839349 1.4119383
000050 f1 1c 00 bf 78 52 87 3f ef 1d 93 be 64 83 6c 3f
       -0.5004416 1.0572042 -0.28733775 0.92387986
000060 06 54 5a 40 f1 a5 9d 40 88 cb 15 40 2f 8a e0 3f
       3.4113784 4.9265065 2.3405476 1.754217
000070 2e a7 88 bf 19 2d ef 3f 31 5e fa be b7 90 b0 3f
       -1.0676019 1.8685638 -0.48899987 1.3794163
000080 9d 8a e1 3f f2 1c ac be 27 d4 86 3f df a1 9f bd
       1.7620426 -0.33615834 1.0533494 -0.07794546
000090 9a 9d 11 40 2c 94 41 3f 1b 4e b3 bf fd fa 94 3f
       2.2752442 0.7561672 -1.4008211 1.1639096
0000a0 0d 52 02 3e 20 42 b2 bf 1d d6 3a 3e 2f 24 84 3f
       0.12726612 -1.392643 0.1824574 1.0323542
0000b0 6d 3d 15 c0 54 e5 c7 3f 2e 62 4f 40 7c 2a 0e c0
       -2.3318741 1.561686 3.2403674 -2.221343
0000c0 28 42 84 c0 c5 db 95 3f a7 dc 89 3f 56 1d 14 40
       -4.1330757 1.1707693 1.0770463 2.3142905
0000d0 34 6c 92 bf f4 45 f0 bf 39 97 48 40 2e 90 8e 3f
       -1.1439271 -1.8771348 3.13423 1.113775
0000e0 f8 3a 80 3f e2 d7 fd bf d1 a9 f6 bf 36 88 a7 bf
       1.0017996 -1.9831507 -1.9270574 -1.3088443
0000f0 2f 6f e1 bf 40 93 b2 bf 0b 4a be 3f 66 c8 1c 3c
       -1.7612056 -1.3951187 1.4866346 0.009569263

block1.pw1.bias f4 [8]
000000 f8 2b f7 be a2 1a 9d 3e 5c 91 50 3f 3e 3e 37 3f
       -0.48275733 0.30684382 0.814718 0.7157935
000010 7e b7 d3 be e0 21 48 3f d1 59 43 3f 98 ab 50 bd
       -0.4135093 0.7817669 0.76308924 -0.050944895

block1.dw1.weight f4 [8, 1, 3, 3]
000000 2d fd 01 bf 20 cb 8f 3f 45 45 32 3f 61 86 76 3f
       -0.5077694 1.1233864 0.69636947 0.96298796
000010 22 da 56 3f 22 52 48 bf 50 41 40 bd c2 3d d2 be
       0.83926594 -0.78250325 -0.046937287 -0.41062742
000020 f1 e9 aa bd ac d0 51 be de ce 6c be cd 94 14 bf
       -0.08345402 -0.20489758 -0.23125789 -0.5803955
000030 29 5f 96 bd 29 d9 52 be 99 27 0e be e8 7a b7 bd
       -0.07342369 -0.20590653 -0.13882293 -0.089589894
000040 8d 21 bc be 41 08 97 be 69 02 21 3f c7 c2 85 3e
       -0.36744347 -0.29498485 0.628943 0.26125166
000050 a2 f6 25 3e 19 6d 44 bf e0 bf 05 bf eb 6a 82 be
       0.16207364 -0.7672897 -0.52245903 -0.25472197
000060 72 35 40 bf 6e 7d 2c bf cb 23 5d be 8a c0 08 3f
       -0.7508155 -0.6737889 -0.21595685 0.5341879
000070 26 32 2b 3f e0 28 b8 3e 55 cf eb 3e 7b 07 11 3f
       0.66873395 0.35968685 0.4605662 0.5665204
000080 dd 24 d1 3e 20 51 f8 bc 42 fb 74 bb a5 71 8a bd
       0.40848437 -0.03031212 -0.0037381207 -0.06759957
000090 1c 51 02 be 82 2e d2 3d c3 f2 0d 3f 90 aa 2c be
       -0.12726253 0.10262777 0.5544855 -0.1686194
0000a0 5e 4a 74 3e bb d6 a6 3e e1 ee bb 3e 27 1c 8a 3e
       0.23856494 0.325857 0.36705688 0.26974604
0000b0 10 6c 83 3e a7 ae 22 bf e4 d3 58 bd 55 9e 59 bf
       0.25668383 -0.6354775 -0.05293645 -0.8500722
0000c0 3b 56 b3 3b f3 06 a3 bd 49 6c 81 bd 09 ee 7c bf
       0.005472926 -0.0796031 -0.06319482 -0.9880071
0000d0 16 6b a7 3e 43 c3 d4 be 53 c0 0e be e3 d6 2c bf
       0.32698888 -0.41555223 -0.13940553 -0.6751539
0000e0 50 f3 8d 3f f6 5b bb bf 88 e7 b6 bf 8e d5 43 3e
       1.1089878 -1.4637439 -1.4289408 0.19124433
0000f0 b6 f7 86 3f 56 03 c7 3f dd 8c 99 bf f6 06 37 3f
       1.0544345 1.5547893 -1.1996113 0.71494997
000100 10 27 02 bf 64 3e 62 3f ae 09 81 bf 50 7a 4b bf
       -0.50840855 0.8837645 -1.0081079 -0.7948351
000110 29 5e 6b 3f 2e 2a 01 bf b2 87 c6 bf 6d 97 9d be
       0.9194055 -0.50454986 -1.5510161 -0.3077959

block1.dw1.bias f4 [8]
000000 86 10 b4 be 66 95 22 3f 9e d9 0c 3f 08 97 d5 bd
       -0.35168856 0.63509214 0.5501956 -0.104291975
000010 b3 ef e2 be b3 cf 02 3f ba 49 4f 3e da 4e 10 3f
       -0.443235 0.51098174 0.20242968 0.5637032

block1.se1.fc.0.weight f4 [8, 8]
000000 7d bc 92 be 7a 58 ed bd dd 2a 8e bd 4b 22 bb 3e
       -0.2865943 -0.11589141 -0.06941769 0.365496
000010 57 49 00 bf 96 e9 8d be ca 7d 5c be ae 02 1e be
       -0.5011191 -0.27717274 -0.2153236 -0.1543071
000020 c6 e3 d4 3e 53 2b 10 be 27 21 27 3e 5d 5f 9f 3e
       0.41580027 -0.14079027 0.1632124 0.31127444
000030 96 3c 58 3d 01 70 ba bd 42 65 25 be 65 75 1e be
       0.052792154 -0.09103394 -0.16151908 -0.1547447
000040 90 1f 72 be c0 1c 83 3c e9 ca 89 be f3 7f e4 3e
       -0.23644853 0.01600492 -0.2691262 0.44628868
000050 d0 71 d4 bd 7c dd 12 be 56 a3 b1 3d 3b 88 94 3e
       -0.103732705 -0.14342302 0.08673732 0.29010186
000060 d2 93 c1 3e e3 fd c5 3e e5 ad 09 3c 0e 4d 65 be
       0.3780809 0.38670263 0.008403276 -0.22392675
000070 fb f2 b0 3e f7 24 6b 3e 58 8c 3f 3d f0 d3 a1 3e
       0.3456038 0.2296332 0.0467647 0.31607008
000080 17 fd 7f be a9 30 2b bd 28 4c 9a 3d 31 9c 95 3e
       -0.2499889 -0.041794453 0.07534057 0.29220727
000090 87 d1 e8 bc f8 16 6d be 7c 32 9f be f2 5f 9f 3e
       -0.028420223 -0.23153293 -0.31093204 0.31127888
0000a0 0e 9b 0d be 00 19 27 3c 00 e9 a8 bd b8 95 06 3e
       -0.1382868 0.010198832 -0.08247566 0.1314305
0000b0 88 68 c8 bd 28 bc 93 bd a5 d1 18 be 61 06 5c be
       -0.09785563 -0.07213622 -0.14923723 -0.21486808
0000c0 e8 4b a6 3d 0f cd 66 3e 48 d6 61 be ae bd 6c be
       0.08119947 0.22539161 -0.22054398 -0.23119232
0000d0 07 82 f8 3e dc 35 af 3e f1 7b 3f 3e 75 0c 5b 3e
       0.48536703 0.3422078 0.18699624 0.2139147
0000e0 b7 09 1f be d0 0c 26 3d c4 55 84 3e b6 11 e6 bd
       -0.1553105 0.040539563 0.25846684 -0.11233847
0000f0 b9 70 f9 be 3b da ad be 34 b1 29 3e cc 5d 61 3e
       -0.48718813 -0.3395556 0.16571504 0.22008437

block1.se1.fc.0.bias f4 [8]
000000 29 87 18 3e 90 ec d2 3c 73 bc 24 bd 86 dc b0 3e
       0.1489531 0.025747567 -0.04021878 0.34543246
000010 fd f4 df 3e 31 12 90 be d9 49 3c 3e ca 27 ff 3d
       0.437416 -0.2813888 0.18387546 0.12458761

block1.se1.fc.2.weight f4 [8, 8]
000000 47 f8 09 bd a9 9d 18 be 1c ad ec bd bd 32 db bc
       -0.03368404 -0.14903893 -0.115564555 -0.026757592
000010 7b 7b 78 be 2e 3e 3e 3e a9 81 91 be 6b 43 1a 3e
       -0.24265854 0.18578407 -0.28419235 0.1506478
000020 be a7 81 3e 39 b5 30 be 22 4e 0b 3d 73 06 51 bd
       0.2532329 -0.17256631 0.03401006 -0.05103154
000030 61 13 be 3e 82 22 a8 be 4c 8c e4 be d0 a8 cb 3d
       0.3712416 -0.32838827 -0.44638288 0.09944308
000040 d9 7f 6e 3e f3 59 70 3e 70 42 a2 3d ed f8 9d be
       0.23290958 0.23471813 0.07922828 -0.30853978
000050 a0 3b 25 be 2f f1 93 3e b2 57 9e be 2a 19 96 3e
       -0.16136026 0.28894946 -0.3092628 0.29316074
000060 29 20 9a 3e 50 a6 88 be c9 59 16 be f2 5e 9b bd
       0.3010266 -0.26689386 -0.14682688 -0.07586469
000070 6a 2c c6 3e 18 72 0b bd 6a 4a c1 bd 3f 79 33 3e
       0.3870576 -0.034044355 -0.094380215 0.1752672
000080 3d 3c ee be 1c db 89 3c 1c 78 0e be 9a 88 fc 3d
       -0.46530333 0.016828112 -0.13913006 0.12330742
000090 6e 3b 04 bf 51 2f 8d be 79 8c 1e be 67 65 1f 3e
       -0.5165318 -0.27575162 -0.15483274 0.15566026
0000a0 f3 56 09 bd 6a 53 a4 3d 07 44 04 3f f5 59 9a 3e
       -0.033530187 0.080237225 0.516663 0.30146757
0000b0 4a 44 75 3d 00 f0 bd b8 21 0b 15 be 1c 50 83 3d
       0.05987958 -9.056926e-05 -0.14555027 0.06411764
0000c0 0e 0a 48 3e 12 74 c3 be 2a d4 80 3e fa 25 74 be
       0.19535086 -0.38174492 0.25161868 -0.23842612
0000d0 d6 a8 3f bd 59 ce a9 3e b8 7a 24 be 29 f1 11 3e
       -0.046791874 0.33165243 -0.16062438 0.14252152
0000e0 23 16 3a be 00 ee d9 be c7 8c 18 bd 22 90 b0 be
       -0.18172507 -0.42564392 -0.03724363 -0.34484965
0000f0 d4 0d 73 3e 8d 41 09 be 0a c8 ee 3d 7a bd 14 be
       0.23735744 -0.13403912 0.11659248 -0.14525405

block1.se1.fc.2.bias f4 [8]
000000 73 62 fa bd 7a f1 20 3e 18 a9 c3 bd 68 b2 2c be
       -0.12225809 0.15717116 -0.095537364 -0.16864932
000010 33 98 28 be d3 b0 5a be 81 02 90 be 0d 61 91 bd
       -0.1646431 -0.21356516 -0.2812691 -0.07098589

block1.pw2.weight f4 [16, 8, 1, 1]
000000 9c 40 32 bf a1 5b 7b 40 a2 1a 3b 3e 1f 79 7d bf
       -0.69629836 3.9274676 0.18271878 -0.9901294
000010 07 79 2c 40 05 a3 02 3f ab 1e 2b 40 14 2e de bf
       2.694887 0.5103 2.6737468 -1.7357812
000020 00 ee 51 40 83 f7 c2 bf 3a 5f 24 40 c0 4f f2 bf
       3.2801514 -1.5231785 2.5683122 -1.8930588
000030 ad ed 69 3f aa 44 08 c0 70 1e f3 3f e5 e2 25 c0
       0.9137829 -2.129191 1.8993664 -2.5919735
000040 a1 61 86 bf 18 a7 d2 c0 7b d9 99 40 fd c0 9e bf
       -1.0498544 -6.582897 4.807798 -1.2402645
000050 7e 26 67 c0 1b 2a ab 40 26 65 1d bf e2 ff 67 c0
       -3.6117244 5.34889 -0.61482465 -3.6249928
000060 36 68 8d 3f ac f2 e4 bf 34 91 71 3e ed 43 2d 3f
       1.1047428 -1.7886558 0.23590547 0.6768177
000070 77 8e 53 c0 36 b8 a3 c0 bc ea af bd 5c 29 6f c0
       -3.3055704 -5.1162367 -0.08589694 -3.7368994
000080 b4 43 20 40 90 9d 29 3e 4e c2 21 c0 6c 95 41 40
       2.5041323 0.16564012 -2.5274844 3.024745
000090 56 cc 70 c0 6d d1 a4 3e 2e 34 34 40 c8 6d f4 bf
       -3.7624717 0.3219103 2.8156848 -1.9096003
0000a0 fd 1f 1a 40 e6 97 07 40 e0 a6 5c bf d0 4e 3b 40
       2.4082024 2.1186461 -0.8619213 2.9266853
0000b0 47 e4 11 40 c2 c8 d9 be d1 b0 d1 bf 2b 80 5f 3f
       2.279558 -0.4253598 -1.6382085 0.87304944
0000c0 1d a4 2e c0 98 9c 9f bf 27 b4 b5 3d 63 13 0a c0
       -2.7287667 -1.2469664 0.08872252 -2.1574333
0000d0 32 d9 19 c0 26 ce 30 c0 1c f0 fc 3f ed 62 48 bf
       -2.4038815 -2.7625823 1.9760776 -0.7827595
0000e0 43 7d 39 bf 29 89 93 c0 b4 7e 6b c0 ba 3d 0a 3f
       -0.7245676 -4.610493 -3.6796083 0.5400044
0000f0 d6 94 4d 40 3c 2a 6f bf 5a 71 72 c0 a1 04 96 3f
       3.2122092 -0.9342382 -3.7881684 1.1720163
000100 e6 79 81 c0 5a 01 63 3e 22 b4 82 c0 1b 6c 86 3f
       -4.04613 0.22168484 -4.084489 1.0501741
000110 58 61 b1 bf e1 28 00 40 88 41 1b 40 51 33 96 c0
       -1.3857832 2.002495 2.4258747 -4.693764
000120 e6 72 f0 bf ad 41 5d c0 bc ec ed 3f 33 7b 72 c0
       -1.8785064 -3.4571335 1.8587871 -3.7887695
000130 7d 77 7e bf 99 27 37 bf 8c 18 36 c0 9d ae 5f 40
       -0.99401075 -0.71544796 -2.8452482 3.4950325
000140 12 55 d4 3f 5e 22 14 3f f4 00 2e bf 53 7d 43 40
       1.6588461 0.5786494 -0.67970204 3.0545242
000150 a5 93 37 40 d2 f1 91 c0 25 eb ce bf 56 55 0d bf
       2.8683865 -4.560769 -1.616551 -0.5520834
000160 57 cf 2a c0 7c 4b c0 3f 50 35 b2 3f c7 64 2b c0
       -2.668905 1.5023036 1.392252 -2.678026
000170 51 60 73 bf ee ce de 3e 81 3e 9f 3f 08 07 33 c0
       -0.9506884 0.4351725 1.244095 -2.7973042
000180 b6 e7 44 bf 05 65 23 3f 1b 60 ce 3f e4 40 14 40
       -0.7691606 0.6382602 1.6123079 2.3164606
000190 5f 88 eb 3f 6d a7 43 40 63 17 2d 40 1d 03 4b bf
       1.8400992 3.0570939 2.7045524 -0.79301625
0001a0 64 e8 da 3f e1 5b 6f c0 2c ad 93 bf 16 c6 0a 40
       1.710217 -3.7399828 -1.1537223 2.1683402
0001b0 1b 53 04 40 78 91 93 3f 5d 6c 16 40 4b 9d 40 40
       2.0675724 1.1528769 2.350364 3.0096004
0001c0 00 8f 7c 40 8a 93 3f c0 f1 ea 58 c0 91 7f 8c 3f
       3.946228 -2.99338 -3.3893397 1.097643
0001d0 fd 69 90 bf 67 6d 3a c0 e8 ae 88 40 d5 a6 41 c0
       -1.1282345 -2.9129274 4.271351 -3.0258076
0001e0 7f 9f 6b bf b7 e4 37 c0 16 47 26 bf db 7a e1 3f
       -0.92040247 -2.8733346 -0.6495222 1.7615618
0001f0 46 cd f6 bf d7 dc 45 bf 4a bd ff 3e fe 44 d7 be
       -1.9281394 -0.772901 0.49949104 -0.42044824

block1.pw2.bias f4 [16]
000000 98 8f b2 be 59 eb a1 3e 4e 78 1a 3f 7e 13 2c 3f
       -0.34875178 0.3162487 0.6033982 0.6721724
000010 72 a6 95 bd ec 34 2f bf a1 b7 3a 3f 79 a9 4d 3f
       -0.073071375 -0.6844013 0.72936445 0.8033672
000020 ba fc d2 3e fd 83 65 3f 0c 90 ef bc fd b1 ce 3e
       0.4120844 0.89654523 -0.029243492 0.4037017
000030 0f 27 3b bf fd 57 66 be 2c 4a 12 3f 92 93 e6 3e
       -0.73106474 -0.22494502 0.5714443 0.45034462

block2.pw1.weight f4 [48, 16, 1, 1]
000000 81 96 0f bf 78 bd 1e 3e ae 14 fa be cc 8d c2 3e
       -0.56089026 0.15501964 -0.48843902 0.37998807
000010 a5 9c 01 3f bd 14 62 3e 47 81 56 bf 16 91 05 bf
       0.50629646 0.22078224 -0.8379101 -0.5217451
000020 f1 a0 93 be c8 19 2a bf 5e 11 f1 3e f1 3f a8 be
       -0.28833726 -0.6644559 0.47083563 -0.32861283
000030 30 17 b7 3e 27 12 b2 be 3c 71 63 bd c3 74 94 be
       0.35759878 -0.34779474 -0.05552791 -0.28995332
000040 1f 10 7e bf 0e de 4b bf af de c2 bd 1b c8 32 bf
       -0.9924335 -0.79635704 -0.0951513 -0.69836587
000050 bf c0 da be 84 c9 bc bd 81 cb e2 3e 40 98 da be
       -0.4272518 -0.092181236 0.44295886 -0.42694283
000060 fa 26 15 bf 20 a8 c1 be c6 cd c8 3e 1f 2a a7 bd
       -0.582626 -0.37823582 0.39219493 -0.08162331
000070 97 54 07 3f ac 67 2d 3f 3a b2 11 3e 36 fc 39 bb
       0.5286345 0.67736316 0.14228144 -0.002837909
000080 1d 13 e3 be af a9 b5 3e 69 67 bd be 2b 0f f3 bd
       -0.4435052 0.3548102 -0.36992958 -0.118681274
000090 a3 06 1d bf 73 55 29 bf e2 5c 12 3f a3 93 77 3f
       -0.6133825 -0.6614601 0.5717298 0.9670965
0000a0 28 59 93 3e 79 95 a2 3e e3 ad ac 3d b3 1e 79 be
       0.28778958 0.31754664 0.08431604 -0.24328117
0000b0 cb b8 dd 3e c2 aa c5 3e 7d 24 ae 3e 3d b8 05 3f
       0.43305048 0.3860684 0.34012213 0.5223425
0000c0 0f f0 8a 3e 50 63 53 be ed 33 d1 be e1 8f c5 3e
       0.27136275 -0.20643353 -0.4085993 0.38586333
0000d0 6e f6 67 be 4d 53 1c 3e ef d6 89 3d 07 8a 7a be
       -0.22652599 0.15266152 0.067304485 -0.24466716
0000e0 96 53 a4 3e a0 dc 7b 3d f4 c9 c8 be 31 a9 39 3e
       0.3209502 0.0614897 -0.39216578 0.18130948
0000f0 0e ea 41 3d 9c c2 0d bf 50 ed d2 be a3 83 94 be
       0.047342353 -0.55375075 -0.4119668 -0.2900668
000100 80 85 6a 3e 9e a4 23 be 8e 58 3a 3f 00 a6 c5 3d
       0.22902489 -0.15980765 0.72791374 0.096508026
000110 6e 95 fd 3e 35 fa 0c 3f 38 54 9e 3e 21 25 24 bd
       0.49528068 0.55069286 0.3092363 -0.04007447
000120 42 b3 ef 3e 5b 9b 3a 3f 61 4a 22 3f 98 94 89 3e
       0.4681645 0.72893304 0.63394743 0.2687118
000130 f1 f2 8c be 1b dc 7d be 7d ba cf be 09 0b 0f bc
       -0.275291 -0.24790995 -0.40571967 -0.008730658
000140 4b 5a 88 3e e6 26 bd be 7a ee 19 bf be 20 68 3e
       0.26631388 -0.3694374 -0.6012951 0.2266874
000150 ea 62 e5 3e 05 94 0b 3f c6 91 bc be bb 9d cf be
       0.44802028 0.54522735 -0.36829966 -0.40550026
000160 0d 20 af be c0 a1 6b 3b 9b 86 18 be b3 0e 90 3e
       -0.3420414 0.0035954565 -0.14895098 0.28136215
000170 ea 63 c8 3e ad ed da 3c 7f d5 b2 3e e8 c8 b5 bb
       0.39138728 0.02672466 0.3492851 -0.0055476315
000180 5f 34 60 3e 96 61 1a bf 56 46 58 3f 16 62 a6 3e
       0.21894978 -0.60305154 0.84482324 0.3249671
000190 9c 8b fc bd be 4f 2d bd 83 a1 fa 3e 8b 85 50 3e
       -0.12331316 -0.042312376 0.4895135 0.20363443
0001a0 78 b7 a0 be 8e 7b c5 3d 9c 2b 1d be 92 ce 07 bf
       -0.31389976 0.09642707 -0.15348667 -0.53049576
0001b0 50 bf fb be 3d 55 17 be 45 03 db be 32 1a cb 3d
       -0.49169397 -0.1477861 -0.42775932 0.09917106
0001c0 c8 42 13 3d 9f d2 ed 3d a2 6d f3 bd be d8 ab 3c
       0.03595236 0.116124384 -0.11886145 0.020977374
0001d0 49 97 6f be 02 ee 56 3d b5 b6 ae be 0d aa 7d be
       -0.23397554 0.052473076 -0.3412377 -0.247719
0001e0 0b bc cc 3d d8 bb fa 3e a0 96 4c bd 38 cb ae 3e
       0.09996804 0.48971438 -0.049948335 0.3413942
0001f0 7c 8f fd be 10 74 09 bf 39 46 0d 3d 5a 10 73 be
       -0.49523532 -0.5369272 0.034490798 -0.23736706
000200 22 f6 90 3e fe 93 36 3e f5 be fb be 16 3e 23 3e
       0.28312784 0.17829892 -0.49169126 0.15941653
000210 31 e2 bb 3e 13 5a b4 3e f8 40 8f 3e c9 5a d2 bb
       0.36696008 0.3522497 0.27979255 -0.006419514
000220 89 21 d5 3d 1d 0a 11 3e af 19 44 be fe d8 41 be
       0.10406787 0.14164014 -0.19150423 -0.18930432
000230 b5 2e 0c 3e 31 d2 4c 3e 13 f4 57 bc 78 b3 d5 3e
       0.13689692 0.20002057 -0.01318075 0.41738486
000240 43 66 25 be 90 f8 11 3f e8 ab b1 be 8f 39 29 bf
       -0.16152291 0.570199 -0.34701467 -0.6610345
000250 af de 17 3e 65 f0 16 3f d9 2a c4 be 26 b6 ea be
       0.14831041 0.5896056 -0.3831394 -0.45842093
000260 80 79 46 be 47 fa 99 3e 52 a5 ee 3e df 0a 47 be
       -0.19382286 0.3007376 0.46610504 -0.1943774
000270 5e 81 55 3b 18 47 cd 3d 70 6b d2 3d ef fb f7 bd
       0.003257833 0.10023326 0.10274398 -0.121085994
000280 be c5 c4 3e 09 44 13 3f ad 9a 6a 3e 5c 34 57 3f
       0.38432115 0.5752569 0.22910567 0.8406427
000290 3a 8f 61 3e 3d e4 b6 bd 7a 1d 89 3c ba a1 27 3e
       0.22027293 -0.08930252 0.016737688 0.16370288
0002a0 3e a4 a9 3e f7 ce 16 bf 90 bc b5 3e 0e dd 0d bf
       0.3313312 -0.58909553 0.35495424 -0.5541543
0002b0 06 d4 e8 3e 34 70 e9 3b ff b0 51 bd e6 7a 64 3e
       0.4547426 0.0071239714 -0.051194187 0.22312507
0002c0 1d c7 7a bd 9e 01 03 3d f0 b6 61 3e 78 81 37 bf
       -0.061225045 0.031983964 0.22042441 -0.7168193
0002d0 95 44 09 bf db 5c 1e 3e 74 f2 6a 3d a4 bf 82 3e
       -0.5362027 0.15465109 0.057360128 0.25536835
0002e0 87 2a f0 3e 77 3b 09 be c3 b6 06 bf b7 ad da 3e
       0.46907446 -0.1340159 -0.5262262 0.4271066
0002f0 c9 3f eb bd 3b f1 7b 3e 92 5a 64 be 03 9a 19 be
       -0.114867754 0.24603741 -0.22300175 -0.15000157
000300 3f 76 02 bf 4b 0b 4c bf 22 13 55 bf a8 9f c3 bd
       -0.5096168 -0.7970473 -0.8323232 -0.095519364
000310 1b b4 05 3d 4b 21 09 3f 1f 64 31 be 8d ee 1d bf
       0.032642465 0.53566426 -0.1732335 -0.61692125
000320 43 ee 1d 3f 14 30 d6 be c3 1e db bd 9f ff d8 bd
       0.61691684 -0.41833556 -0.10699227 -0.10595631
000330 03 d0 91 3e a4 27 55 be 02 91 f4 be 5b de c5 3e
       0.28479013 -0.20815903 -0.47766882 0.38646206
000340 71 db e2 3e b3 89 e4 be 6a 89 8a 3e d4 a2 50 3f
       0.44308046 -0.44636306 0.27057964 0.81498456
000350 3f 80 33 be 84 72 34 bf 01 02 4c 3e a9 5a eb 3e
       -0.17529391 -0.70487237 0.1992264 0.45967606
000360 28 d4 9d bd 87 29 7c be 71 b8 26 3f 3f dd 00 bf
       -0.07706481 -0.24625216 0.65125185 -0.50337595
000370 7b d8 29 be 23 18 d6 be c4 5f 74 be 82 88 76 be
       -0.16586487 -0.4181529 -0.23864657 -0.24075511
000380 2a 94 c6 bf e4 e7 b0 3f 60 a9 44 be cb fc 0f bf
       -1.5513966 1.3820767 -0.19205236 -0.56245106
000390 8a 79 fa be 74 40 b7 3f c9 14 94 bf d7 8e ec 3e
       -0.48920852 1.4316545 -1.1568843 0.46202728
0003a0 7a 0c 97 3d 54 44 72 bf f4 88 d9 bf 32 fe 80 be
       0.073754266 -0.9463551 -1.699492 -0.25193936
0003b0 38 6f 94 bf 02 0b 7b 3f 0e 7b 58 3f 12 07 5c bf
       -1.1596441 0.9806367 0.84562767 -0.8594829
0003c0 27 2f a8 3e 43 80 c4 be 31 5b dd be c3 d2 78 3e
       0.32848474 -0.38379106 -0.43233636 0.24299149
0003d0 74 b5 e4 be 4c 50 0c bf a4 cd 71 3f 03 2c 53 3f
       -0.44669688 -0.54810023 0.9445441 0.8248903
0003e0 a5 d0 22 3e 89 1e ed bd b4 2b e9 bb ef 5d 74 3e
       0.15899904 -0.1157809 -0.0071158055 0.23863958
0003f0 9e 77 76 be 9a 72 c5 3e f9 a3 f8 be 02 31 da 3e
       -0.24069068 0.38563997 -0.485626 0.42615515

block2.pw1.bias f4 [48]
000000 e4 aa 2b 3f 98 46 2c 3f 63 80 c7 be 5f 0d a2 3e
       0.67057633 0.6729522 -0.3896514 0.31650826
000010 db 9e 35 bf 9e d2 9f 3e 6e 2f 18 3d 45 3d 84 3e
       -0.7094552 0.31215376 0.037154607 0.25827995
000020 51 b7 48 be 9c 69 e4 3d da cc af be dd f5 96 3e
       -0.1960118 0.11152956 -0.34335977 0.29484454
000030 c0 b7 2f 3f e0 70 b0 3d 7a 1a 88 3f 54 a2 ca be
       0.68639755 0.08615279 1.063308 -0.39576972
000040 02 c4 97 be 84 b3 16 3f 9b 8e 9b 3e c5 b9 93 be
       -0.2964173 0.5886767 0.30382237 -0.28852668
000050 e8 44 69 3e e7 d8 bc 3d 82 40 b8 be ca 00 ff 3e
       0.22780192 0.09221058 -0.35986716 0.4980529
000060 81 1e 81 3e 4d db dd 3e f3 de 97 bd c8 d6 8e 3e
       0.25218585 0.43331376 -0.07415571 0.2789824
000070 37 49 75 3f a9 c7 68 3e df 2c a2 3f f4 f3 1b be
       0.9581484 0.22732414 1.2669944 -0.1522978
000080 6c a7 27 3e 0d 4b f0 bd 36 5a 22 3d 4a 23 40 3e
       0.1637246 -0.11733065 0.039636813 0.18763462
000090 0b 8e 49 3f 90 ad c0 bc 84 94 90 3e 27 3c aa 3e
       0.78732365 -0.023520261 0.28238308 0.33249018
0000a0 d1 ee a6 bd 94 45 26 3e 0d 90 8e 3f 42 9f 82 3d
       -0.08151019 0.1623748 1.1137711 0.06378032
0000b0 da b6 e2 be a0 ae 74 bd aa 48 2a be c0 61 04 3f
       -0.4428013 -0.059736848 -0.16629282 0.51711655

block2.dw1.weight f4 [48, 1, 3, 3]
000000 bf 2f 64 3e fb 45 12 be 91 c5 93 3f c8 b4 06 bf
       0.22283839 -0.14284508 1.1544667 -0.526196
000010 df 83 1f bf c1 cc 0d 3f 59 3c 65 3e 69 a8 1a bf
       -0.62310594 0.55390555 0.22386302 -0.60413224
000020 9a da 28 be 11 5b 19 bf 0a 0e 80 3f 44 f8 a0 be
       -0.1648964 -0.5990458 1.0004284 -0.31439412
000030 db 10 95 be 00 97 06 3f 9f ee e3 be a0 b3 91 3f
       -0.29114422 0.5257416 -0.4451799 1.1382942
000040 de a6 c7 3c 0c fd 9e bf 63 83 39 bf ac 0f b1 3e
       0.02437156 -1.2420974 -0.72466105 0.3458227
000050 49 87 12 3f ef 9c 48 bf db 15 8f 3c 72 a9 36 bf
       0.5723768 -0.7836446 0.017466476 -0.71352303
000060 40 90 00 3f 91 e1 3e 3e 4b 69 99 bf 61 a1 3e 3e
       0.5022011 0.18640734 -1.1985258 0.18616249
000070 5b a6 da 3e fa 33 24 bf 04 c3 cc 3e 52 ec 20 3e
       0.42705044 -0.6414181 0.39992535 0.15715149
000080 f3 89 59 3f de d1 5c 3e 59 1a a0 3f d8 5f ca 3f
       0.8497612 0.21564433 1.2508041 1.5810499
000090 9d 62 e6 be e0 17 59 3f 1c f2 62 be c6 07 f2 3e
       -0.4499711 0.84802055 -0.2216267 0.47271556
0000a0 54 5b eb 3e 8e 47 d1 be d2 2c c1 3e ae 83 6c 3f
       0.45968115 -0.40874904 0.37729508 0.9238843
0000b0 22 89 4e bf 92 b2 20 3f ac 13 33 bf 3f 14 3d 3f
       -0.80678 0.62772477 -0.6995189 0.7385902
0000c0 2a b3 8e 3e a5 86 b2 3e aa d4 48 bf 56 95 41 bf
       0.27871066 0.3486835 -0.784495 -0.75618494
0000d0 bd e6 f9 3e 2a 5c 75 3e dc e0 34 bf 38 ec 6b 3f
       0.48808852 0.23960939 -0.7065561 0.92157316
0000e0 9d df 0d 3e 5b 97 8d 3e 13 f8 07 bf c9 98 d6 bf
       0.13854833 0.27654538 -0.53112906 -1.6765376
0000f0 bc 82 24 bf 0b df 7c bf ab 42 27 bf 75 73 4c 3f
       -0.64261985 -0.98777837 -0.653361 0.79863673
000100 5a a7 5b bf ad 0c d6 bf 1e 3d a6 3f 5b b6 00 c0
       -0.85802233 -1.6722618 1.2987401 -2.01113
000110 78 82 59 bf 56 c2 e4 3f b4 5e a3 bf 91 78 91 bf
       -0.84964705 1.7871807 -1.2763276 -1.1364919
000120 88 1d 04 3f 93 8e 11 bf d8 5d 15 3f 23 e6 21 3f
       0.5160756 -0.56858176 0.5834632 0.63241786
000130 9a b4 bd 3d 1c 1f 96 3e 81 99 98 3e 83 00 9e 3e
       0.09262963 0.2932061 0.29804614 0.30859765
000140 6a 7d 31 bf a9 9e fc be fe d9 f3 be 83 35 04 be
       -0.6933199 -0.49339798 -0.47627252 -0.12911038
000150 3a ca fa be 70 08 00 3f 59 2f de 3d c7 a8 3c 3f
       -0.48982412 0.50012875 0.108488746 0.73695034
000160 05 30 ad be 88 06 90 3c 1e eb 86 bf 89 f6 fa 3c
       -0.33825698 0.01758124 -1.0540502 0.030635135
000170 6d 6b 1c 3f 8b 1c 0a bf 81 1a a4 3e 83 5c cc bd
       0.6110142 -0.53949803 0.3205147 -0.09978583
000180 7e 07 1c 3f c3 f0 82 bf 7e 45 e0 3e 88 fc ea be
       0.6094893 -1.0229725 0.43803018 -0.4589579
000190 cd 15 99 bf 94 f7 17 bf fc 56 cc bf ba 40 e7 3e
       -1.1959778 -0.5936215 -1.5964046 0.4516657
0001a0 9a 01 ec 3e a3 90 45 3e 9c 97 6a bf 7e e8 5d 3f
       0.46094972 0.19293456 -0.9163759 0.8668288
0001b0 1d 12 14 be f7 c9 b9 be 5d 30 39 3f 5f 9d 11 bf
       -0.14460035 -0.362869 0.7233942 -0.56880754
0001c0 07 5c 4d 3c 61 a3 5c 3e 85 4b 47 3d 56 db 83 3e
       0.012534148 0.21546699 0.048656005 0.25753278
0001d0 1c 05 80 3f fb bd b5 3e f8 59 1d bf 3e 26 3b bf
       1.0001559 0.35496506 -0.61465406 -0.7310523
0001e0 85 59 56 3f 4b bf 5b bf fb 33 48 bf b5 09 8f bd
       0.83730346 -0.85838765 -0.78204316 -0.06984273
0001f0 c1 01 b9 bf 16 e2 a0 3d d0 9c e1 bc 8d 01 52 bd
       -1.445366 0.078556225 -0.027540594 -0.05127101
000200 dd 16 26 3f 21 e6 3f bf f0 df 11 bf 3c 33 66 bc
       0.64878637 -0.74960524 -0.56982327 -0.014050301
000210 c1 47 ad 3d 9a 3b 63 3f 31 11 37 bf 14 a7 e0 bf
       0.084609516 0.8876282 -0.71510607 -1.7550988
000220 94 8c 9f 3f ab 5e ac bf 44 c9 f2 3f d6 2e e2 3e
       1.2464776 -1.346639 1.8967671 0.44176358
000230 08 3c c1 3e 73 3e 1c c0 e9 c1 8b be 85 4d 09 40
       0.37741113 -2.4413116 -0.2729638 2.1453564
000240 2d 0a c1 3e f9 df 06 3e 1f b7 27 bf 29 16 87 3e
       0.37703076 0.13171376 -0.65513796 0.26384094
000250 b7 85 eb 3e 63 03 67 3f 03 7c c0 be 1a 83 57 bf
       0.46000454 0.9023954 -0.37594613 -0.8418442
000260 d9 94 30 be c5 86 27 3f 34 f5 94 3e 1a b4 8c bf
       -0.17244281 0.65440017 0.29093325 -1.0992463
000270 9c f1 56 3f 23 ad d4 3d 58 41 d1 be 26 03 0d bf
       0.83962417 0.10384586 -0.40870166 -0.5508293
000280 c5 e4 21 bf 33 ff 28 3f 21 aa 0c bf 39 06 67 bf
       -0.632397 0.66014403 -0.54947096 -0.9024387
000290 95 c0 29 3f 01 b2 02 3f 6e 80 06 bf da 14 5f bf
       0.6630948 0.5105286 -0.5253972 -0.8714119
0002a0 94 23 82 3f e4 19 21 3f e6 4f 37 3f 7a d6 1b 3f
       1.0167108 0.6293013 0.7160629 0.6087414
0002b0 c1 7c 03 3f 61 dd 7d 3e 46 ed d3 be eb 7b b4 bc
       0.51362234 0.2479148 -0.41391963 -0.022031745
0002c0 6e b2 64 3e 96 75 33 bf c0 9d 91 3e e7 71 b6 be
       0.2233369 -0.70101297 0.28440666 -0.35633776
0002d0 d3 9d cf be c5 47 9d 3e ca c2 0b 3e c1 9f e5 3e
       -0.40550098 0.30718818 0.13648525 0.44848445
0002e0 ed eb 9d 3e d9 0a ff 3d 35 54 5f 3e 1d d6 df be
       0.3084406 0.12453241 0.21809466 -0.43718043
0002f0 78 29 05 bf c2 9c d6 3d 36 bc 0e 3f f2 aa c3 be
       -0.520164 0.10479118 0.5575594 -0.38216358
000300 7e 0a d5 3e 87 97 21 3e 54 6f 12 3f 43 e4 08 bf
       0.41609567 0.1578046 0.57201123 -0.534733
000310 05 e4 88 be 29 80 75 be ea c7 62 be 6f 7c 10 3e
       -0.26736465 -0.2397467 -0.22146574 0.14109968
000320 a7 a3 03 3e cd 31 e5 3d 30 db 80 3e 6a f9 6f 3e
       0.12855397 0.11191139 0.25167227 0.23434988
000330 d8 d9 b9 3e dd aa 29 3d bf 7e 87 3e 51 04 32 bf
       0.36299014 0.041422714 0.26463887 -0.69537836
000340 03 64 b0 bf 13 33 a6 bf f0 8a 1e 3f 72 b3 62 bf
       -1.3780521 -1.2984337 0.6193075 -0.8855506
000350 62 96 23 3f 0a f2 b9 3e 11 ac 3e 3f 04 c9 db 3f
       0.6390134 0.36317474 0.744813 1.717072
000360 48 0b 26 bf 6a b6 69 3d 3e e8 71 3e 11 21 82 bf
       -0.64860964 0.05705873 0.2362375 -1.0166341
000370 0e 17 e5 be 13 1e d1 3e de 11 43 3f 73 04 63 bf
       -0.44744152 0.40843257 0.7619914 -0.88678664
000380 ab 39 72 3e ab 3d 5a 3e a4 f6 77 3f 14 95 c6 bf
       0.23654811 0.21312587 0.9686072 -1.5514245
000390 47 32 f7 3e 4b 94 80 3d be 60 7e be 10 9a 9a 3d
       0.48280546 0.06278285 -0.24841592 0.07548916
0003a0 b6 39 af bf 6b b8 25 c0 09 53 48 3f 28 15 0d 3f
       -1.3689487 -2.589381 0.782517 0.55110407
0003b0 e2 d0 79 3f 7b 0e f5 bd 0d 0b b0 bf 10 79 8a bf
       0.97584355 -0.119656526 -1.3753372 -1.0818195
0003c0 97 2e d2 bd dd c0 19 bf b8 e0 6b bf e7 1c 1a bf
       -0.102627926 -0.6005991 -0.9213977 -0.6020035
0003d0 7a 7d 85 be 2c 59 44 3f a3 d0 80 bf 0d 9f 6b 3f
       -0.26072294 0.76698565 -1.0063671 0.9203957
0003e0 fd f7 e3 bd 5e 4c 19 be 2d 7e 4d 3f 01 98 43 bf
       -0.111312844 -0.14970538 0.80270654 -0.76403815
0003f0 c8 70 a4 be 3c 5a 4f bd ce 19 85 3e 5e e5 75 3d
       -0.32117295 -0.050623164 0.2599625 0.060033195

block2.dw1.bias f4 [48]
000000 46 fc e1 3d 94 a6 07 3e 47 18 ba 3e 12 ed cd be
       0.110344455 0.13247138 0.36346647 -0.40219933
000010 3f fc 3b be 26 05 14 be 26 23 28 3f 27 63 3a 3f
       -0.18357943 -0.14455089 0.6567863 0.72807544
000020 5b 30 eb bd c0 38 81 3d dd 53 c4 3d 0a 70 36 3f
       -0.114838324 0.06309652 0.09586308 0.7126471
000030 b2 e2 85 be 4c 0c 40 3f 3c 65 73 3e 14 8e 41 be
       -0.26149517 0.75018764 0.23769087 -0.18901855
000040 e0 19 b0 3a 84 6e dc 3c 5e 4c c0 bd 30 1b b5 bc
       0.0013435446 0.026908167 -0.09389566 -0.02210769
000050 4a e2 56 bd 5e 44 b7 3d 11 a7 9c be 1f 8b 3d 3e
       -0.0524619 0.08948587 -0.30596212 0.18510102
000060 9c 2c 85 3e 96 28 4d 3f 64 1c fc 3e 7c ff 2b 3e
       0.26010597 0.80140054 0.4924041 0.16796678
000070 b1 bf 27 be f8 2e 3b 3e 68 62 5a bc 86 98 07 bf
       -0.16381718 0.18279636 -0.013329126 -0.5296711
000080 c4 61 20 be 8b fd 2c 3e 37 48 bd 3e d6 cd 89 be
       -0.15662295 0.16893594 0.36969158 -0.26914853
000090 d9 ed e2 3c ec 3d f9 be 7c 59 6d 3f ac 55 0a 3f
       0.027701305 -0.48680055 0.9271467 0.54036975
0000a0 cc bb aa 3e 4f a2 5e be f9 43 08 bf 35 fc 0b be
       0.33346403 -0.21741603 -0.5322872 -0.13670428
0000b0 29 a4 14 3e d4 f9 47 3e ac 70 da 3e b0 31 3c 3e
       0.14515747 0.19528896 0.42664087 0.1837833

block2.se1.fc.0.weight f4 [16, 48]
000000 aa 22 98 bd f4 0f 26 3d 74 1e 63 be 4a 42 57 3e
       -0.07428487 0.040542558 -0.22179586 0.21021381
000010 18 24 bf 3b 3e 6e e1 bd 28 a9 56 bc 5b 10 02 3e
       0.00583316 -0.11007355 -0.013101853 0.12701552
000020 5c 66 13 3e ef 6b 0b 3e 57 35 05 bd 88 4f a3 3d
       0.14394516 0.13615392 -0.032521572 0.07974154
000030 ba e5 1d 3e 14 45 07 3c 2a 90 8c 3c 07 79 86 bd
       0.15419665 0.008256216 0.017158587 -0.06566053
000040 cd 2a 5a 3d 30 2f 9c 3d a3 b8 3e 3d 86 66 94 3c
       0.053263474 0.07626188 0.046562802 0.018115293
000050 e6 01 b3 3d 23 d6 69 3d d8 86 a0 3d d3 34 4d 3e
       0.087405965 0.057088982 0.078382194 0.20039682
000060 dd 41 94 3c a0 50 d0 bd 27 5d 1e bd 2c 7c e5 3d
       0.018097812 -0.10171628 -0.038663056 0.112053245
000070 b5 ae 1f bd 8e b1 0a 3e 58 09 d3 3d 2e 34 1a be
       -0.038984973 0.13544294 0.103045166 -0.15058967
000080 bd 2a 13 bd 13 02 10 be c2 31 00 3d 1c e1 83 3b
       -0.03592943 -0.14063291 0.031297453 0.004024638
000090 3f fd 1e 3d 4e a3 9b bd 59 72 cc 3d b4 34 ec bd
       0.038815733 -0.07599507 0.099827476 -0.1153349
0000a0 fb 49 a5 3d a4 d8 70 be 46 8d 3f bd 9d a0 c7 bd
       0.08070751 -0.23520142 -0.04676559 -0.097474314
0000b0 ff 72 ec bd f3 7c 0d be c3 97 a2 bc 42 b1 31 bd
       -0.11545371 -0.13817196 -0.019847756 -0.043381937
0000c0 97 58 89 3c a7 13 34 bd 82 62 66 3d 1a e0 9c 3d
       0.016765876 -0.043964054 0.056246288 0.076599315
0000d0 68 80 a9 bd da 84 68 3c f0 f0 20 3c 87 0a 97 3c
       -0.08276445 0.0141918305 0.009823069 0.018437637
0000e0 3e 23 ba 3d 81 cb ca 3c a2 2e c9 3d 31 2f c5 3d
       0.09088753 0.024755241 0.09823348 0.09628142
0000f0 f0 9f 99 bd a6 9c 57 3e 65 34 da 3d d4 3c a4 3d
       -0.07501209 0.2105585 0.10654525 0.080194145
000100 27 f1 e2 bd 3a 5f e9 bb 76 6a 08 bd 9a 94 ab bc
       -0.110811524 -0.0071219476 -0.033304654 -0.020944882
000110 f8 eb 09 be 99 e1 52 3d fa 0e 5d bd 45 34 db 3c
       -0.13468921 0.051484678 -0.05396936 0.026758322
000120 6f 84 12 3e fc 3b 04 3e bb 17 51 3d 39 52 a1 bd
       0.14308332 0.12913507 0.05104802 -0.07877011
000130 0c 37 91 3d ef bd d0 bd 69 b0 98 3d be 30 95 3d
       0.070905775 -0.10192477 0.074555226 0.072846875
000140 1a d6 08 be ef 4c 53 3e d3 c5 b6 bd 0c 13 a1 3c
       -0.13362923 0.20634817 -0.08924451 0.019662403
000150 44 bb a4 3d 8b af 90 3e 50 40 ac bd 0b 31 a0 bc
       0.080435306 0.2825893 -0.08410704 -0.019554636
000160 74 90 93 3d ea af 8c bd a7 2b 51 3d d9 d8 5a 3d
       0.072052866 -0.068694904 0.05106702 0.05342946
000170 d2 57 24 3e f6 da 95 3d eb 8d 59 3e 32 67 85 bd
       0.16049126 0.07317154 0.21245544 -0.065138236
000180 4a 9a d0 3c f0 ac 58 3d e9 f0 e8 ba 16 fe f7 bd
       0.025464196 0.0528993 -0.0017771992 -0.1210901
000190 b1 2e 25 3e 9e 85 78 3c 11 b4 2b 3d 8c 43 91 bd
       0.16131093 0.015168576 0.04191977 -0.07092962
0001a0 3e 08 31 bd e3 c7 aa 3d 0e c3 5b 3d 17 13 dd bc
       -0.04322075 0.083389066 0.053652816 -0.026986642
0001b0 d2 d1 12 3e e6 d0 c7 bd 36 8c eb bd eb e9 52 3d
       0.14337853 -0.09756641 -0.115013525 0.051492613
0001c0 63 d7 05 3e fb e4 13 3e e2 ba 01 3e 79 e6 d4 3d
       0.13070445 0.14442818 0.12668946 0.10395522
0001d0 2d ce df 3b 81 0b e0 3c ba 51 01 3e 8e 05 c5 3d
       0.006829998 0.027349235 0.12628832 0.096202
0001e0 77 bd aa 3d 8d 02 4d 3b 1a e1 04 bc 63 da 99 3d
       0.08336919 0.0031282038 -0.008110309 0.07512357
0001f0 e7 f4 d2 3b b6 81 09 3e 98 a4 02 3e 08 f4 da 3d
       0.006437886 0.13428387 0.127581 0.106910765
000200 fd 9f 27 3e 52 eb b6 bc b5 fa 18 bd d3 04 19 be
       0.16369624 -0.022329006 -0.037348468 -0.14943247
000210 ce 04 59 3d 92 8d 97 3b 0f 1e bf bd 42 1f 03 3e
       0.052983098 0.004625031 -0.09331905 0.12804893
000220 fd a2 c2 3c a8 81 95 3e 75 85 1d 3e ec 75 fc bd
       0.02375936 0.29200482 0.15382941 -0.12327179
000230 13 43 66 3d a3 0b e4 bd b2 eb 1f bd 57 e9 16 3d
       0.05621631 -0.11135032 -0.039043136 0.036843624
000240 92 57 84 3d 5a 02 15 bd 91 7b 38 3e 1a 61 c8 3e
       0.06462015 -0.036379196 0.18015887 0.39136583
000250 8d b6 fd bd f7 55 57 bd b2 94 e5 bd c7 93 74 bd
       -0.123883344 -0.052572217 -0.11210002 -0.059711244
000260 e1 dd 6a 3d 4d 79 13 be 67 4f 5e bd 2f bb ca bd
       0.057340506 -0.14401741 -0.054274943 -0.09898984
000270 20 e2 e9 bc 4f a8 22 be 05 75 2a 3e 46 85 bb 3d
       -0.028550208 -0.15884517 0.16646202 0.09156279
000280 5d 40 42 3e 7b 9f 23 3e 23 cc f0 bd 8a ca 25 bd
       0.18969865 0.15978806 -0.11757686 -0.04047636
000290 15 84 ba bd ed b5 88 3d 5a 8f 6a bd b8 5f 38 3c
       -0.09107224 0.066753246 -0.057265617 0.01125329
0002a0 18 90 24 3e 60 08 80 bd dc 9b 73 bd 71 71 bd bd
       0.16070592 -0.062515974 -0.05947481 -0.09250153
0002b0 dd be eb 3d 50 fa 85 bc 5b 3c 9f bc 29 f5 6a bc
       0.11511014 -0.01635471 -0.01943796 -0.014340677
0002c0 51 fd 27 bd c2 b4 0e 3e be 74 a9 3d 55 2d 62 bd
       -0.041013066 0.13936141 0.0827422 -0.055219013
0002d0 10 3a 22 3e d9 77 4f bd 1e b3 5b bd 95 f6 29 3e
       0.15842462 -0.050651405 -0.053637616 0.1659797
0002e0 20 6d 89 3d 87 26 07 bd 90 c6 f6 bd 25 38 27 3d
       0.06710267 -0.032995727 -0.120495915 0.040825028
0002f0 61 04 1f 3e 70 cd 9f 3d f5 10 b3 3d 63 7b 01 be
       0.15529014 0.07802856 0.08743469 -0.12644725
000300 4c c3 d3 bd 4d ba fa bb 5e 80 93 3e e4 39 bd 3e
       -0.10339984 -0.0076516033 0.28808874 0.3695823
000310 d0 cd be bd e0 3d 14 3d 0a 9e 56 be 38 da f4 3c
       -0.09316599 0.03619182 -0.20958725 0.029889211
000320 19 d7 6b 3d af 0a 60 3e a2 4c f4 3d 2d 1d 7a 3e
       0.05757818 0.21879075 0.11928679 0.24425192
000330 88 d9 12 be 23 40 df bd b4 59 df 3d 97 ea 25 3e
       -0.14340794 -0.10900905 0.109057814 0.1620277
000340 ec fb 97 bd 7b 5f 9a bd 39 5b 09 bd 51 b2 06 be
       -0.07421097 -0.07537743 -0.033534262 -0.1315396
000350 73 1b 2a 3e 32 66 3e bd 6b f1 66 bd 58 50 bf 3d
       0.16612034 -0.04648418 -0.056382578 0.09341496
000360 d9 9e 2d bd f3 d9 40 be ab 44 a0 be 41 6d 9d bd
       -0.042387817 -0.18833141 -0.3130239 -0.07686854
000370 01 cb cd 3d 43 88 d2 3d c7 6f 63 3d b6 62 62 3e
       0.100484855 0.10279896 0.05552652 0.22107968
000380 a1 ca bd 3c 96 81 42 3c 1d 27 45 3e 12 78 d6 3d
       0.02316791 0.011871716 0.19253202 0.1047212
000390 ac 38 2b 3e 6d e9 6b bd 87 59 49 bd 1f 45 49 3e
       0.16720837 -0.05759566 -0.049157646 0.19655274
0003a0 c9 8f 1d 3e 56 bc 3a bd 38 95 8f be c1 ce 62 3e
       0.15386881 -0.045589767 -0.28043532 0.22149183
0003b0 05 e7 52 bd 23 b2 f3 3b 6b 53 13 bd 61 10 54 be
       -0.05148985 0.007437007 -0.035968225 -0.20709373
0003c0 5d 7d 0d be e9 a8 20 bd 4a f7 ee 3d b1 34 56 3d
       -0.13817354 -0.039223585 0.116682604 0.052296344
0003d0 fe c4 e2 bd d5 b7 4f 3d 9e 2b 90 bd 30 cb b3 bc
       -0.110727295 0.050712425 -0.07039569 -0.021947473
0003e0 f6 23 93 3d 69 34 04 3b b5 ec 1f be eb 6a 05 be
       0.071845934 0.002017284 -0.1561764 -0.13029067
0003f0 fb 8f e9 3d 08 b7 ac bc e5 e4 e4 3d c6 27 61 bd
       0.11404415 -0.02108337 0.11176471 -0.05496957

block2.se1.fc.0.bias f4 [16]
000000 d1 59 96 3d 44 f3 82 bd 85 7c c2 bd d5 57 91 bb
       0.0734135 -0.063940555 -0.094964065 -0.004435519
000010 42 2c 71 3c 59 08 a7 bd ac 90 f4 bd 3f e6 38 3e
       0.014720025 -0.08155889 -0.119416565 0.18056582
000020 c4 e1 16 3d 46 2b ef bd 0c 5d bb bd a3 67 c8 3c
       0.0368364 -0.11678176 -0.09148607 0.02446348
000030 11 82 61 bc 81 74 25 3e 4f 98 02 bc e0 c6 06 3e
       -0.01376392 0.16157724 -0.0079708835 0.13161802

block2.se1.fc.2.weight f4 [48, 16]
000000 ce e6 18 3d 72 05 4c be 95 99 54 be 57 d1 0d be
       0.037329488 -0.19923952 -0.20761712 -0.13849388
000010 2e d9 5c bc 53 1d da bd 62 51 6d 3e 9d 20 92 3e
       -0.013479514 -0.106501244 0.23175576 0.28540507
000020 9e eb 72 3e 6e 87 74 be b0 0f a4 bd 22 e6 90 3d
       0.23722693 -0.23879787 -0.08010805 0.07075144
000030 43 fa 20 be a5 17 76 3e 2b e0 8c 3d 70 63 9d 3d
       -0.15720467 0.24032457 0.06878694 0.07684982
000040 a6 7c 73 bd ea aa b2 bb 94 23 01 bd f7 29 e4 bd
       -0.059445046 -0.0054525035 -0.03152807 -0.11140817
000050 3c da 7c bd 0d 82 f6 3a 98 c4 82 bd 3a 64 d1 3d
       -0.061731562 0.0018807069 -0.063851535 0.10224195
000060 4d 7e a2 bc 20 2a cc 3d f0 12 98 be bf b5 2f bd
       -0.019835616 0.09968972 -0.29701948 -0.042897936
000070 9b e9 42 3d 28 70 9f bd 7d a5 e8 bd c0 56 24 3e
       0.047586065 -0.07785064 -0.113596894 0.16048717
000080 0b 31 23 be ec 05 92 be c9 eb d4 bc 8e 65 0a 3e
       -0.15936677 -0.28520143 -0.025991337 0.13515303
000090 5e d1 20 be cf 13 b2 bc d4 ad e7 3d 05 a1 4e be
       -0.15704867 -0.021737961 0.11312452 -0.20178612
0000a0 b3 2e 04 bd 3e ce 8e be b5 78 e2 bc 07 b4 0e 3e
       -0.0322711 -0.27891725 -0.027645448 0.13935862
0000b0 82 7e 96 bd a5 49 89 bd e5 d6 86 3e b8 2d f0 bd
       -0.07348348 -0.067035 0.26335827 -0.1172747
0000c0 4c 78 6b be 72 3c dc bc c9 c5 07 be e6 ee 83 be
       -0.22995108 -0.026884291 -0.13259043 -0.25768203
0000d0 6c 2f 8d be c2 2c 86 bd 08 79 ea 3d 6f 60 7e 3d
       -0.27575243 -0.065515056 0.11448866 0.062103685
0000e0 a3 fd 11 be 98 8c 97 3c 5c 14 ae 3d 0e b1 42 3e
       -0.14256911 0.018499658 0.08499977 0.19012854
0000f0 ad cc fb bd 0c 4a 3f 3e 24 2a 7d be b3 8d 16 be
       -0.12294898 0.1868059 -0.24723107 -0.14702491
000100 b9 96 22 3e b4 76 42 bd c2 57 54 be 13 20 60 be
       0.15877809 -0.047476485 -0.20736602 -0.21887235
000110 58 76 a1 3d 93 e8 5c 3e 80 12 3c 3d e2 44 93 bd
       0.078839004 0.21573095 0.04591608 -0.07190873
000120 d1 e2 9c be 84 87 63 3d ae 44 81 be 3b 82 dc bd
       -0.30641797 0.05554916 -0.2524771 -0.10767027
000130 38 90 e0 bd d1 10 5e 3d fb ba da bc 98 29 f3 3d
       -0.109650075 0.054215256 -0.026700487 0.11873168
000140 7e 20 32 3d 12 77 88 be ee da 6d be 62 4c 13 bd
       0.04348802 -0.26653343 -0.23228046 -0.035961516
000150 96 f4 06 be 68 ad 24 3e 40 40 aa bb 25 35 98 be
       -0.1317924 0.16081774 -0.0051956475 -0.29728046
000160 ad a6 0b 3e a1 e8 b7 bd 67 9c 5d bd bd e9 0c 3d
       0.136378 -0.08979917 -0.054104235 0.034402598
000170 71 2f 40 bd b0 60 48 3e 26 35 09 be f8 d7 a2 3d
       -0.046920244 0.19568133 -0.13399181 0.07951349
000180 ed 62 47 be c5 93 09 3d ea 96 db 3c 35 18 c7 bd
       -0.19471331 0.03358819 0.02680536 -0.09721414
000190 6a b6 6a be 0e 93 a2 3d ea 81 1d be ad 61 81 3c
       -0.22921148 0.07938205 -0.1538159 0.015793646
0001a0 78 fb 45 3e 9f 66 15 be 98 dd d1 bd 5d 45 0d bd
       0.19334209 -0.14589928 -0.10247344 -0.034489978
0001b0 82 d5 f4 3d 95 96 08 be ad c7 c3 3e fb 5f 93 bd
       0.11954786 -0.13338692 0.38238278 -0.07196041
0001c0 5d 23 10 3d 10 18 27 bd 3a 6b 2c 3c 14 18 45 3d
       0.035189975 -0.040794432 0.010523612 0.048118666
0001d0 ca 63 b9 3e 39 f0 ab 3d 5a f7 58 3e f3 b3 cb 3b
       0.36208946 0.08395428 0.21188107 0.00621652
0001e0 f5 f7 1c 3e 4a 87 f4 bc ad 0d e4 bd 3e fa 7a 3e
       0.15328963 -0.029849667 -0.11135421 0.24509522
0001f0 57 35 e6 bd 37 b5 2e 3e 21 56 42 3e e5 e5 0a bb
       -0.112406425 0.17061315 0.18978168 -0.0021194157
000200 f2 08 76 be ec 65 7d be 40 08 98 3e 36 f8 c0 3c
       -0.2402685 -0.24745911 0.29693794 0.023555856
000210 e8 10 5f bd b2 ff 7d 3d ac 54 d7 bd a1 36 7b bd
       -0.054459482 0.06201143 -0.10514197 -0.061331395
000220 8e 5c 5b bc 19 6b 08 be 86 5b 0d be 72 3c 36 3d
       -0.013388766 -0.13322105 -0.13804445 0.04449124
000230 36 4b 09 be 57 4a 99 be e8 e8 03 be ba 44 80 3c
       -0.13407597 -0.2993953 -0.12881815 0.015657771
000240 7c 7a 9a be 4f ce 87 bd 94 b7 3f be d2 d7 8c bc
       -0.30171573 -0.06631147 -0.18722373 -0.017192755
000250 46 5a b9 be 5b 9a 77 3d 78 4d 1e 3d 6f 66 f4 bd
       -0.36201686 0.06044994 0.0386481 -0.119336
000260 97 75 7d be bf 5b 0b be 15 c1 3e bb c9 3c ab be
       -0.24751888 -0.13609217 -0.0029106785 -0.33444813
000270 75 39 30 bc 01 a0 3c be b1 16 fa 3d 53 15 bd be
       -0.010755886 -0.18420412 0.12211359 -0.36930332
000280 77 0f 7c 3d 17 44 19 3d d1 90 60 be 7d 40 4e 3e
       0.061538186 0.03741845 -0.21930243 0.20141788
000290 17 9c 64 3d d2 41 bf 3d e0 47 e2 bc 9a 92 8b bd
       0.05581292 0.09338726 -0.027622163 -0.068150714
0002a0 8a 4c bd be 9d a2 fd 3d 46 c6 f6 3d b2 d7 a5 bd
       -0.36972457 0.12384532 0.120495364 -0.08097781
0002b0 49 c4 37 3e f4 b5 de 3b 51 3d 54 3d 44 5b 92 bd
       0.1794597 0.006796593 0.05181629 -0.07146314
0002c0 83 94 7f 3d ec 8f 34 3e 74 28 2f 3e 38 53 d5 3d
       0.06239749 0.17633027 0.17105275 0.10416263
0002d0 16 52 9d bb 5b 3f 00 be 34 55 3a be 86 d7 10 3e
       -0.004801045 -0.12524168 -0.18196565 0.14144716
0002e0 bc 47 81 3e eb 12 34 3e bd 2e 40 bc c0 99 c7 be
       0.2525004 0.17585342 -0.011729893 -0.3898449
0002f0 cb 83 71 be 5e 4d 38 be 6d 94 6c 3e b8 41 64 3e
       -0.23585431 -0.17998263 0.23103495 0.22290695
000300 60 20 0a 3e 4a 66 68 be 51 e0 20 be 40 79 92 bd
       0.13488913 -0.2269527 -0.1571057 -0.07152033
000310 65 6d 94 3b fe 23 86 bb 44 fa 31 3e 6f 50 72 be
       0.0045296424 -0.004093646 0.17380625 -0.23663495
000320 79 39 21 be f7 dd bd 3e 26 d2 8f 3d f2 84 a6 be
       -0.1574458 0.37083408 0.070225045 -0.32523304
000330 f0 56 52 3e 93 a6 53 3e a5 ee 75 3e 88 1d 47 3e
       0.20540977 0.20669012 0.24016817 0.19444859
000340 42 60 55 3e 60 72 49 bd 17 62 c3 b9 b7 41 61 3e
       0.208375 -0.049181342 -0.0003726638 0.21997724
000350 bf 3a 66 3d 65 12 3a bd 60 c4 6e 3d 87 97 2e 3e
       0.05620837 -0.0454277 0.058292747 0.1704999
000360 31 3e 04 3e 1c dd c5 bc 50 80 02 3d 67 bb 7b 3c
       0.12914349 -0.024153285 0.03186065 0.015364504
000370 88 30 92 3d c1 31 17 3e 6f 15 64 3e 44 92 a2 3e
       0.07138163 0.14765073 0.22273801 0.31752217
000380 dd 07 da 3c bc e9 f7 3d aa 67 36 be aa b7 24 3e
       0.026615078 0.12105128 -0.17812982 0.16085687
000390 96 7f 5d 3d b4 86 21 be b0 15 72 be cd c3 dd 3d
       0.054076754 -0.15774041 -0.23641086 0.10828362
0003a0 f4 f3 3e be d6 24 d6 3e 5c a6 b6 bc 58 29 53 be
       -0.18647748 0.4182498 -0.022296123 -0.2062124
0003b0 aa f9 ab 3c 0b 49 a5 be d6 51 a8 3d 3e 63 d2 bd
       0.020993073 -0.3228229 0.08218734 -0.10272835
0003c0 51 d1 d9 bd 37 b5 70 3e d7 3e d8 3d 98 db 4a 3d
       -0.10635627 0.23506628 0.10558861 0.049525827
0003d0 d4 c9 3e 3e 7e 6b 26 3c 6c 37 31 3e 99 5c 23 bd
       0.18631679 0.010157464 0.17306298 -0.03988323
0003e0 38 27 74 be a9 27 6f 3e 5a ba 06 be 92 e9 21 be
       -0.23843086 0.23354973 -0.13157025 -0.15811756
0003f0 6a 01 29 3e 13 23 5a be 65 52 4b 3d e0 c5 f7 3c
       0.16504446 -0.21302442 0.049639124 0.030245721

block2.se1.fc.2.bias f4 [48]
000000 ec 87 7e 3e 52 c4 3a 3c d1 f8 77 be c8 10 77 3e
       0.24856538 0.0113993455 -0.2421601 0.24127495
000010 db b3 1d be fb 59 91 bc a4 6d e3 39 ca d1 48 be
       -0.1540064 -0.017743101 0.00043378503 -0.19611278
000020 ba 5a dc bd 8b 89 08 be b8 07 16 3e 4f eb 3f 3e
       -0.10759492 -0.13333718 0.14651382 0.18742107
000030 9d 90 39 3e 21 c8 fe bc df 9a 4d be 09 36 ae 3d
       0.18121572 -0.031101288 -0.2007861 0.085064
000040 22 a8 6b 3e a7 a3 8e 3d a1 b9 c9 3c f3 49 41 3e
       0.23013356 0.06964808 0.024624648 0.18875866
000050 94 ea b2 be 3a a7 2f be e7 ae 0a 3d 76 12 e4 bc
       -0.34944594 -0.17153636 0.033858206 -0.027840834
000060 f8 b1 cd 3d c7 fa 98 3d b5 bf 22 3e 9d 20 78 be
       0.100437105 0.07469707 0.15893443 -0.24231191
000070 91 92 7f bd 2b d2 e0 bd 46 5c e3 bb c3 bc 10 3e
       -0.062395636 -0.10977586 -0.00693849 0.14134507
000080 a0 a0 3d 3e da d4 cf bd c4 1b d6 3d 90 eb ae bd
       0.18518305 -0.1014802 0.104545146 -0.08541024
000090 35 21 85 bd 55 6e 04 3e 83 d4 8d 3e fb 91 ea 3c
       -0.06500474 0.12932713 0.27701196 0.028634062
0000a0 02 9a 2f 3e c9 9c 42 3e 68 95 8c be 8f 5d 9e 3e
       0.17148593 0.19005121 -0.27457738 0.30930755
0000b0 ac 19 3e 3d 10 f0 81 bd dd df da 3d 11 b5 3c 3e
       0.0464112 -0.063446164 0.1068723 0.18428446
