Project/Software/project_Mobilenet_q/saved_test.ckpt (torch, 278562 bytes, 73 tensors)

conv1.weight f4 [8, 1, 3, 3]
0.17859766 0.17751984 0.2536289 0.16624661 0.065087326 -0.22844335 -0.298124 -0.21398003
0.23581102 0.10169105 0.07059479 -0.24558346 -0.0684227 -0.22087415 0.20399114 -0.038475633
-0.26129332 -0.08474727 0.21609728 0.05577238 0.30230975 -0.2841357 -0.11129407 -0.14688991
0.303638 -0.15055583 -0.18121953 -0.2526145 -0.11798729 -0.114176705 0.09215278 0.15340099
-0.2118017 -0.11022463 -0.073863454 0.22064777 0.31611884 -0.23006894 0.07941483 0.19011143
0.16694008 -0.27846295 0.032454304 0.30387193 -0.17570703 -0.04457097 0.04026109 -0.13232164
0.27196547 -0.36645833 -0.22603045 -0.19105646 0.16176386 -0.011061934 0.17611183 -0.27384737
-0.29565784 -0.08048665 0.03054956 -0.020975485 0.1926524 0.042131685 -0.0037233182 0.23521142
0.09943952 -0.15079355 0.2904807 0.2745726 0.04377015 -0.07988636 -0.32217863 -0.009711641
00000000: 4ee2 363e c3c7 353e a6db 813e 8d3c 2a3e
00000010: 814c 853d 0eed 69be b5a3 98be 951d 5bbe
00000020: 7278 713e 6643 d03d 0094 903d 3b7a 7bbe
00000030: 3321 8cbd d52c 62be 0ee3 503e a098 1dbd
00000040: 3dc8 85be fa8f adbd 9b48 5d3e 9471 643d
00000050: 58c8 9a3e 3c7a 91be 25ee e3bd 4f6a 16be
00000060: 7176 9b3e 4f2b 1abe 9d91 39be b056 81be
00000070: 52a3 f1bd 7ad5 e9bd 99ba bc3d 2615 1d3e
00000080: 8be2 58be 73bd e1bd b945 97bd 7df1 613e
00000090: 54da a13e 3197 6bbe 3ea4 a23d 92ac 423e
000000a0: 57f2 2a3e b292 8ebe ceee 043d 1a95 9b3e
000000b0: 8bec 33be 0d90 36bd d0e8 243d 537f 07be
000000c0: 0f3f 8b3e 6da0 bbbe 8774 67be 4ea4 43be
000000d0: 6da5 253e 1d3d 35bc a956 343e b935 8cbe
000000e0: 7760 97be 2fd6 a4bd 1243 fa3c c8d4 abbc
000000f0: ac46 453e 4692 2c3d ea02 74bb 43db 703e
00000100: f2a6 cb3d a069 1abe e3b9 943e c894 8c3e
00000110: 5448 333d 769b a3bd 99f4 a4be 931d 1fbc

block1.pw1.weight f4 [8, 8, 1, 1]
-1.7005514 -5.02271 -4.808329 -7.8235464 8.267343 -2.0611923 -13.234635 7.4153404
-27.181803 11.853747 2.7128644 19.509804 -52.132885 -28.75613 -45.151157 -7.41765
-26.350906 12.539511 -7.613198 10.924875 -3.8721678 8.1801195 -2.2232764 7.148522
37.403225 54.015476 25.662361 19.233683 -11.70546 20.48741 -5.3615193 15.124273
13.362595 -2.5492842 7.9881616 -0.5911058 17.254501 5.734456 -10.623241 8.826604
1.0869429 -11.894157 1.5583154 8.817037 -19.915857 13.337905 27.675034 -18.971844
-41.304325 11.700207 10.763575 23.128107 -11.431956 -18.759344 31.322258 11.130629
9.077051 -17.968826 -17.460579 -11.859106 -15.957837 -12.640817 13.470019 0.086704664
00000000: abab d9bf 0aba a0c0 d5dd 99c0 7e5a fac0
00000010: 0947 0441 93ea 03c0 11c1 53c1 784a ed40
00000020: 5574 d9c1 f3a8 3d41 929f 2d40 1414 9c41
00000030: 1388 50c2 8e0c e6c1 c99a 34c2 645d edc0
00000040: a8ce d2c1 d6a1 4841 519f f3c0 4acc 2e41
00000050: 99d1 77c0 c5e1 0241 294a 0ec0 b1c0 e440
00000060: e79c 1542 d90f 5842 844c cd41 95de 9941
00000070: 9049 3bc1 37e6 a341 9191 abc0 06fd 7141
00000080: 30cd 5541 7927 23c0 059f ff40 b652 17bf
00000090: 3809 8a41 aa80 b740 ccf8 29c1 c539 0d41
000000a0: f220 8b3f 784e 3ec1 e176 c73f 9512 0d41
000000b0: ad53 9fc1 0f68 5541 7866 dd41 56c6 97c1
000000c0: a137 25c2 0c34 3b41 9a37 2c41 5d06 b941
000000d0: 4be9 36c1 2313 96c1 fc93 fa41 0e17 3241
000000e0: 9a3b 1141 28c0 8fc1 44af 8bc1 e6be 3dc1
000000f0: 4d53 7fc1 c940 4ac1 3385 5741 3792 b13d

block1.pw1.bias f4 [8]
-4.257467 5.9643106 6.3431363 9.141116 -4.339255 7.071305 7.867172 -3.7019062
00000000: 2b3d 88c0 a2db be40 f9fa ca40 0342 1241
00000010: 2ddb 8ac0 2148 e240 dfbf fb40 08ec 6cc0

block1.dw1.weight f4 [8, 1, 3, 3]
-2.0251985 4.480539 2.777415 3.840802 3.3473463 -3.1209528 -0.18720569 -1.6377553
-0.33284983 -0.34478587 -0.389143 -0.97664493 -0.123551734 -0.34648365 -0.23360054 -0.15075497
-0.6183056 -0.49637783 2.1196933 0.88048255 0.5462282 -2.5859556 -1.7608159 -0.85847586
-2.5304337 -2.270835 -0.7278279 0.8868555 1.110228 0.59714985 0.7646291 0.94053364
0.67816323 -0.050323997 -0.0062060044 -0.112228386 -0.24986973 0.20150135 1.0886877 -0.33107063
0.46840307 0.63979405 0.7206866 0.52962464 0.503978 -2.4198754 -0.20158009 -3.2370443
0.020840704 -0.30312574 -0.2406436 -3.7622955 1.2451618 -1.582408 -0.8100969 -3.9233744
6.4444184 -8.505935 -8.303691 1.1113365 6.127405 9.035007 -6.971039 2.9412649
-2.091565 3.6357589 -4.1473007 -3.269908 3.782384 -2.0756905 -6.380795 -1.2662555
00000000: da9c 01c0 9360 8f40 2bc1 3140 b3cf 7540
00000010: ec3a 5640 b1bd 47c0 d9b2 3fbe f7a1 d1bf
00000020: 4b6b aabe c687 b0be c03d c7be 6705 7abf
00000030: b108 fdbd 4e66 b1be fb34 6fbe 835f 1abe
00000040: 4749 1ebf 3c25 febe 0ea9 0740 4e67 613f
00000050: 9cd5 0b3f 4c80 25c0 6a62 e1bf 13c5 5bbf
00000060: a0f2 21c0 5c55 11c0 ee52 3abf f608 633f
00000070: f31b 8e3f d0de 183f bcbe 433f d0c6 703f
00000080: 1b9c 2d3f 8920 4ebd bd5b cbbb ffd7 e5bd
00000090: dadd 7fbe 5f56 4e3e 1e5a 8b3f 1782 a9be
000000a0: 87d2 ef3e 8bc9 233f eb7e 383f 7b95 073f
000000b0: b404 013f 3ddf 1ac0 036b 4ebe bc2b 4fc0
000000c0: 20ba aa3c 4c33 9bbe 476b 76be 73c9 70c0
000000d0: 7661 9f3f 588c cabf 8362 4fbf 9118 7bc0
000000e0: ad38 ce40 4f18 08c1 ebdb 04c1 4640 8e3f
000000f0: b413 c440 648f 1041 c012 dfc0 af3d 3c40
00000100: 33dc 05c0 46b0 6840 b0b6 84c0 2c46 51c0
00000110: 9412 7240 1dd8 04c0 792f ccc0 a914 a2bf

block1.dw1.bias f4 [8]
-1.3923844 0.80812883 1.3188043 -0.3737486 -0.80716825 1.4734508 1.1242806 2.4876783
00000000: a739 b2bf 88e1 4e3f 94ce a83f fa5b bfbe
00000010: 94a2 4ebf 099a bc3f 6de8 8f3f 1f36 1f40

block1.se1.fc.0.weight f4 [8, 8]
-0.2865943 -0.11589141 -0.06941769 0.365496 -0.5011191 -0.27717274 -0.2153236 -0.1543071
0.41580027 -0.14079027 0.1632124 0.31127444 0.052792154 -0.09103394 -0.16151908 -0.1547447
-0.23644853 0.01600492 -0.2691262 0.44628868 -0.103732705 -0.14342302 0.08673732 0.29010186
0.3780809 0.38670263 0.008403276 -0.22392675 0.3456038 0.2296332 0.0467647 0.31607008
-0.2499889 -0.041794453 0.07534057 0.29220727 -0.028420223 -0.23153293 -0.31093204 0.31127888
-0.1382868 0.010198832 -0.08247566 0.1314305 -0.09785563 -0.07213622 -0.14923723 -0.21486808
0.08119947 0.22539161 -0.22054398 -0.23119232 0.48536703 0.3422078 0.18699624 0.2139147
-0.1553105 0.040539563 0.25846684 -0.11233847 -0.48718813 -0.3395556 0.16571504 0.22008437
00000000: 7dbc 92be 7a58 edbd dd2a 8ebd 4b22 bb3e
00000010: 5749 00bf 96e9 8dbe ca7d 5cbe ae02 1ebe
00000020: c6e3 d43e 532b 10be 2721 273e 5d5f 9f3e
00000030: 963c 583d 0170 babd 4265 25be 6575 1ebe
00000040: 901f 72be c01c 833c e9ca 89be f37f e43e
00000050: d071 d4bd 7cdd 12be 56a3 b13d 3b88 943e
00000060: d293 c13e e3fd c53e e5ad 093c 0e4d 65be
00000070: fbf2 b03e f724 6b3e 588c 3f3d f0d3 a13e
00000080: 17fd 7fbe a930 2bbd 284c 9a3d 319c 953e
00000090: 87d1 e8bc f816 6dbe 7c32 9fbe f25f 9f3e
000000a0: 0e9b 0dbe 0019 273c 00e9 a8bd b895 063e
000000b0: 8868 c8bd 28bc 93bd a5d1 18be 6106 5cbe
000000c0: e84b a63d 0fcd 663e 48d6 61be aebd 6cbe
000000d0: 0782 f83e dc35 af3e f17b 3f3e 750c 5b3e
000000e0: b709 1fbe d00c 263d c455 843e b611 e6bd
000000f0: b970 f9be 3bda adbe 34b1 293e cc5d 613e

block1.se1.fc.0.bias f4 [8]
0.1489531 0.025747567 -0.04021878 0.34543246 0.437416 -0.2813888 0.18387546 0.12458761
00000000: 2987 183e 90ec d23c 73bc 24bd 86dc b03e
00000010: fdf4 df3e 3112 90be d949 3c3e ca27 ff3d

block1.se1.fc.2.weight f4 [8, 8]
-0.03368404 -0.14903893 -0.115564555 -0.026757592 -0.24265854 0.18578407 -0.28419235 0.1506478
0.2532329 -0.17256631 0.03401006 -0.05103154 0.3712416 -0.32838827 -0.44638288 0.09944308
0.23290958 0.23471813 0.07922828 -0.30853978 -0.16136026 0.28894946 -0.3092628 0.29316074
0.3010266 -0.26689386 -0.14682688 -0.07586469 0.3870576 -0.034044355 -0.094380215 0.1752672
-0.46530333 0.016828112 -0.13913006 0.12330742 -0.5165318 -0.27575162 -0.15483274 0.15566026
-0.033530187 0.080237225 0.516663 0.30146757 0.05987958 -9.056926e-05 -0.14555027 0.06411764
0.19535086 -0.38174492 0.25161868 -0.23842612 -0.046791874 0.33165243 -0.16062438 0.14252152
-0.18172507 -0.42564392 -0.03724363 -0.34484965 0.23735744 -0.13403912 0.11659248 -0.14525405
00000000: 47f8 09bd a99d 18be 1cad ecbd bd32 dbbc
00000010: 7b7b 78be 2e3e 3e3e a981 91be 6b43 1a3e
00000020: bea7 813e 39b5 30be 224e 0b3d 7306 51bd
00000030: 6113 be3e 8222 a8be 4c8c e4be d0a8 cb3d
00000040: d97f 6e3e f359 703e 7042 a23d edf8 9dbe
00000050: a03b 25be 2ff1 933e b257 9ebe 2a19 963e
00000060: 2920 9a3e 50a6 88be c959 16be f25e 9bbd
00000070: 6a2c c63e 1872 0bbd 6a4a c1bd 3f79 333e
00000080: 3d3c eebe 1cdb 893c 1c78 0ebe 9a88 fc3d
00000090: 6e3b 04bf 512f 8dbe 798c 1ebe 6765 1f3e
000000a0: f356 09bd 6a53 a43d 0744 043f f559 9a3e
000000b0: 4a44 753d 00f0 bdb8 210b 15be 1c50 833d
000000c0: 0e0a 483e 1274 c3be 2ad4 803e fa25 74be
000000d0: d6a8 3fbd 59ce a93e b87a 24be 29f1 113e
000000e0: 2316 3abe 00ee d9be c78c 18bd 2290 b0be
000000f0: d40d 733e 8d41 09be 0ac8 ee3d 7abd 14be

block1.se1.fc.2.bias f4 [8]
-0.12225809 0.15717116 -0.095537364 -0.16864932 -0.1646431 -0.21356516 -0.2812691 -0.07098589
00000000: 7362 fabd 7af1 203e 18a9 c3bd 68b2 2cbe
00000010: 3398 28be d3b0 5abe 8102 90be 0d61 91bd

block1.pw2.weight f4 [16, 8, 1, 1]
-5.707405 32.192593 1.4977058 -8.115874 22.0894 4.182817 21.916117 -14.227819
27.760237 -12.890807 21.735874 -16.02114 7.733433 -18.019548 16.07452 -21.936123
-13.219359 -82.88929 60.53792 -15.61693 -45.477432 67.35115 -7.7416334 -45.644505
11.175934 -18.094618 2.3864956 6.846906 -33.440212 -51.7575 -0.8689611 -37.803677
25.484013 1.6856837 -25.721664 30.782177 -38.289864 3.2760117 28.654615 -19.43359
20.84212 18.336113 -7.4596167 25.329401 19.728748 -3.6813347 -14.178101 7.5559263
-16.896175 -7.721057 0.54935855 -13.358552 -14.884528 -17.105556 12.2356205 -4.846747
-7.9155555 -50.367443 -40.197968 5.89929 35.091854 -10.206107 -41.383934 12.8037195
-48.3566 2.6494267 -48.815033 12.550967 -16.56194 23.93246 28.992407 -56.09668
-18.351833 -33.774033 18.159187 -37.01391 -9.710863 -6.989479 -27.796295 34.14428
20.712543 7.225083 -8.486838 38.13914 35.815006 -56.946285 -20.184443 -6.8933764
-19.770544 11.128668 10.313435 -19.838108 -7.0424485 3.2236428 9.215927 -20.721691
-5.8998804 4.895803 12.367279 17.768515 14.114562 23.449574 20.74539 -6.0828667
14.792003 -32.347847 -9.97877 18.7544 17.88284 9.971458 20.32876 26.030624
48.381268 -36.699226 -41.553745 13.457246 -13.832301 -35.712864 52.367313 -37.09679
-6.584829 -20.556677 -4.646872 12.602729 -13.794474 -5.52956 3.573505 -3.00801
00000000: 10a3 b6c0 37c5 0042 d3b4 bf3f 9fda 01c1
00000010: 17b7 b041 a3d9 8540 3554 af41 26a5 63c1
00000020: f714 de41 bf40 4ec1 12e3 ad41 4b2b 80c1
00000030: 4878 f740 0928 90c1 9e98 8041 2e7d afc1
00000040: 7f82 53c1 51c7 a5c2 d526 7242 f2de 79c1
00000050: e4e8 35c2 cab3 8642 76bb f7c0 f993 36c2
00000060: a0d0 3241 c7c1 90c1 58bc 1840 db19 db40
00000070: c7c2 05c2 ae07 4fc2 3c74 5ebf f736 17c2
00000080: 42df cb41 7cc4 d73f f8c5 cdc1 e641 f641
00000090: d228 19c2 2daa 5140 a73c e541 fe77 9bc1
000000a0: a9bc a641 5cb0 9241 2eb5 eec0 9da2 ca41
000000b0: 7ad4 9d41 fd9a 6bc0 80d9 62c1 26ca f140
000000c0: 5e2b 87c1 e612 f7c0 c3a2 0c3f a1bc 55c1
000000d0: 0727 6ec1 2ed8 88c1 1ac5 4341 8d18 9bc0
000000e0: 3b4c fdc0 4378 49c2 b8ca 20c2 fcc6 bc40
000000f0: 0f5e 0c42 374c 23c1 2689 25c2 09dc 4c41
00000100: 296d 41c2 3590 2940 9842 43c2 c3d0 4841
00000110: da7e 84c1 ae75 bf41 73f0 e741 0063 60c2
00000120: 8ed0 92c1 9c18 07c2 0446 9141 3e0e 14c2
00000130: b25f 1bc1 d0a9 dfc0 d05e dec1 be93 0842
00000140: 4ab3 a541 e133 e740 17ca 07c1 7b8e 1842
00000150: 9142 0f42 ffc8 63c2 bd79 a1c1 8a96 dcc0
00000160: 132a 9ec1 060f 3241 d403 2541 72b4 9ec1
00000170: bd5b e1c0 2a50 4e40 7074 1341 06c6 a5c1
00000180: d2cb bcc0 6baa 9c40 60e0 4541 eb25 8e41
00000190: 3fd5 6141 ba98 bb41 8ff6 a541 d8a6 c2c0
000001a0: 0bac 6c41 3264 01c2 0ba9 1fc1 0309 9641
000001b0: 0e10 8f41 188b 1f41 4da1 a241 b83e d041
000001c0: 6b86 4142 02cc 12c2 0937 26c2 e150 5741
000001d0: 1b51 5dc1 f9d9 0ec2 2178 5142 1d63 14c2
000001e0: ebb6 d2c0 1374 a4c1 2db3 94c0 c7a4 4941
000001f0: 2ab6 5cc1 28f2 b0c0 4eb4 6440 3c83 40c0

block1.pw2.bias f4 [16]
-3.3183403 2.3324308 6.38117 7.0855885 -1.9338953 -5.6610565 4.6375318 7.755272
3.9115913 7.720869 -1.588455 2.084486 -5.582388 -1.7595708 6.262714 2.3522055
00000000: b05f 54c0 8c46 1540 8b32 cc40 24bd e240
00000010: e289 f7bf 6027 b5c0 a966 9440 302b f840
00000020: 8357 7a40 5c11 f740 7e52 cbbf 3868 0540
00000030: eca2 b2c0 9e39 e1bf 2768 c840 898a 1640

block2.pw1.weight f4 [48, 16, 1, 1]
-1.1681573 0.32285696 -1.0172642 0.7913952 1.0544558 0.4598197 -1.7451023 -1.0866303
-0.6005155 -1.3838519 0.98060197 -0.6843968 0.7447654 -0.72434664 -0.11564711 -0.60388124
-3.3695977 -2.7038615 -0.3230661 -2.3711534 -1.450643 -0.31298184 1.503973 -1.4495939
-1.9781832 -1.2842196 1.3316149 -0.27713466 1.7948666 2.299843 0.4830865 -0.009635519
-1.0559939 0.8448095 -0.88080895 -0.28258225 -1.4604747 -1.5749484 1.3612989 2.302674
0.68523216 0.75608426 0.20075801 -0.57925683 1.031101 0.9192358 0.80983686 1.243707
0.51365256 -0.39075044 -0.77342254 0.73038644 -0.4287827 0.28896737 0.12739818 -0.46312144
0.6075148 0.11639159 -0.7423161 0.34319404 0.089612596 -1.0481744 -0.7797967 -0.54905677
0.73762894 -0.5146984 2.3444188 0.310827 1.5951688 1.7736369 0.9959687 -0.12906933
1.5078348 2.3477015 2.0417778 0.8654501 -0.8866399 -0.79845273 -1.3067164 -0.028119156
0.49703357 -0.68949765 -1.1222241 0.4230769 0.8361604 1.0175823 -0.68737423 -0.7568034
-0.63836724 0.006710362 -0.27799392 0.5251188 0.73046374 0.04987744 0.65188646 -0.010353794
0.5617321 -1.5471741 2.1674573 0.8337275 -0.31636918 -0.108555585 1.2558836 0.5224394
-0.8053334 0.24739088 -0.39378154 -1.3610268 -1.2614778 -0.37915632 -1.0974486 0.2544308
0.08023909 0.2591684 -0.26527703 0.04681766 -0.52219063 0.117110305 -0.7615801 -0.55286354
0.22311038 1.092953 -0.11147555 0.7619294 -1.1052747 -1.1983234 0.076977156 -0.5297599
0.46507698 0.29288083 -0.8076715 0.26186386 0.60278314 0.5786193 0.4595983 -0.010544947
0.17094599 0.2326637 -0.31457242 -0.31095874 0.2248723 0.32856166 -0.021651221 0.68561286
-0.35838446 1.2651484 -0.76995057 -1.4666928 0.32906875 1.3082075 -0.85010356 -1.017137
-0.43005106 0.66727173 1.0341864 -0.43128148 0.0072284276 0.22239594 0.22796671 -0.26866364
1.1195805 1.6758026 0.6674164 2.448908 0.6416854 -0.26015052 0.048759192 0.47688904
0.9652135 -1.7161165 1.0340307 -1.6143278 1.3247279 0.020753112 -0.14913572 0.6499941
-0.14907713 0.077877894 0.5367124 -1.7453865 -1.3056023 0.37656063 0.13966642 0.6217975
1.1421515 -0.3263159 -1.2813104 1.0399637 -0.279692 0.5990776 -0.54298794 -0.36523947
-1.4891641 -2.329072 -2.4321525 -0.27911955 0.09538537 1.565278 -0.50620997 -1.8027213
1.8027081 -1.2224289 -0.3126448 -0.3096176 0.83219236 -0.6082668 -1.3958081 1.1292906
1.2427266 -1.2519335 0.75890625 2.2858217 -0.49165428 -1.9769855 0.5587787 1.289273
-0.21614695 -0.69067395 1.8265936 -1.41184 -0.46520823 -1.1728112 -0.66934216 -0.6752561
-9.73276 8.670524 -1.2048496 -3.5285635 -3.0690727 8.981552 -7.257768 2.89855
0.4627009 -5.9370036 -10.661843 -1.5805535 -7.2750826 6.152071 5.3050857 -5.392007
0.90870005 -1.061696 -1.1959888 0.67219675 -1.2357148 -1.5162308 2.6129289 2.281926
0.43984517 -0.32028916 -0.019684728 0.66015786 -0.6658319 1.0668107 -1.343406 1.1788894
00000000: 2e86 95bf 824d a53e b735 82bf e098 4a3f
00000010: 68f8 863f 7d6d eb3e 835f dfbf b416 8bbf
00000020: 62bb 19bf 0f22 b1bf bb08 7b3f a134 2fbf
00000030: f2a8 3e3f c86e 39bf 64d8 ecbd f697 1abf
00000040: 7da7 57c0 110c 2dc0 eb68 a5be fac0 17c0
00000050: abae b9bf 283f a0be 3082 c03f 4b8c b9bf
00000060: 1b35 fdbf 4f61 a4bf 5b72 aa3f 98e4 8dbe
00000070: 30be e53f a130 1340 1d57 f73e 4cde 1dbc
00000080: cf2a 87bf 6f45 583f b27c 61bf 9fae 90be
00000090: d6f0 babf e997 c9bf 0b3f ae3f 035f 1340
000000a0: 606b 2f3f bd8e 413f 8293 4d3e 2d4a 14bf
000000b0: 1efb 833f 0a53 6b3f 7851 4f3f ca31 9f3f
000000c0: bc7e 033f 7110 c8be 05ff 45bf 9bfa 3a3f
000000d0: 6889 dbbe 88f3 933e ab74 023e 411e edbe
000000e0: 1786 1b3f b75e ee3d 6e08 3ebf 21b7 af3e
000000f0: cf86 b73d 942a 86bf c2a0 47bf fc8e 0cbf
00000100: 40d5 3c3f 46c3 03bf f50a 1640 b724 9f3e
00000110: 7e2e cc3f 8906 e33f cef7 7e3f c02a 04be
00000120: bb00 c13f be40 1640 7dac 0240 238e 5d3f
00000130: d5fa 62bf 6667 4cbf 7c42 a7bf 255a e6bc
00000140: 2f7b fe3e eb82 30bf 0aa5 8fbf 899d d83e
00000150: 9c0e 563f 2340 823f c2f7 2fbf debd 41bf
00000160: 096c 23bf 99e2 db3b 3855 8ebe 306e 063f
00000170: acff 3a3f 494c 4c3d 08e2 263f f6a2 29bc
00000180: adcd 0f3f cd09 c6bf 9fb7 0a40 2a6f 553f
00000190: 24fb a1be 6452 debd cbc0 a03f 97be 053f
000001a0: 542a 4ebf 0954 7d3e bc9d c9be 2036 aebf
000001b0: 1b78 a1bf c720 c2be 3279 8cbf c144 823e
000001c0: 6454 a43d b8b1 843e 64d2 87be e0c3 3f3d
000001d0: 49ae 05bf 87d7 ef3d eaf6 42bf 7788 0dbf
000001e0: 0c77 643e e2e5 8b3f 4b4d e4bd ce0d 433f
000001f0: a479 8dbf a962 99bf 33a6 9d3d 589e 07bf
00000200: 921e ee3e 7af4 953e 8fc3 4ebf 0513 863e
00000210: ff4f 1a3f 6520 143f 7850 eb3e b7c4 2cbc
00000220: 770c 2f3e 653f 6e3e a30f a1be fc35 9fbe
00000230: ed44 663e 3c39 a83e e75d b1bc 5384 2f3f
00000240: 2b7e b7be 62f0 a13f 7b1b 45bf 97bc bbbf
00000250: b37b a83e 5873 a73f 63a0 59bf 8c31 82bf
00000260: a72f dcbe 52d2 2a3f 3860 843f edd0 dcbe
00000270: 72dc ec3b c3bb 633e 1b70 693e 488e 89be
00000280: 6a4e 8f3f b380 d63f cddb 2a3f e9ba 1c40
00000290: 7f45 243f 7332 85be b8b7 473d cd2a f43e
000002a0: 3b18 773f b5a9 dbbf 1e5b 843f 4ba2 cebf
000002b0: af90 a93f 6e02 aa3c 09b7 18be 0366 263f
000002c0: ada7 18be 727e 9f3d fc65 093f d368 dfbf
000002d0: fa1d a7bf 8ecc c03e b704 0f3e 1f2e 1f3f
000002e0: 0532 923f e112 a7be fb01 a4bf 881d 853f
000002f0: ca33 8fbe 265d 193f 4201 0bbf ab00 bbbe
00000300: ee9c bebf 840f 15c0 63a8 1bc0 c2e8 8ebe
00000310: 6859 c33d 085b c83f fa96 01bf 92bf e6bf
00000320: 24bf e63f 8d78 9cbf fb12 a0be 3386 9ebe
00000330: 8f0a 553f 5fb7 1bbf d7a9 b2bf 988c 903f
00000340: aa11 9f3f 5b3f a0bf ae47 423f e74a 1240
00000350: 1cba fbbe dc0d fdbf 1f0c 0f3f e606 a53f
00000360: a055 5dbe 02d0 30bf d2cd e93f 2cb7 b4bf
00000370: c62f eebe ad1e 96bf 025a 2bbf 95dd 2cbf
00000380: 63b9 1bc1 77ba 0a41 8338 9abf fcd3 61c0
00000390: b06b 44c0 70b4 0f41 a33f e8c0 d881 3940
000003a0: 22e7 ec3e effb bdc0 e996 2ac1 944f cabf
000003b0: 7acd e8c0 c4dd c440 43c3 a940 528b acc0
000003c0: 91a0 683f a8e5 87bf 2916 99bf 1615 2c3f
000003d0: e72b 9ebf da13 c2bf 3a3a 2740 130b 1240
000003e0: 6333 e13e f1fc a3be de41 a1bc 1b00 293f
000003f0: f673 2abf 418d 883f baf4 abbf d9e5 963f

block2.pw1.bias f4 [48]
1.2696695 2.1386073 -0.93792623 0.53320235 -2.2891273 0.36587006 0.03344311 0.44050956
-0.37723362 0.2919195 -1.2487983 0.47051492 1.8370098 -0.024004966 6.388861 -0.8744825
-1.8180152 1.0717586 0.5040124 -1.2654282 0.31465897 0.101882786 -0.715262 0.84221613
0.51595575 0.7868773 -0.41111675 0.39731675 2.231723 0.41073048 5.688709 -0.4273893
0.52956337 -0.46891004 -0.11741121 0.6260401 2.9958127 -0.09274867 0.4906614 0.6574174
-0.30870232 0.29626596 3.6545246 0.22770797 -1.6555195 0.022635847 -0.34227064 0.92470646
00000000: 8884 a23f f1de 0840 ef1b 70bf f37f 083f
00000010: 1081 12c0 5253 bb3e a4fb 083d 788a e13e
00000020: c424 c1be 7976 953e 9fd8 9fbf 55e7 f03e
00000030: 2323 eb3f 10a6 c4bc 8d71 cc40 16de 5fbf
00000040: b9b4 e8bf 632f 893f f506 013f 8df9 a1bf
00000050: fb1a a13e eca7 d03d 691b 37bf 7a9b 573f
00000060: ad15 043f ca70 493f e57d d2be 1a6d cb3e
00000070: 8dd4 0e40 444b d23e e709 b640 c5d2 dabe
00000080: 7791 073f fa14 f0be 4a75 f0bd 2a44 203f
00000090: 65bb 3f40 04f3 bdbd f937 fb3e 824c 283f
000000a0: 3b0e 9ebe 2cb0 973e bbe3 6940 472c 693e
000000b0: 10e8 d3bf d06e b93c 193e afbe 90b9 6c3f

block2.dw1.weight f4 [48, 1, 3, 3]
0.82778645 -0.53063226 4.2885427 -1.9546809 -2.314676 2.0576146 0.83159274 -2.2441938
-0.61254716 -2.2805476 3.808598 -1.196888 -1.1083764 2.0014806 -1.6947852 4.3334484
0.09278172 -4.7286234 -1.9805044 0.9451362 1.5643104 -2.141707 0.047736015 -1.9500641
1.3725196 0.50945276 -3.2755806 0.5692055 1.3057382 -1.9611831 1.2228012 0.48050228
2.5982072 0.65934837 3.8244255 4.8341765 -1.3508965 2.5459146 -0.6653643 1.4191796
1.3800479 -1.2271403 1.1327096 2.7736716 -2.4221027 1.533146 -1.7084949 1.8039222
0.6807189 0.8516196 -1.9160392 -1.8468952 1.1921004 0.58521855 -2.7804058 3.626531
0.5452088 1.0882483 -2.0900738 -6.5974307 -2.528807 -3.8870583 -2.5710752 5.20157
-5.5883517 -10.891543 8.458774 -13.098614 -5.533803 11.640017 -8.312799 -7.402041
0.9701891 -1.0688972 1.0968734 1.1889051 0.17413776 0.5512087 0.5603077 0.5801438
-1.303397 -1.1933743 -1.1519532 -0.31227732 -1.1847303 1.2096539 0.2624001 1.7824508
-0.81813705 0.04252348 -3.4188783 0.099367 1.9818633 -1.7498959 1.0396098 -0.32366166
1.9769171 -3.3180761 1.4207786 -2.1003838 -5.4732957 -2.7166607 -7.3058167 2.0670116
2.1094992 0.88294935 -4.19372 3.966972 -0.42291787 -1.0612961 2.1157374 -1.663612
0.036659077 0.6301841 0.14230597 0.75321543 2.9251924 1.2943033 -2.241203 -2.665624
3.0530457 -3.1299248 -2.851551 -0.2546664 -5.2702146 0.28643826 -0.07914574 -0.14734185
1.8644723 -2.1542041 -1.6375493 -0.04037754 0.24314952 2.5508523 -2.0550609 -11.988107
8.513997 -9.198144 12.955765 3.017442 2.577886 -16.675245 -1.8644643 14.65374
1.0947576 0.38244793 -1.9022778 0.7660963 1.3356826 2.6202219 -1.0916083 -2.4444036
-0.50071 2.3014 1.0231565 -3.8658385 2.9527972 0.36520597 -1.4373254 -1.9371612
-2.224019 2.3216 -1.7787662 -2.9214053 2.146593 1.6527008 -1.7008338 -2.8209643
3.2913308 2.0371957 2.3180633 1.2774463 1.0778385 0.5202502 -0.868612 -0.046233706
0.4686734 -1.4710785 0.5968285 -0.7477762 -0.598892 0.453692 0.20157762 0.6623751
0.45554167 0.18392424 0.32210806 -0.64567995 -0.76824 0.22032318 1.1722671 -0.8034979
0.87484 0.33178374 1.202652 -1.1242747 -0.56213343 -0.50406677 -0.28814557 0.18358257
0.16725956 0.14560615 0.32744685 0.30490893 0.47228074 0.05389444 0.34431747 -2.8215778
-5.591605 -5.2685447 2.5129116 -3.5932238 2.5928707 1.4736234 3.0221648 6.967218
-2.1731791 0.19117637 0.7915183 -3.406252 -1.4991614 1.3684611 2.5530667 -2.9711957
0.79255897 1.1693189 5.3142805 -8.511918 2.6489208 0.34445924 -1.3629384 0.41417262
-7.5107617 -14.206685 4.4800806 3.1551912 5.5869174 -0.6850597 -7.874106 -6.1936526
-0.58756727 -3.4385607 -5.2752028 -2.363278 -1.0235168 3.0109463 -3.9506829 3.6131861
-0.43697947 -0.5876966 3.1511753 -2.999375 -0.50067276 -0.07891586 0.40525252 0.093585044
00000000: d0e9 533f 84d7 07bf be3b 8940 fc32 fabf
00000010: a723 14c0 f5af 0340 43e3 543f dfa0 0fc0
00000020: e4cf 1cbf 7ef4 11c0 12c0 7340 a033 99bf
00000030: 47df 8dbf 4218 0040 b9ee d8bf 9cab 8a40
00000040: 5804 be3d e250 97c0 2b81 fdbf 72f4 713f
00000050: 533b c83f ba11 09c0 d786 433d b39b f9bf
00000060: b9ae af3f 7f6b 023f 1da3 51c0 74b7 113f
00000070: 6e22 a73f 0c08 fbbf c084 9c3f 6504 f63e
00000080: 0749 2640 0ecb 283f 63c3 7440 93b1 9a40
00000090: 2dea acbf 44f0 2240 5155 2abf ada7 b53f
000000a0: 69a5 b03f ef12 9dbf a1fc 903f d683 3140
000000b0: bb03 1bc0 213e c43f f6af dabf ece6 e63f
000000c0: 9843 2e3f be03 5a3f c640 f5bf 1067 ecbf
000000d0: bf96 983f e2d0 153f 2bf2 31c0 1519 6840
000000e0: ce92 0b3f b84b 8b3f c5c3 05c0 271e d3c0
000000f0: f9d7 21c0 90c5 78c0 7f8c 24c0 4373 a640
00000100: c7d3 b2c0 c343 2ec1 2357 0741 ec93 51c1
00000110: ea14 b1c0 823d 3a41 3a01 05c1 85dd ecc0
00000120: 505e 783f a0d1 88bf 5966 8c3f 0b2e 983f
00000130: 2b51 323e 031c 0d3f 5370 0f3f 4e84 143f
00000140: b7d5 a6bf 7dc0 98bf 3473 93bf d0e2 9fbe
00000150: 3ea5 97bf f0d5 9a3f 4e59 863e 5927 e43f
00000160: 6e71 51bf 1a2d 2e3d e7ce 5ac0 ed80 cb3d
00000170: b2ad fd3f 97fc dfbf ef11 853f fbb6 a5be
00000180: 9f0b fd3f 5c5b 54c0 13dc b53f b06c 06c0
00000190: 3d25 afc0 c5dd 2dc0 40c9 e9c0 eb49 0440
000001a0: 0902 0740 f808 623f f432 86c0 dfe2 7d40
000001b0: b188 d8be 8dd8 87bf 3e68 0740 3df1 d4bf
000001c0: d427 163d bf53 213f a8b8 113e bad2 403f
000001d0: 5a36 3b40 bbab a53f df6f 0fc0 9599 2ac0
000001e0: 1a65 4340 b050 48c0 d07f 36c0 a263 82be
000001f0: 99a5 a8c0 09a8 923e 2917 a2bd c8e0 16be
00000200: 07a7 ee3f 7bde 09c0 379b d1bf eb62 25bd
00000210: 30fc 783e 2a41 2340 1e86 03c0 49cf 3fc1
00000220: 5539 0841 992b 13c1 d04a 4f41 c51d 4140
00000230: 16fc 2440 e766 85c1 c4a6 eebf b875 6a41
00000240: 0421 8c3f 37d0 c33e d77d f3bf e31e 443f
00000250: a6f7 aa3f b7b1 2740 d2b9 8bbf 1c71 1cc0
00000260: 882e 00bf 234a 1340 cbf6 823f e669 77c0
00000270: a1fa 3c40 47fc ba3e 47fa b7bf e6f4 f7bf
00000280: 5456 0ec0 1895 1440 9cae e3bf 4ef8 3ac0
00000290: c861 0940 b38b d33f ecb4 d9bf ae8a 34c0
000002a0: 2aa5 5240 6a61 0240 265b 1440 5c83 a33f
000002b0: 9df6 893f 1e2f 053f 5b5d 5ebf 8e5f 3dbd
000002c0: f6f5 ef3e 4d4c bcbf c1c9 183f 436e 3fbf
000002d0: fc50 19bf 514a e83e 5d6a 4e3e 6a91 293f
000002e0: c23c e93e a356 3c3e 59eb a43e 484b 25bf
000002f0: 60ab 44bf 669c 613e d90c 963f 0ab2 4dbf
00000300: 84f5 5f3f 8fdf a93e 80f0 993f 3ce8 8fbf
00000310: fae7 0fbf 850a 01bf d187 93be 12fd 3b3e
00000320: 1746 2b3e c719 153e 1da7 a73e 061d 9c3e
00000330: c8ce f13e 6bc0 5c3d 614a b03e bb94 34c0
00000340: 6eee b2c0 eb97 a8c0 8bd3 2040 61f7 65c0
00000350: 98f1 2540 b19f bc3f 266b 4140 73f3 de40
00000360: 5e15 0bc0 bdc3 433e f1a0 4a3f 0800 5ac0
00000370: 85e4 bfbf bc29 af3f 7265 2340 1228 3ec0
00000380: 25e5 4a3f 3eac 953f 960e aa40 d130 08c1
00000390: eb87 2940 f65c b03e c474 aebf 6f0e d43e
000003a0: 2958 f0c0 954e 63c1 d25c 8f40 a7ee 4940
000003b0: 07c8 b240 1360 2fbf adf8 fbc0 6732 c6c0
000003c0: cf6a 16bf 6111 5cc0 76ce a8c0 f23f 17c0
000003d0: 9902 83bf 58b3 4040 fdd7 7cc0 713e 6740
000003e0: c6bb dfbe 4973 16bf dbac 4940 c3f5 3fc0
000003f0: 172c 00bf a39e a1bd 427d cf3e 84a9 bf3d

block2.dw1.bias f4 [48]
0.007938132 0.27954426 1.0286831 -1.7037324 -0.4014216 -0.2732577 2.3374755 4.5832267
-0.2456322 0.08851449 0.24342898 2.7843726 -0.943675 2.471899 0.4346158 -1.4176694
-0.058556452 0.2125307 -0.61904275 -0.0843265 -0.04430146 0.11463736 -0.39203602 0.25357175
0.5757463 3.681226 2.3786488 0.40523544 -0.35180104 0.28612548 -0.12839898 -1.117819
-0.5694883 0.4105201 0.60502815 -0.75239575 -0.06688751 -1.5434747 3.1515937 1.3168972
0.40741086 -1.1051341 -4.1423464 -0.67646503 0.25163928 0.9784231 1.0660694 0.22931695
00000000: f00e 023c 6d20 8f3e e3ab 833f e713 dabf
00000010: 2287 cdbe 6fe8 8bbe 3399 1540 cba9 9240
00000020: 0287 7bbe 1647 b53d 7245 793e 2933 3240
00000030: af94 71bf 9833 1e40 f685 de3e 3176 b5bf
00000040: e4d8 6fbd a6a1 593e 9679 1ebf 5fb3 acbd
00000050: 7375 35bd fec6 ea3d f2b8 c8be 28d4 813e
00000060: 1c64 133f 3599 6b40 c83b 1840 057b cf3e
00000070: 441f b4be 0a7f 923e 067b 03be b114 8fbf
00000080: fcc9 11bf b12f d23e 20e3 1a3f 029d 40bf
00000090: 52fc 88bd 9490 c5bf b6b3 4940 1690 a83f
000000a0: 2898 d03e 0975 8dbf 1a8e 84c0 d02c 2dbf
000000b0: ddd6 803e f079 7a3f f674 883f 10d2 6a3e

block2.se1.fc.0.weight f4 [16, 48]
-0.07428487 0.040542558 -0.22179586 0.21021381 0.00583316 -0.11007355 -0.013101853 0.12701552
0.14394516 0.13615392 -0.032521572 0.07974154 0.15419665 0.008256216 0.017158587 -0.06566053
0.053263474 0.07626188 0.046562802 0.018115293 0.087405965 0.057088982 0.078382194 0.20039682
0.018097812 -0.10171628 -0.038663056 0.112053245 -0.038984973 0.13544294 0.103045166 -0.15058967
-0.03592943 -0.14063291 0.031297453 0.004024638 0.038815733 -0.07599507 0.099827476 -0.1153349
0.08070751 -0.23520142 -0.04676559 -0.097474314 -0.11545371 -0.13817196 -0.019847756 -0.043381937
0.016765876 -0.043964054 0.056246288 0.076599315 -0.08276445 0.0141918305 0.009823069 0.018437637
0.09088753 0.024755241 0.09823348 0.09628142 -0.07501209 0.2105585 0.10654525 0.080194145
-0.110811524 -0.0071219476 -0.033304654 -0.020944882 -0.13468921 0.051484678 -0.05396936 0.026758322
0.14308332 0.12913507 0.05104802 -0.07877011 0.070905775 -0.10192477 0.074555226 0.072846875
-0.13362923 0.20634817 -0.08924451 0.019662403 0.080435306 0.2825893 -0.08410704 -0.019554636
0.072052866 -0.068694904 0.05106702 0.05342946 0.16049126 0.07317154 0.21245544 -0.065138236
0.025464196 0.0528993 -0.0017771992 -0.1210901 0.16131093 0.015168576 0.04191977 -0.07092962
-0.04322075 0.083389066 0.053652816 -0.026986642 0.14337853 -0.09756641 -0.115013525 0.051492613
0.13070445 0.14442818 0.12668946 0.10395522 0.006829998 0.027349235 0.12628832 0.096202
0.08336919 0.0031282038 -0.008110309 0.07512357 0.006437886 0.13428387 0.127581 0.106910765
0.16369624 -0.022329006 -0.037348468 -0.14943247 0.052983098 0.004625031 -0.09331905 0.12804893
0.02375936 0.29200482 0.15382941 -0.12327179 0.05621631 -0.11135032 -0.039043136 0.036843624
0.06462015 -0.036379196 0.18015887 0.39136583 -0.123883344 -0.052572217 -0.11210002 -0.059711244
0.057340506 -0.14401741 -0.054274943 -0.09898984 -0.028550208 -0.15884517 0.16646202 0.09156279
0.18969865 0.15978806 -0.11757686 -0.04047636 -0.09107224 0.066753246 -0.057265617 0.01125329
0.16070592 -0.062515974 -0.05947481 -0.09250153 0.11511014 -0.01635471 -0.01943796 -0.014340677
-0.041013066 0.13936141 0.0827422 -0.055219013 0.15842462 -0.050651405 -0.053637616 0.1659797
0.06710267 -0.032995727 -0.120495915 0.040825028 0.15529014 0.07802856 0.08743469 -0.12644725
-0.10339984 -0.0076516033 0.28808874 0.3695823 -0.09316599 0.03619182 -0.20958725 0.029889211
0.05757818 0.21879075 0.11928679 0.24425192 -0.14340794 -0.10900905 0.109057814 0.1620277
-0.07421097 -0.07537743 -0.033534262 -0.1315396 0.16612034 -0.04648418 -0.056382578 0.09341496
-0.042387817 -0.18833141 -0.3130239 -0.07686854 0.100484855 0.10279896 0.05552652 0.22107968
0.02316791 0.011871716 0.19253202 0.1047212 0.16720837 -0.05759566 -0.049157646 0.19655274
0.15386881 -0.045589767 -0.28043532 0.22149183 -0.05148985 0.007437007 -0.035968225 -0.20709373
-0.13817354 -0.039223585 0.116682604 0.052296344 -0.110727295 0.050712425 -0.07039569 -0.021947473
0.071845934 0.002017284 -0.1561764 -0.13029067 0.11404415 -0.02108337 0.11176471 -0.05496957
00000000: aa22 98bd f40f 263d 741e 63be 4a42 573e
00000010: 1824 bf3b 3e6e e1bd 28a9 56bc 5b10 023e
00000020: 5c66 133e ef6b 0b3e 5735 05bd 884f a33d
00000030: bae5 1d3e 1445 073c 2a90 8c3c 0779 86bd
00000040: cd2a 5a3d 302f 9c3d a3b8 3e3d 8666 943c
00000050: e601 b33d 23d6 693d d886 a03d d334 4d3e
00000060: dd41 943c a050 d0bd 275d 1ebd 2c7c e53d
00000070: b5ae 1fbd 8eb1 0a3e 5809 d33d 2e34 1abe
00000080: bd2a 13bd 1302 10be c231 003d 1ce1 833b
00000090: 3ffd 1e3d 4ea3 9bbd 5972 cc3d b434 ecbd
000000a0: fb49 a53d a4d8 70be 468d 3fbd 9da0 c7bd
000000b0: ff72 ecbd f37c 0dbe c397 a2bc 42b1 31bd
000000c0: 9758 893c a713 34bd 8262 663d 1ae0 9c3d
000000d0: 6880 a9bd da84 683c f0f0 203c 870a 973c
000000e0: 3e23 ba3d 81cb ca3c a22e c93d 312f c53d
000000f0: f09f 99bd a69c 573e 6534 da3d d43c a43d
00000100: 27f1 e2bd 3a5f e9bb 766a 08bd 9a94 abbc
00000110: f8eb 09be 99e1 523d fa0e 5dbd 4534 db3c
00000120: 6f84 123e fc3b 043e bb17 513d 3952 a1bd
00000130: 0c37 913d efbd d0bd 69b0 983d be30 953d
00000140: 1ad6 08be ef4c 533e d3c5 b6bd 0c13 a13c
00000150: 44bb a43d 8baf 903e 5040 acbd 0b31 a0bc
00000160: 7490 933d eaaf 8cbd a72b 513d d9d8 5a3d
00000170: d257 243e f6da 953d eb8d 593e 3267 85bd
00000180: 4a9a d03c f0ac 583d e9f0 e8ba 16fe f7bd
00000190: b12e 253e 9e85 783c 11b4 2b3d 8c43 91bd
000001a0: 3e08 31bd e3c7 aa3d 0ec3 5b3d 1713 ddbc
000001b0: d2d1 123e e6d0 c7bd 368c ebbd ebe9 523d
000001c0: 63d7 053e fbe4 133e e2ba 013e 79e6 d43d
000001d0: 2dce df3b 810b e03c ba51 013e 8e05 c53d
000001e0: 77bd aa3d 8d02 4d3b 1ae1 04bc 63da 993d
000001f0: e7f4 d23b b681 093e 98a4 023e 08f4 da3d
00000200: fd9f 273e 52eb b6bc b5fa 18bd d304 19be
00000210: ce04 593d 928d 973b 0f1e bfbd 421f 033e
00000220: fda2 c23c a881 953e 7585 1d3e ec75 fcbd
00000230: 1343 663d a30b e4bd b2eb 1fbd 57e9 163d
00000240: 9257 843d 5a02 15bd 917b 383e 1a61 c83e
00000250: 8db6 fdbd f755 57bd b294 e5bd c793 74bd
00000260: e1dd 6a3d 4d79 13be 674f 5ebd 2fbb cabd
00000270: 20e2 e9bc 4fa8 22be 0575 2a3e 4685 bb3d
00000280: 5d40 423e 7b9f 233e 23cc f0bd 8aca 25bd
00000290: 1584 babd edb5 883d 5a8f 6abd b85f 383c
000002a0: 1890 243e 6008 80bd dc9b 73bd 7171 bdbd
000002b0: ddbe eb3d 50fa 85bc 5b3c 9fbc 29f5 6abc
000002c0: 51fd 27bd c2b4 0e3e be74 a93d 552d 62bd
000002d0: 103a 223e d977 4fbd 1eb3 5bbd 95f6 293e
000002e0: 206d 893d 8726 07bd 90c6 f6bd 2538 273d
000002f0: 6104 1f3e 70cd 9f3d f510 b33d 637b 01be
00000300: 4cc3 d3bd 4dba fabb 5e80 933e e439 bd3e
00000310: d0cd bebd e03d 143d 0a9e 56be 38da f43c
00000320: 19d7 6b3d af0a 603e a24c f43d 2d1d 7a3e
00000330: 88d9 12be 2340 dfbd b459 df3d 97ea 253e
00000340: ecfb 97bd 7b5f 9abd 395b 09bd 51b2 06be
00000350: 731b 2a3e 3266 3ebd 6bf1 66bd 5850 bf3d
00000360: d99e 2dbd f3d9 40be ab44 a0be 416d 9dbd
00000370: 01cb cd3d 4388 d23d c76f 633d b662 623e
00000380: a1ca bd3c 9681 423c 1d27 453e 1278 d63d
00000390: ac38 2b3e 6de9 6bbd 8759 49bd 1f45 493e
000003a0: c98f 1d3e 56bc 3abd 3895 8fbe c1ce 623e
000003b0: 05e7 52bd 23b2 f33b 6b53 13bd 6110 54be
000003c0: 5d7d 0dbe e9a8 20bd 4af7 ee3d b134 563d
000003d0: fec4 e2bd d5b7 4f3d 9e2b 90bd 30cb b3bc
000003e0: f623 933d 6934 043b b5ec 1fbe eb6a 05be
000003f0: fb8f e93d 08b7 acbc e5e4 e43d c627 61bd

block2.se1.fc.0.bias f4 [16]
0.0734135 -0.063940555 -0.094964065 -0.004435519 0.014720025 -0.08155889 -0.119416565 0.18056582
0.0368364 -0.11678176 -0.09148607 0.02446348 -0.01376392 0.16157724 -0.0079708835 0.13161802
00000000: d159 963d 44f3 82bd 857c c2bd d557 91bb
00000010: 422c 713c 5908 a7bd ac90 f4bd 3fe6 383e
00000020: c4e1 163d 462b efbd 0c5d bbbd a367 c83c
00000030: 1182 61bc 8174 253e 4f98 02bc e0c6 063e

block2.se1.fc.2.weight f4 [48, 16]
0.037329488 -0.19923952 -0.20761712 -0.13849388 -0.013479514 -0.106501244 0.23175576 0.28540507
0.23722693 -0.23879787 -0.08010805 0.07075144 -0.15720467 0.24032457 0.06878694 0.07684982
-0.059445046 -0.0054525035 -0.03152807 -0.11140817 -0.061731562 0.0018807069 -0.063851535 0.10224195
-0.019835616 0.09968972 -0.29701948 -0.042897936 0.047586065 -0.07785064 -0.113596894 0.16048717
-0.15936677 -0.28520143 -0.025991337 0.13515303 -0.15704867 -0.021737961 0.11312452 -0.20178612
-0.0322711 -0.27891725 -0.027645448 0.13935862 -0.07348348 -0.067035 0.26335827 -0.1172747
-0.22995108 -0.026884291 -0.13259043 -0.25768203 -0.27575243 -0.065515056 0.11448866 0.062103685
-0.14256911 0.018499658 0.08499977 0.19012854 -0.12294898 0.1868059 -0.24723107 -0.14702491
0.15877809 -0.047476485 -0.20736602 -0.21887235 0.078839004 0.21573095 0.04591608 -0.07190873
-0.30641797 0.05554916 -0.2524771 -0.10767027 -0.109650075 0.054215256 -0.026700487 0.11873168
0.04348802 -0.26653343 -0.23228046 -0.035961516 -0.1317924 0.16081774 -0.0051956475 -0.29728046
0.136378 -0.08979917 -0.054104235 0.034402598 -0.046920244 0.19568133 -0.13399181 0.07951349
-0.19471331 0.03358819 0.02680536 -0.09721414 -0.22921148 0.07938205 -0.1538159 0.015793646
0.19334209 -0.14589928 -0.10247344 -0.034489978 0.11954786 -0.13338692 0.38238278 -0.07196041
0.035189975 -0.040794432 0.010523612 0.048118666 0.36208946 0.08395428 0.21188107 0.00621652
0.15328963 -0.029849667 -0.11135421 0.24509522 -0.112406425 0.17061315 0.18978168 -0.0021194157
-0.2402685 -0.24745911 0.29693794 0.023555856 -0.054459482 0.06201143 -0.10514197 -0.061331395
-0.013388766 -0.13322105 -0.13804445 0.04449124 -0.13407597 -0.2993953 -0.12881815 0.015657771
-0.30171573 -0.06631147 -0.18722373 -0.017192755 -0.36201686 0.06044994 0.0386481 -0.119336
-0.24751888 -0.13609217 -0.0029106785 -0.33444813 -0.010755886 -0.18420412 0.12211359 -0.36930332
0.061538186 0.03741845 -0.21930243 0.20141788 0.05581292 0.09338726 -0.027622163 -0.068150714
-0.36972457 0.12384532 0.120495364 -0.08097781 0.1794597 0.006796593 0.05181629 -0.07146314
0.06239749 0.17633027 0.17105275 0.10416263 -0.004801045 -0.12524168 -0.18196565 0.14144716
0.2525004 0.17585342 -0.011729893 -0.3898449 -0.23585431 -0.17998263 0.23103495 0.22290695
0.13488913 -0.2269527 -0.1571057 -0.07152033 0.0045296424 -0.004093646 0.17380625 -0.23663495
-0.1574458 0.37083408 0.070225045 -0.32523304 0.20540977 0.20669012 0.24016817 0.19444859
0.208375 -0.049181342 -0.0003726638 0.21997724 0.05620837 -0.0454277 0.058292747 0.1704999
0.12914349 -0.024153285 0.03186065 0.015364504 0.07138163 0.14765073 0.22273801 0.31752217
0.026615078 0.12105128 -0.17812982 0.16085687 0.054076754 -0.15774041 -0.23641086 0.10828362
-0.18647748 0.4182498 -0.022296123 -0.2062124 0.020993073 -0.3228229 0.08218734 -0.10272835
-0.10635627 0.23506628 0.10558861 0.049525827 0.18631679 0.010157464 0.17306298 -0.03988323
-0.23843086 0.23354973 -0.13157025 -0.15811756 0.16504446 -0.21302442 0.049639124 0.030245721
00000000: cee6 183d 7205 4cbe 9599 54be 57d1 0dbe
00000010: 2ed9 5cbc 531d dabd 6251 6d3e 9d20 923e
00000020: 9eeb 723e 6e87 74be b00f a4bd 22e6 903d
00000030: 43fa 20be a517 763e 2be0 8c3d 7063 9d3d
00000040: a67c 73bd eaaa b2bb 9423 01bd f729 e4bd
00000050: 3cda 7cbd 0d82 f63a 98c4 82bd 3a64 d13d
00000060: 4d7e a2bc 202a cc3d f012 98be bfb5 2fbd
00000070: 9be9 423d 2870 9fbd 7da5 e8bd c056 243e
00000080: 0b31 23be ec05 92be c9eb d4bc 8e65 0a3e
00000090: 5ed1 20be cf13 b2bc d4ad e73d 05a1 4ebe
000000a0: b32e 04bd 3ece 8ebe b578 e2bc 07b4 0e3e
000000b0: 827e 96bd a549 89bd e5d6 863e b82d f0bd
000000c0: 4c78 6bbe 723c dcbc c9c5 07be e6ee 83be
000000d0: 6c2f 8dbe c22c 86bd 0879 ea3d 6f60 7e3d
000000e0: a3fd 11be 988c 973c 5c14 ae3d 0eb1 423e
000000f0: adcc fbbd 0c4a 3f3e 242a 7dbe b38d 16be
00000100: b996 223e b476 42bd c257 54be 1320 60be
00000110: 5876 a13d 93e8 5c3e 8012 3c3d e244 93bd
00000120: d1e2 9cbe 8487 633d ae44 81be 3b82 dcbd
00000130: 3890 e0bd d110 5e3d fbba dabc 9829 f33d
00000140: 7e20 323d 1277 88be eeda 6dbe 624c 13bd
00000150: 96f4 06be 68ad 243e 4040 aabb 2535 98be
00000160: ada6 0b3e a1e8 b7bd 679c 5dbd bde9 0c3d
00000170: 712f 40bd b060 483e 2635 09be f8d7 a23d
00000180: ed62 47be c593 093d ea96 db3c 3518 c7bd
00000190: 6ab6 6abe 0e93 a23d ea81 1dbe ad61 813c
000001a0: 78fb 453e 9f66 15be 98dd d1bd 5d45 0dbd
000001b0: 82d5 f43d 9596 08be adc7 c33e fb5f 93bd
000001c0: 5d23 103d 1018 27bd 3a6b 2c3c 1418 453d
000001d0: ca63 b93e 39f0 ab3d 5af7 583e f3b3 cb3b
000001e0: f5f7 1c3e 4a87 f4bc ad0d e4bd 3efa 7a3e
000001f0: 5735 e6bd 37b5 2e3e 2156 423e e5e5 0abb
00000200: f208 76be ec65 7dbe 4008 983e 36f8 c03c
00000210: e810 5fbd b2ff 7d3d ac54 d7bd a136 7bbd
00000220: 8e5c 5bbc 196b 08be 865b 0dbe 723c 363d
00000230: 364b 09be 574a 99be e8e8 03be ba44 803c
00000240: 7c7a 9abe 4fce 87bd 94b7 3fbe d2d7 8cbc
00000250: 465a b9be 5b9a 773d 784d 1e3d 6f66 f4bd
00000260: 9775 7dbe bf5b 0bbe 15c1 3ebb c93c abbe
00000270: 7539 30bc 01a0 3cbe b116 fa3d 5315 bdbe
00000280: 770f 7c3d 1744 193d d190 60be 7d40 4e3e
00000290: 179c 643d d241 bf3d e047 e2bc 9a92 8bbd
000002a0: 8a4c bdbe 9da2 fd3d 46c6 f63d b2d7 a5bd
000002b0: 49c4 373e f4b5 de3b 513d 543d 445b 92bd
000002c0: 8394 7f3d ec8f 343e 7428 2f3e 3853 d53d
000002d0: 1652 9dbb 5b3f 00be 3455 3abe 86d7 103e
000002e0: bc47 813e eb12 343e bd2e 40bc c099 c7be
000002f0: cb83 71be 5e4d 38be 6d94 6c3e b841 643e
00000300: 6020 0a3e 4a66 68be 51e0 20be 4079 92bd
00000310: 656d 943b fe23 86bb 44fa 313e 6f50 72be
00000320: 7939 21be f7dd bd3e 26d2 8f3d f284 a6be
00000330: f056 523e 93a6 533e a5ee 753e 881d 473e
00000340: 4260 553e 6072 49bd 1762 c3b9 b741 613e
00000350: bf3a 663d 6512 3abd 60c4 6e3d 8797 2e3e
00000360: 313e 043e 1cdd c5bc 5080 023d 67bb 7b3c
00000370: 8830 923d c131 173e 6f15 643e 4492 a23e
00000380: dd07 da3c bce9 f73d aa67 36be aab7 243e
00000390: 967f 5d3d b486 21be b015 72be cdc3 dd3d
000003a0: f4f3 3ebe d624 d63e 5ca6 b6bc 5829 53be
000003b0: aaf9 ab3c 0b49 a5be d651 a83d 3e63 d2bd
000003c0: 51d1 d9bd 37b5 703e d73e d83d 98db 4a3d
000003d0: d4c9 3e3e 7e6b 263c 6c37 313e 995c 23bd
000003e0: 3827 74be a927 6f3e 5aba 06be 92e9 21be
000003f0: 6a01 293e 1323 5abe 6552 4b3d e0c5 f73c

block2.se1.fc.2.bias f4 [48]
0.24856538 0.0113993455 -0.2421601 0.24127495 -0.1540064 -0.017743101 0.00043378503 -0.19611278
-0.10759492 -0.13333718 0.14651382 0.18742107 0.18121572 -0.031101288 -0.2007861 0.085064
0.23013356 0.06964808 0.024624648 0.18875866 -0.34944594 -0.17153636 0.033858206 -0.027840834
0.100437105 0.07469707 0.15893443 -0.24231191 -0.062395636 -0.10977586 -0.00693849 0.14134507
0.18518305 -0.1014802 0.104545146 -0.08541024 -0.06500474 0.12932713 0.27701196 0.028634062
0.17148593 0.19005121 -0.27457738 0.30930755 0.0464112 -0.063446164 0.1068723 0.18428446
00000000: ec87 7e3e 52c4 3a3c d1f8 77be c810 773e
00000010: dbb3 1dbe fb59 91bc a46d e339 cad1 48be
00000020: ba5a dcbd 8b89 08be b807 163e 4feb 3f3e
00000030: 9d90 393e 21c8 febc df9a 4dbe 0936 ae3d
00000040: 22a8 6b3e a7a3 8e3d a1b9 c93c f349 413e
00000050: 94ea b2be 3aa7 2fbe e7ae 0a3d 7612 e4bc
00000060: f8b1 cd3d c7fa 983d b5bf 223e 9d20 78be
00000070: 9192 7fbd 2bd2 e0bd 465c e3bb c3bc 103e
00000080: a0a0 3d3e dad4 cfbd c41b d63d 90eb aebd
00000090: 3521 85bd 556e 043e 83d4 8d3e fb91 ea3c
000000a0: 029a 2f3e c99c 423e 6895 8cbe 8f5d 9e3e
000000b0: ac19 3e3d 10f0 81bd dddf da3d 11b5 3c3e

block2.pw2.weight f4 [32, 48, 1, 1]
4.298073 0.6512075 0.06321774 0.53043705 1.356276 -0.95598644 -0.7246594 -7.964978
-1.0389553 -1.4890375 -1.011244 3.504729 0.68336695 -3.4759467 -3.2673688 -2.0358713
-3.5727458 -6.376128 -3.9833615 0.8985487 -0.4885935 4.3239226 -0.11439635 -0.8653098
-0.20505193 -6.9322343 0.10044378 -2.3638194 -2.7981129 3.22521 3.6520085 -3.8751621
1.7896817 4.904833 -0.054751925 0.55343974 0.99656373 0.023975685 3.867555 4.540169
3.0167787 0.9262888 -0.29774973 0.0834462 1.3580143 2.669805 4.273908 -2.3694673
-5.298094 2.2121964 1.075022 3.52108 1.2484657 1.2643805 4.4889617 -0.031973794
-1.4881444 -0.05238726 2.4444735 -0.089122094 3.8752422 3.1859376 -1.1571424 -3.5963085
-0.67632705 -1.2848773 -0.08107296 1.1542538 0.9069364 1.1084943 2.1851962 1.7908353
-4.347029 -1.4443911 -0.47213656 1.228485 1.6089739 3.6654184 3.3933122 -1.0607207
3.060755 1.6431149 -0.35771453 2.1902723 4.925714 -1.1975245 5.7705026 -0.7265887
-0.97947216 -8.496832 1.3629357 3.2080548 -0.36521846 -0.3394974 0.11147582 4.2733665
-3.2504048 0.6706335 1.2786655 2.3692274 -0.39219105 2.4685767 2.9596078 -0.8291851
-0.99817836 1.2535412 -1.2308096 -2.0950768 0.4803897 3.694272 2.796454 0.57888675
-1.0128912 0.41108635 -4.3063803 -3.742521 -0.5565688 -0.3848829 -0.67368907 2.2571008
-4.1844664 3.404679 -1.1994482 -0.38972723 1.453437 0.19513594 -2.8877335 0.50905484
2.4671597 1.1921248 -1.5432339 -3.7223396 2.181468 2.1325657 1.6022587 1.521142
2.6802053 1.1502752 -0.56680024 -3.3104954 -0.45649278 -3.1762612 -1.3936456 -0.0071349377
-1.6562409 -1.4171696 0.2867732 0.062688306 -4.2857404 -3.4775436 2.8104618 0.8135773
0.06381866 -2.5562866 0.4436648 -3.3677678 2.4637287 -2.1596413 -2.1817868 -2.4107647
2.8526165 1.0969088 -2.1383953 -1.8990784 -2.33137 0.27455398 -0.44661477 -2.5539162
-2.4517832 -2.6265984 2.2274954 -1.2385087 -4.271627 -0.9093758 -6.2656093 0.3005765
0.0047800257 -2.141812 3.0318625 -2.7134063 -0.8351425 -0.04929326 -3.0391982 -2.655363
5.209999 2.7584698 -0.18466805 -2.515207 -2.0478241 -1.8391294 -1.7920434 0.32851732
2.0852103 0.22517648 0.10134943 5.3499618 1.8013501 -3.650524 0.15946138 -0.8683339
-0.12159063 -2.9319339 -3.485374 3.1622918 -2.2238193 -5.3072157 -1.4140033 -1.2709811
-1.356708 -1.329659 -1.9676743 -4.0317297 -2.3615532 -2.8251603 -0.37918618 1.1736965
-2.6302025 -2.809798 -1.8529663 2.2181191 0.5407519 0.13014784 -4.9197774 1.0311116
-2.7238305 1.248959 -0.8799863 -0.56521446 -5.5258555 2.8729086 -1.4215598 1.8036323
0.9164547 2.008714 0.72663444 2.873001 -5.9084735 -5.4242635 1.508522 2.243121
1.7395713 3.5384853 -2.1300898 1.6158804 -0.540981 -1.2802529 2.1919043 0.82570666
3.3401601 -2.1954675 0.32141 -4.7474694 -1.5925049 2.3310096 1.0965887 -2.3501828
00000000: d089 8940 89b5 263f 4d78 813d b9ca 073f
00000010: 749a ad3f 87bb 74bf 4783 39bf 1ae1 fec0
00000020: 7dfc 84bf c898 bebf 7270 81bf 7b4d 6040
00000030: 23f1 2e3f e975 5ec0 921c 51c0 b74b 02c0
00000040: dea7 64c0 3e09 ccc0 65ef 7ec0 4a07 663f
00000050: ed28 fabe 935d 8a40 a248 eabd f184 5dbf
00000060: 22f9 51be ddd4 ddc0 78b5 cd3d d148 17c0
00000070: 4814 33c0 d769 4e40 82ba 6940 a802 78c0
00000080: 4a14 e53f 64f4 9c40 8e43 60bd 3aae 0d3f
00000090: cd1e 7f3f a868 c43c 0586 7740 1049 9140
000000a0: e712 4140 4321 6d3f a772 98be d7e5 aa3d
000000b0: 6ad3 ad3f 16de 2a40 dbc3 8840 5aa5 17c0
000000c0: fc89 a9c0 a094 0d40 529a 893f 6059 6140
000000d0: b9cd 9f3f 38d7 a13f 93a5 8f40 f4f6 02bd
000000e0: 847b bebf 0694 56bd 4172 1c40 a585 b6bd
000000f0: f803 7840 67e6 4b40 3e1d 94bf eb29 66c0
00000100: c523 2dbf dc76 a4bf 9409 a6bd 97be 933f
00000110: fc2c 683f 24e3 8d3f 41da 0b40 173a e53f
00000120: dd1a 8bc0 cfe1 b8bf e2bb f1be ff3e 9d3f
00000130: dbf2 cd3f 3796 6a40 072c 5940 b2c5 87bf
00000140: 69e3 4340 9751 d23f 5c26 b7be 6c2d 0c40
00000150: 739f 9d40 7c48 99bf f5a7 b840 b801 3abf
00000160: b0be 7abf 06f3 07c1 ad74 ae3f c550 4d40
00000170: eafd babe 9ad2 adbe 6f4d e43d 6bbf 8840
00000180: a206 50c0 a3ae 2b3f 50ab a33f 6ca1 1740
00000190: 44cd c8be 29fd 1d40 376a 3d40 7a45 54bf
000001a0: 9e88 7fbf 0a74 a03f 2b8b 9dbf bd15 06c0
000001b0: a4f5 f53e f46e 6c40 1af9 3240 ec31 143f
000001c0: 6ba6 81bf e979 d23e decd 89c0 7785 6fc0
000001d0: 4b7b 0ebf 5f0f c5be e376 2cbf 5774 1040
000001e0: 26e7 85c0 43e6 5940 8587 99bf 548a c7be
000001f0: 390a ba3f b7d1 473e a0d0 38c0 6b51 023f
00000200: f2e5 1d40 8c97 983f b088 c5bf d03a 6ec0
00000210: 2c9d 0b40 f57b 0840 d016 cd3f c8b4 c23f
00000220: 7c88 2b40 383c 933f d219 11bf 28df 53c0
00000230: 6cb9 e9be dd47 4bc0 fb62 b2bf 32cc e9bb
00000240: b4ff d3bf d065 b5bf f0d3 923e ba62 803d
00000250: c924 89c0 1390 5ec0 9bde 3340 9a46 503f
00000260: 5cb3 823d 339a 23c0 0828 e33e 8289 57c0
00000270: bbad 1d40 9037 0ac0 65a2 0bc0 f849 1ac0
00000280: 4591 3640 8267 8c3f 78db 08c0 0015 f3bf
00000290: 2b35 15c0 5792 8c3e b1aa e4be 5d73 23c0
000002a0: 04ea 1cc0 301a 28c0 498f 0e40 7487 9ebf
000002b0: 2bb1 88c0 dacc 68bf df7f c8c0 2ae5 993e
000002c0: c3a1 9c3b 7313 09c0 090a 4240 73a8 2dc0
000002d0: e6cb 55bf bbe7 49bd 3982 42c0 78f1 29c0
000002e0: 50b8 a640 c58a 3040 9f19 3dbe 27f9 20c0
000002f0: 8d0f 03c0 9868 ebbf ae61 e5bf 6c33 a83e
00000300: 1674 0540 aa94 663e 4a90 cf3d e332 ab40
00000310: a492 e63f 2fa2 69c0 d849 233e 214b 5ebf
00000320: 8204 f9bd cea4 3bc0 5e10 5fc0 fd62 4a40
00000330: 0e53 0ec0 b6d4 a9c0 0ffe b4bf 82af a2bf
00000340: 9ca8 adbf 4432 aabf c0dc fbbf ee03 81c0
00000350: b023 17c0 6dcf 34c0 b124 c2be b03b 963f
00000360: 3d55 28c0 bbd3 33c0 002e edbf aaf5 0d40
00000370: b76e 0a3f 7a45 053e d16e 9dc0 77fb 833f
00000380: 3d53 2ec0 e3dd 9f3f c846 61bf e5b1 10bf
00000390: cfd3 b0c0 bcdd 3740 acf5 b5bf 6cdd e63f
000003a0: c69c 6a3f c58e 0040 b704 3a3f 40df 3740
000003b0: 3712 bdc0 9193 adc0 4017 c13f 4b8f 0f40
000003c0: 46aa de3f 8b76 6240 6453 08c0 2bd5 ce3f
000003d0: bb7d 0abf 54df a3bf 2948 0c40 8361 533f
000003e0: 2fc5 5540 8a82 0cc0 da8f a43e 45eb 97c0
000003f0: 33d7 cbbf 432f 1540 055d 8c3f 6569 16c0

block2.pw2.bias f4 [32]
-0.11217321 -2.7433426 0.47262332 3.5696833 1.4356394 2.3143034 1.2660307 3.4362507
1.9593921 -0.592677 -3.306821 1.8296086 2.4479046 -0.3526223 -0.223074 0.81387144
1.4479078 0.72080916 0.018476056 1.848627 1.1458093 -0.13960037 1.544199 -1.008634
0.61951506 1.9576064 -2.1775064 2.5638196 0.6147419 0.5864145 2.9084258 0.20906541
00000000: 11bb e5bd ed92 2fc0 affb f13e b175 6440
00000010: 08c3 b73f 8c1d 1440 4b0d a23f 88eb 5b40
00000020: 5ccd fa3f aeb9 17bf f5a2 53c0 9d30 ea3f
00000030: 78aa 1c40 e98a b4be 836d 64be e159 503f
00000040: 0b55 b93f f386 383f 195b 973c cf9f ec3f
00000050: e1a9 923f 66f3 0ebe 50a8 c53f eb1a 81bf
00000060: 8a98 1e3f d992 fa3f 445c 0bc0 9f15 2440
00000070: ba5f 1d3f 431f 163f a623 3a40 3e15 563e
